AI/visualize/model.onnx (onnx, 96242 bytes, 14 tensors)

positional_encoding f4 [64, 64]
000000 19 8e 6d 3f 13 52 34 3f 86 b9 f7 3e 57 e6 c2 3e
       0.9279495 0.70437735 0.4838373 0.3806636
000010 30 45 a1 bf 25 63 63 3c b3 51 ec 3e bb 18 f2 3d
       -1.2599239 0.013878618 0.46156082 0.11821123
000020 9c bf ee bf 1f d4 91 3f fd 87 8d be cc a8 64 3d
       -1.8652225 1.1392859 -0.27642813 0.05582504
000030 b9 ec 28 3e fb ba 94 bf 89 9d a7 bf 1a 71 f7 3b
       0.16496553 -1.1619562 -1.3094951 0.0075513246
000040 da 93 de 3f db 42 81 bf 07 76 7f 3f af c6 19 bf
       1.7388871 -1.0098528 0.9978947 -0.6006879
000050 29 dc 6b bf 50 f8 1e 3f 6b 03 a7 bf d9 cc b2 bd
       -0.9213281 0.62097645 -1.3047918 -0.08730478
000060 a6 a4 45 bf 4a ce 52 3f 79 6d 82 3d 4c be 4e 3f
       -0.7720436 0.8234602 0.063685365 0.8075912
000070 ad cf fb 3e 71 36 9e be ef f9 85 3f 66 37 e3 bf
       0.49181882 -0.3090091 1.0466899 -1.7751281
000080 d8 36 21 bf a0 2a 43 3d e7 fb f3 3f 25 31 64 3f
       -0.6297431 0.047648072 1.906125 0.8913749
000090 73 c8 4e bf 95 79 cd 3f 60 19 b1 3d cb f4 40 c0
       -0.8077461 1.6052729 0.08647418 -3.014941
0000a0 00 1b c2 be 12 8d 62 3f b0 1e c3 bc a2 e5 07 3f
       -0.37911224 0.88496506 -0.023818344 0.53084767
0000b0 58 64 50 3f 43 d3 87 3f 68 37 a3 bf 84 e7 ca 3e
       0.8140311 1.0611347 -1.2751284 0.39629757
0000c0 8e 30 df be 35 30 8f bf f7 bb c2 3e c4 68 94 3e
       -0.43591732 -1.1186587 0.3803403 0.2898618
0000d0 c8 82 a5 3f 45 ee 91 3f 13 f5 be 3e 19 bd 52 3f
       1.2930536 1.1400839 0.37296352 0.8231979
0000e0 65 df 49 3f b5 fa 05 bf ef e9 95 bf b6 7b 13 3f
       0.788565 -0.52335674 -1.1712016 0.5761064
0000f0 12 92 ec bf 9e ca dd 3e 05 c5 84 bf 9a 14 de be
       -1.8482077 0.43318647 -1.0372626 -0.43375093
000100 be f6 e5 bd 94 54 11 bf 18 12 00 be 25 4c fa 3e
       -0.11228703 -0.5676968 -0.12506902 0.4888622
000110 59 8b 92 bf f1 ea 62 bf ba ad 29 40 59 18 64 bf
       -1.1448776 -0.8863974 2.6512284 -0.8909965
000120 59 37 20 3f 09 b4 21 3e 5f 62 0f bf 3f 88 a5 3f
       0.62584454 0.15791334 -0.5600948 1.2932204
000130 f6 94 36 be 86 1b 55 3f 11 8a 59 bf a9 f4 36 be
       -0.17830262 0.8324512 -0.849763 -0.17866768
000140 db 82 e5 3f f8 a8 01 3f e3 d9 d7 3f 92 f3 98 bd
       1.7930559 0.5064845 1.6863369 -0.07468332
000150 62 76 20 bf 5d e2 65 3e d7 80 85 3f 6c b1 c2 3f
       -0.6268064 0.22449632 1.0429944 1.5210395
000160 b0 9a 03 3f 63 db 4a 3f fd f6 74 3f 0f b8 1c c0
       0.5140791 0.7924101 0.95689374 -2.448734
000170 c0 d4 27 c0 06 01 25 3e a1 d0 9c be 30 d3 40 bf
       -2.6223602 0.16113672 -0.3062792 -0.75322247
000180 0c d4 93 be 4a 5c 86 bf 19 7f a1 3d 7c 35 1f 3e
       -0.28872716 -1.0496914 0.0788557 0.15547746
000190 b7 2f 8d 3d 0f e9 d9 be a9 e2 17 bf 7c b0 65 bf
       0.068938665 -0.42560622 -0.5933023 -0.8972242
0001a0 96 37 d7 3e 15 68 95 be 22 a2 88 bf a0 f8 b7 3e
       0.42034596 -0.2918097 -1.0674479 0.35931873
0001b0 3c ea 01 bf 64 1d 23 3e 87 b2 ad 3f d5 3e 0a 3f
       -0.5074804 0.1592918 1.3570107 0.54002124
0001c0 a7 fe 90 3e 5f fc 21 3f dc 56 88 3f d4 c6 6f 3e
       0.28319284 0.6327571 1.0651507 0.2341569
0001d0 20 e0 89 3e 11 9e e1 3e 27 f6 3e 3f ec 43 6c 3f
       0.26928806 0.44065908 0.7459435 0.9229114
0001e0 ea 19 e9 3e 25 55 f1 bf 2e 10 7c be ee b5 6d bf
       0.45527583 -1.8854109 -0.24615547 -0.9285573
0001f0 80 1c fa bd 1a 6e 80 3e 18 4b 08 c0 f7 1d 21 bf
       -0.12212467 0.25084 -2.1295834 -0.6293635
000200 ec 02 e3 3f f2 1d 7d bf c5 46 25 3f d0 b9 76 bd
       1.7735267 -0.9887382 0.6456111 -0.0602358
000210 c0 ec 6e 3f 7d 0c 50 3f e7 6a 2b 3e 9d a5 f1 bf
       0.9333 0.81269056 0.16739999 -1.8878666
000220 d8 e6 a1 3f 81 49 90 bf 9c c5 ce bf 23 99 a6 3e
       1.2648573 -1.1272432 -1.6154056 0.3253871
000230 9b 90 66 3f 47 30 26 bf fc 85 a8 3e 1a 31 13 40
       0.900644 -0.64917415 0.32914722 2.299872
000240 50 70 3b be d8 d2 95 bf 93 f3 33 bf e3 a2 c9 bf
       -0.18304563 -1.170497 -0.7029354 -1.5752834
000250 ae 34 a2 3e f4 a5 29 3f 59 b2 bd 3e 7b 6d 0c 3f
       0.31680816 0.6626885 0.3705013 0.54854554
000260 5f 92 a9 bf 94 e0 9c 3e a6 b1 aa 3f ac d4 d6 3f
       -1.3247794 0.3064009 1.3335464 1.6783652
000270 85 92 a3 bf 62 99 96 3f dc df 9d 3f 36 21 c0 3f
       -1.2779089 1.1765559 1.2333941 1.5010135
000280 e5 4d 26 bf 87 db 1c bf 08 5f cf 3e f9 ce 97 bf
       -0.6496261 -0.6127247 0.4050219 -1.1860038
000290 46 c1 b6 3f 79 87 2c 3f 1e 9a 01 be e4 4f b1 3f
       1.4277732 0.67394215 -0.12656447 1.3852506
0002a0 91 6b 8b 3d 83 52 64 3f e0 81 ca 3f 10 64 b7 3e
       0.06807626 0.891884 1.5820885 0.3581853
0002b0 5c 22 c2 bf 90 b7 02 bf cf 59 3b 3f ae 3d 67 3f
       -1.5166736 -0.51061344 0.7318391 0.9032849
0002c0 be 4d c3 3e 4a 58 6b 3f 28 8b fa be 69 f8 e5 3f
       0.3814525 0.91931593 -0.48934293 1.7966434
0002d0 43 d5 d4 3e f2 98 c0 3f 79 86 1e 3f 7c 33 19 bf
       0.41568956 1.5046675 0.6192394 -0.59844184
0002e0 ce 32 a5 3e 10 df b3 be b6 9c 25 3d 67 cf c4 bf
       0.32265323 -0.3513112 0.040432654 -1.5375794
0002f0 ea 27 57 be 2a a0 c1 3f 12 82 5d 3e f7 80 3b 3e
       -0.2101132 1.5127003 0.21631649 0.18310915
000300 6f 7c ff 3e 36 6b 08 be b7 06 43 3d 11 4e ca 3e
       0.49899623 -0.13322148 0.047613826 0.39512685
000310 37 e3 29 bf 31 3c 0b 40 a0 38 54 be b5 22 bc bf
       -0.6636233 2.1755488 -0.20724726 -1.4698092
000320 7d 82 e9 be 88 db b0 3f f8 71 98 3e b8 a7 05 3f
       -0.45607367 1.3816996 0.2977445 0.52209044
000330 e8 f6 b8 be 3a 34 4a be 13 b8 15 bf 2f eb c4 3f
       -0.36125875 -0.19746485 -0.58484 1.5384272
000340 0c 0f fc 3f 97 d2 07 3f d8 d0 39 3f c3 2b 8e 3e
       1.9692092 0.5305571 0.72584295 0.27767763
000350 47 c5 a1 be 67 a5 33 bf 27 24 88 3f f0 81 b9 3e
       -0.31595823 -0.7017426 1.0636033 0.36231947
000360 0b 39 90 be 25 37 2b bf 14 aa 89 bf 9e 1f a4 3f
       -0.2816852 -0.6688102 -1.0755029 1.2822149
000370 86 9f 86 bd 79 f4 e0 be 1b d0 95 bf af b4 e3 3f
       -0.065733954 -0.43936518 -1.1704134 1.7789515
000380 1f 07 0d bd 04 7a 3c 3f 4c d3 bc 3f a7 e4 22 3f
       -0.03443062 0.7362368 1.4751983 0.63630146
000390 45 aa 85 3e d6 7b 31 3f 77 35 81 3f e6 30 9e 3f
       0.26106468 0.69329584 1.0094441 1.2358673
0003a0 ff 0a e5 3e de aa 8d 3f 39 2a 9b 3f 1b 63 c5 3e
       0.44734952 1.106777 1.212226 0.38552174
0003b0 a8 61 95 be ee 3c 8b 3f e0 f6 fd bf 6b de f7 3e
       -0.29176068 1.0877969 -1.9840965 0.4841188
0003c0 83 9d 04 40 87 98 61 3d 36 1f c0 bf 09 ee a3 bf
       2.0721138 0.055077102 -1.5009525 -1.2807018
0003d0 42 d3 bb 3e 7a ac c0 bd 4c 20 ab 3f 01 ad fa bd
       0.36684614 -0.09407897 1.3369231 -0.12240029
0003e0 c9 ef 0e 3d 1c fc 67 bf 05 a7 73 3e 49 ae 80 3e
       0.034896646 -0.90619063 0.23794182 0.2513297
0003f0 fd 10 a9 3f e9 52 b3 bf 8d ab 44 bf db 20 88 bf
       1.320831 -1.4009677 -0.76824266 -1.0635027

encoder.0.0.block.0.queries_projection.bias f4 [64]
000000 9a 42 49 3d 92 76 ca 3d 75 96 02 3e 96 93 c1 bd
       0.04913578 0.09885897 0.12752707 -0.09451978
000010 58 77 bb 3d 2c b7 54 3c 80 a6 87 bd cf a2 a2 3d
       0.091536224 0.012983125 -0.06623554 0.079412095
000020 b2 f4 bf bc d6 1e 96 3d 73 e0 18 3e db 4c 9f bd
       -0.02343211 0.073301 0.1492937 -0.07778331
000030 37 48 51 bd 72 e6 bb 3d 3d 73 85 bd 76 4c b9 bd
       -0.05109426 0.09174813 -0.065161206 -0.09047787
000040 bf 78 b4 bd e4 1b 35 be 50 b3 df 3d 7b cf 03 3e
       -0.08812093 -0.1768642 0.10922873 0.12872116
000050 a8 ea e7 3c 42 bf 9d 3d f9 30 12 bc f6 c5 f5 bc
       0.028310135 0.07702495 -0.008922809 -0.030001622
000060 c0 43 bb bd 43 a8 c8 bd 17 7e aa 3d 22 ad fc 3d
       -0.09143782 -0.097977184 0.08324831 0.1233771
000070 71 af e5 bd 69 ef 94 3d 50 3b a7 ba 02 19 61 3d
       -0.112151034 0.07272226 -0.0012758765 0.05495549
000080 5b b6 fc 3c 19 c3 93 bd c2 4b df bd 29 2e 80 bd
       0.030848673 -0.07214946 -0.109031215 -0.06258804
000090 7f 70 2c 3e 59 05 cc 3d 45 f7 d5 bc 46 88 ae 3b
       0.16839789 0.099619575 -0.026118884 0.0053263037
0000a0 17 9a 7b 3d d8 d2 3f 3d ad a8 2e 3d a8 f8 db 3d
       0.06142625 0.046831936 0.04264133 0.10740787
0000b0 a6 17 20 bd c6 ae 07 3d da e8 1a 3e d0 a5 76 bd
       -0.039085053 0.03312566 0.15127888 -0.060216725
0000c0 44 59 93 bd 4c c9 c5 bd 16 37 27 be 9f ad 9d bd
       -0.071947604 -0.09657535 -0.16329607 -0.07699131
0000d0 93 ef 84 3d fd 1b 00 3e 2a 4b db bc af a6 9e 3d
       0.06491008 0.12510677 -0.02676924 0.07746636
0000e0 c2 c3 ca bc 13 d5 1e 3e 8e 81 07 3c a5 17 d3 3d
       -0.024751548 0.15510969 0.008270634 0.10307244
0000f0 7d b0 1b bd 51 8a 59 bd 66 d0 44 3d f7 68 12 bd
       -0.03801011 -0.053110424 0.048050307 -0.035744634

encoder.0.0.block.0.values_projection.bias f4 [64]
000000 79 eb e1 bd 84 df 42 3d 89 5b d1 3c cb a9 a9 3c
       -0.11031241 0.047576442 0.025556343 0.020710846
000010 6f b5 da 3d 80 d3 bb bd 6e 5e 8d 3d 8f 10 b3 3d
       0.10679137 -0.091712 0.06902777 0.08743393
000020 b7 dd c3 bd ef 1d a0 ba fc b1 f1 3d 7f 1d 1c bd
       -0.09563773 -0.0012215952 0.11801526 -0.038114067
000030 18 c4 ba bd 19 f6 a9 bd 78 2d e3 bc ef ab b3 3d
       -0.09119433 -0.082988925 -0.027731642 0.08773028
000040 a5 0b 29 3d 0f b6 cd 3d 7b 40 fa 3c e3 44 c4 3d
       0.04127087 0.100444905 0.030548325 0.095834516
000050 aa ff 45 3c 41 5b a0 bc bd 33 00 3d 31 b6 98 bd
       0.012084881 -0.019574763 0.03129934 -0.07456625
000060 72 49 ff 3c 91 26 c8 bd a7 55 8c bc 39 54 3b 3c
       0.031162951 -0.09772981 -0.017130686 0.011433654
000070 86 50 95 bd 22 2a ff 3d aa 5f b8 3c 0b 16 9a 3d
       -0.07290749 0.12459208 0.022506554 0.075237356
000080 30 66 d3 bc 68 bd 98 bb a9 21 f3 bd 50 24 05 3e
       -0.025805563 -0.004661251 -0.118716545 0.13002133
000090 24 0b 0d 3d 3c 7d 75 bd 1e c3 6f 3d 61 5a 8a bd
       0.034434453 -0.059933886 0.058535688 -0.0675552
0000a0 07 b8 0b bd 03 97 71 bd a3 ff 6a bd 14 c2 bc 3d
       -0.03411105 -0.058981907 -0.0573727 0.09216705
0000b0 da 2f c2 3d 59 5d f6 3d 35 be bb 3c 8c f6 d5 bd
       0.09481783 0.120295234 0.022917846 -0.10447416
0000c0 f3 ec dd bd 01 0b a5 bd d9 54 04 bd 22 e0 85 3d
       -0.1083621 -0.080587395 -0.03230748 0.065368906
0000d0 00 6f b3 3c 89 32 49 3c 04 11 9f bd f9 ba 1a bb
       0.021903515 0.012280115 -0.07766917 -0.002360998
0000e0 a8 18 bc bd 26 00 dc 3c ae 06 10 bd d5 f8 95 3d
       -0.0918439 0.02685554 -0.03516262 0.073228516
0000f0 44 95 b1 bd f7 a5 e1 bd b1 68 40 3d 8f f4 0c 3d
       -0.08671048 -0.110179834 0.04697484 0.034412917

encoder.0.0.block.0.keys_projection.bias f4 [64]
000000 8d 01 b2 3d 54 30 b6 be a3 60 35 bd cf 05 b4 3d
       0.08691702 -0.35583746 -0.044281613 0.087901704
000010 89 8e ba 3d 5c 96 0c bd 7a 5e 45 3e 76 32 05 3f
       0.09109218 -0.03432308 0.19274321 0.5203012
000020 7c da af bd 25 e1 c5 bd 9b 5f c8 bd ff 39 35 3d
       -0.085865945 -0.096620835 -0.0978386 0.044244763
000030 52 d4 8c 3d f8 a1 0a 3e 34 89 d7 3d c6 04 da bd
       0.068764344 0.13538349 0.10524216 -0.10645442
000040 34 01 ee bb 07 32 83 be 59 9d 30 be 68 95 43 bd
       -0.007263327 -0.25624105 -0.17247523 -0.047749907
000050 a3 a6 a3 3e 2a 07 ac 3b 13 12 79 3c d4 b9 07 be
       0.3196307 0.0052498775 0.015202063 -0.13254482
000060 31 a8 4d 3d 60 07 34 be db d2 65 bd 9f 2a 4d 3d
       0.050209228 -0.17580938 -0.05610929 0.050089475
000070 f6 52 a0 bd a5 55 b8 bd 39 5f da be f5 16 79 3e
       -0.078283235 -0.090007104 -0.42650774 0.24325164
000080 e2 13 53 3d 53 96 f4 3d 88 7c 80 3b d9 65 10 be
       0.051532634 0.119427346 0.0039210953 -0.14101352
000090 83 72 da bd 67 ef 55 3d 6c 0d 1d be 55 4f ac bc
       -0.106663726 0.052230265 -0.15337151 -0.021033922
0000a0 5f 87 5c 3e 24 ce 59 3e 25 0a 31 be 37 35 79 be
       0.21536015 0.21270043 -0.17289026 -0.24336706
0000b0 74 14 04 bc 4a d0 27 be 12 37 ac bc 8b 45 01 be
       -0.008061517 -0.1638805 -0.021022353 -0.12624185
0000c0 2a 81 a2 3e 61 e1 91 3e 2a 82 84 be 09 67 11 be
       0.3173917 0.28492263 -0.25880557 -0.14199461
0000d0 16 32 cb 3c 79 35 46 bc ee 91 d3 bd ab 73 01 bd
       0.024804156 -0.01209771 -0.10330568 -0.03160445
0000e0 05 cc 62 3d 2e 0f 7d be 4a f5 e9 3d 3f 41 91 bd
       0.05537035 -0.24712822 0.11423738 -0.07092523
0000f0 9f a6 32 be 2a f4 08 3e 67 f9 98 bd 46 02 a7 3d
       -0.17446373 0.13374391 -0.07469445 0.081547305

encoder.0.0.block.0.final_projection.bias f4 [64]
000000 74 51 87 bc d2 03 e3 3c 9c 0c aa bd 34 cb 2f 3d
       -0.016518332 0.027711783 -0.08303186 0.0429184
000010 56 97 14 bc 70 33 bc bc 2f 0d e7 3c 43 76 10 3d
       -0.009069284 -0.022973746 0.028204529 0.035269033
000020 0c 2b 18 bd ff 71 89 bc 07 a9 bc 3d a3 b4 65 3d
       -0.037150428 -0.01677799 0.09211927 0.05608047
000030 55 d7 98 3d 71 e5 d6 bd d3 33 d8 3d 21 af 8f 3d
       0.07462946 -0.10492981 0.1055676 0.07015825
000040 e9 67 db 3c 75 4d f5 3d 22 17 91 bc a7 78 c5 3d
       0.026782947 0.119776644 -0.017711226 0.09642153
000050 91 94 a7 3c 29 b4 ac bb 5c 9c e8 bd 4a 73 85 3d
       0.020456584 -0.0052705 -0.11357948 0.0651613
000060 f0 9b 9c 3d 65 0c 59 3d a8 6e 15 3d 33 b7 5f bd
       0.0764693 0.052990336 0.036482483 -0.05461807
000070 b6 0e 64 3d c4 d5 b0 bc 7a b1 ad bd fe d2 05 3e
       0.055678092 -0.021586306 -0.084811166 0.13068768
000080 bd a4 b0 bd a0 6f f4 39 da 63 dc 3b 69 40 69 3c
       -0.08625171 0.00046622474 0.0067257704 0.014236548
000090 f5 d2 d5 3d cb de da bc f2 81 ee bd cf b6 54 bd
       0.104406275 -0.026717564 -0.11645879 -0.051932152
0000a0 84 0a 71 3d 66 ef ed 3c 71 3a 5d 3d 0b 7a 05 3d
       0.05884792 0.029044818 0.054010812 0.032587092
0000b0 29 ea 9e bd be f2 ad 3d 2f 42 f2 3d 96 bb 3a bd
       -0.07759506 0.08493565 0.1182903 -0.045589052
0000c0 fe 3f 0e 3d d3 9e d8 3d 54 e2 ac bd 0b 7a c0 bb
       0.034728996 0.10577168 -0.08441606 -0.0058739237
0000d0 74 fc a5 3c 3d 20 d2 3c 8a 0f 4c bd 14 00 23 bd
       0.02026198 0.025650138 -0.049819507 -0.039794996
0000e0 6e ae a0 bd d8 2f 9c 3d fa 43 c5 bd 0c e4 05 3e
       -0.0784577 0.07626313 -0.09632106 0.13075274
0000f0 f0 13 ac 3d 12 ac 04 3d f0 94 c4 bd 44 be e2 3d
       0.0840224 0.03239066 -0.0959872 0.110714465

classifier.1.weight f4 [2, 64]
000000 21 ed f6 3d 79 92 24 be 01 e5 99 be 18 64 81 3d
       0.120569475 -0.160715 -0.3005753 0.063179195
000010 51 7c 29 3e 08 4a 4e 3e 14 cd 2f 3e 77 ec 33 be
       0.16551329 0.20145428 0.17168075 -0.17570673
000020 b3 5d f3 3c eb fe 14 3e 7a b3 f0 3d 19 3d 68 3e
       0.029707765 0.14550368 0.117529824 0.22679557
000030 6f 81 4b 3e 98 72 71 bd f2 b4 62 be 2f 85 64 3e
       0.19873594 -0.058947176 -0.22139338 0.2231643
000040 07 05 36 3e 21 34 42 be 97 ef 31 be ec f2 b5 3c
       0.17775355 -0.18965198 -0.17376553 0.02221056
000050 30 04 63 3e 4e 5a 74 bd a2 4d 6e 3d a9 e4 a9 bc
       0.22169566 -0.059656434 0.058179505 -0.020738916
000060 4f 0b 1f bd 3a ed 39 3e b3 e2 5e 3d d9 74 65 3e
       -0.038829144 0.18156901 0.054415416 0.22407855
000070 5e 05 e6 3d a5 2a e4 bd b3 42 56 3e e4 e8 c2 bd
       0.112314925 -0.11140946 0.20923881 -0.095170766
000080 e7 33 85 3d 6f 46 1a 3e f8 60 2a 3e 94 da bd 3d
       0.0650404 0.15065931 0.16638553 0.09270206
000090 4f 1c 2a 3e 51 8c 26 be 18 89 17 3e 9c 22 52 3d
       0.16612361 -0.16264464 0.14798391 0.051302537
0000a0 d3 45 45 be 25 cf 27 be 34 8a 45 be 74 d7 34 3e
       -0.19264917 -0.16387613 -0.19291002 0.17660314
0000b0 16 13 d7 bd e3 86 47 be a7 ae 89 bc 89 e8 41 3e
       -0.10501687 -0.19485049 -0.016806914 0.18936361
0000c0 d9 34 18 bd 48 c3 45 3e 42 36 57 3e 07 77 31 be
       -0.037159774 0.19312775 0.21016791 -0.17330562
0000d0 17 13 20 be 39 d1 26 be ba 5b 48 be 49 42 7a bd
       -0.15632282 -0.1629075 -0.19566241 -0.06109837
0000e0 84 3e 92 bd 50 e3 3e 3d 1e 0b c9 bd a0 42 27 be
       -0.0714083 0.0466035 -0.098165736 -0.16334009
0000f0 d1 5f 13 3e 88 1e 80 3e f1 8b 03 be e8 49 6c be
       0.1439202 0.25023293 -0.12846352 -0.23075068
000100 36 81 25 be 5b 5b 90 3e 4e 2f b9 3d e5 c9 1d be
       -0.16162571 0.281947 0.09042226 -0.15409048
000110 04 57 c8 bd d9 9a 59 be c9 0c 29 be 50 11 51 3e
       -0.09782222 -0.21250476 -0.16508783 0.2041676
000120 72 d9 88 be 4c 4d ed bd df f5 a2 be 50 fe 85 be
       -0.26728398 -0.11587009 -0.3182821 -0.26170588
000130 a2 fb 06 be e6 6b 5b 3e 8d 74 ec 3d 3f 6d 1c be
       -0.13181928 0.21427879 0.11545668 -0.15276049
000140 7b 24 da bd 89 b7 03 bd ad 25 24 bd ed 61 44 3e
       -0.10651489 -0.032157455 -0.040074993 0.1917798
000150 f9 97 6b be fb a9 1b 3e 35 d7 13 be c5 95 81 3e
       -0.23007192 0.15201561 -0.14437564 0.25309578
000160 6b 33 fd 3d b8 9a 58 be fe c2 78 bd 5d 18 09 be
       0.12363323 -0.2115277 -0.060732834 -0.133882
000170 6a 53 fc bd e9 56 69 3e db 23 32 be 45 02 15 3e
       -0.123205975 0.2278706 -0.1739649 0.14551647
000180 57 ab 62 be b3 15 46 be e3 d1 91 be c2 b8 49 be
       -0.22135673 -0.19344215 -0.28480443 -0.19699386
000190 0c f1 44 be 7b a8 23 3e 70 5c 81 be 1c 08 3d be
       -0.19232577 0.15982239 -0.25265837 -0.18460125
0001a0 c4 45 e0 3d 24 88 3a 3e cd 5f 8b 3d 36 0b 56 be
       0.10950807 0.18215996 0.06805382 -0.20902714
0001b0 97 65 8e 3e 01 3c 6e 3e 25 0a 73 3e 5d da 19 be
       0.27811882 0.23265077 0.23734339 -0.15024705
0001c0 eb be 25 3e 1b 87 10 be 0f 00 bb bd 7c 19 12 3e
       0.1618611 -0.14114039 -0.091308706 0.14267534
0001d0 b7 a0 b5 3d 55 01 2b 3e b7 74 12 3e ff 02 b9 3d
       0.088685445 0.16699727 0.14302336 0.090337746
0001e0 f3 5e 34 3e c7 e4 13 be 72 a9 d9 3d 87 08 0c 3e
       0.17614345 -0.1444274 0.10628022 0.13675128
0001f0 f0 2d 39 be bc 02 27 be b8 c2 90 3d 27 70 3e 3e
       -0.1808393 -0.16309637 0.0706839 0.1859747

classifier.1.bias f4 [2]
000000 1d 5a b5 3d 0b 60 8a bd
       0.08855078 -0.067566

embedding.0.bias f4 [64]
000000 2b 4d 3c 3f a9 7e b2 3d 26 fe f8 3d b4 16 f8 3e
       0.7355525 0.08715565 0.1215785 0.4845482
000010 09 cb 0b 3f 0d b8 f6 3e 4b 67 15 be 5e 13 53 be
       0.5460668 0.48187295 -0.14590184 -0.20612857
000020 bf 66 17 3f d4 7b 71 3f db f8 56 bf 7e bc 18 be
       0.59141153 0.9432957 -0.83973473 -0.14915654
000030 8a 8f 38 3e ce a4 09 bd 0c 5c 8f 3d cf 19 4c bf
       0.18023506 -0.033604436 0.069999784 -0.7972688
000040 4f 0b 7b bf 27 ca 68 3f 43 69 16 3f 83 d9 5a 3e
       -0.9806413 0.9093346 0.58754367 0.21372037
000050 09 2d 0d 3f e4 f3 bf 3c 8b 5f 4b 3f 8e 7d 53 bf
       0.55146843 0.023431726 0.7944266 -0.82613456
000060 fa 8f 5b 3f 8a 43 73 3d 0a 48 60 3f cb 66 f3 be
       0.85766566 0.059390582 0.8760992 -0.47539362
000070 24 71 38 3f e1 65 9f 3d 26 1c 73 3e 4a a1 f7 3e
       0.7204764 0.07783104 0.23741207 0.4836524
000080 06 67 2b bf 38 1c c4 3d 2d 05 00 3f 25 42 49 3f
       -0.66954076 0.09575695 0.500079 0.78616554
000090 c9 03 86 bf 99 f0 25 3c 82 32 2f 3f 5a 4e 82 bf
       -1.0469905 0.010128164 0.68436444 -1.0180161
0000a0 56 e3 1c bf b0 eb 43 bf 70 9f f2 bc ba 0a 57 bf
       -0.6128439 -0.76531506 -0.029617041 -0.8400074
0000b0 bb ee 76 bf a5 ed 42 bf 42 77 64 bf 1f f6 38 be
       -0.96458024 -0.76143867 -0.89244473 -0.18062638
0000c0 9b d4 e1 3e 16 49 16 be 64 96 37 bf ba 98 a6 be
       0.44107518 -0.14676318 -0.7171385 -0.32538396
0000d0 93 06 3a 3f d3 e8 04 3f 0e 9e 73 bf 5f 58 3b 3f
       0.7266628 0.5191776 -0.9516305 0.7318172
0000e0 7a 9d 0a 3f 3b 05 6a 3f 4a bd f7 3e 83 27 4f 3f
       0.5414654 0.9141423 0.48386604 0.80919665
0000f0 ec e7 27 3f d9 d5 bb be 47 b8 4d 3f 29 73 9e be
       0.6558826 -0.3668659 0.8035931 -0.30947235

onnx::MatMul_132 f4 [1, 64]
000000 9a 5a 9d bf 5d 86 6c bf 19 99 87 bf 7d fc ad 3f
       -1.2293274 -0.9239252 -1.0593597 1.3592678
000010 74 ab 88 3f d4 98 c4 3d 25 95 4c 3f 56 0c 50 3f
       1.0677323 0.09599462 0.79915076 0.81268823
000020 4f dd e7 bf c2 d4 65 3f 7d 70 3b bf a5 60 93 bd
       -1.8114413 0.8977777 -0.7321852 -0.07196168
000030 4f 3b 85 3f d0 0f 4f 3e e4 30 44 bf c3 f1 35 3d
       1.0408725 0.20220876 -0.766371 0.044420015
000040 1b 8e 46 3f 53 aa 95 bc f6 31 ae 3f 14 bd 53 3e
       0.77560586 -0.018269693 1.3608997 0.20677596
000050 ff 93 8e 3f bc 78 c7 bf 80 da f0 be 64 b4 6e 3e
       1.1138915 -1.558372 -0.47041702 0.23311001
000060 72 1a 4d 3f 4d 2d e7 3e 54 d3 85 3f e5 9a c0 be
       0.8011848 0.4515175 1.0455117 -0.37618175
000070 87 23 28 3f 20 f0 c1 be 51 4f 10 bf c2 9b a5 3f
       0.6567921 -0.37878513 -0.5637103 1.2938159
000080 bc 27 e0 3e ba ac a1 be af 0f cb bf d4 03 66 bf
       0.43780315 -0.31577092 -1.5864161 -0.8984959
000090 75 a7 d3 3e 24 16 d4 bf 21 b8 d2 bf d6 6e 3e 3e
       0.41338697 -1.6569257 -1.6462442 0.18596968
0000a0 f5 ff 9a 3f 53 ad fc 3e 11 2b fd be 4c 27 ee 3d
       1.2109362 0.49350986 -0.4944692 0.11628589
0000b0 f7 c4 7f 3e c5 1d 4b 3b aa 88 89 bf 88 b3 51 3f
       0.2497748 0.0030993086 -1.0744832 0.8191457
0000c0 d6 ae 1d 3f 75 4c a4 3d 43 ce 4a bf 2c d8 98 3f
       0.61594903 0.080223955 -0.7922098 1.194097
0000d0 51 4e 34 bf 1f 83 d6 be 31 0f b7 3d 7f eb 90 3f
       -0.70432 -0.41896912 0.089384444 1.1321868
0000e0 32 08 c1 bd 6d a2 aa 3f e1 36 3d 3e fa be 09 bf
       -0.09425391 1.3330818 0.18477966 -0.5380703
0000f0 fb 75 bc bf 1a 31 04 bf 52 7b 93 3f d0 da ab bf
       -1.4723505 -0.51637423 1.1522009 -1.3426151

onnx::Expand_133 f4 [1, 1, 64]
000000 9a da 6b 3e cb 98 11 bf 16 33 78 3f a0 2c 42 3f
       0.23032609 -0.5687377 0.9695295 0.7584934
000010 10 d4 70 bf 45 d4 c8 3d 07 cf 86 bf 10 ae 4b 3f
       -0.9407358 0.09806112 -1.053193 0.79562473
000020 64 d4 96 3d 07 6c a6 3f ae 27 9c 3e 9d 2c 4c c0
       0.07364729 1.3001717 0.30499023 -3.190223
000030 df 0f ed bf 89 78 d9 3f 05 32 1c 3f 57 c1 80 bf
       -1.8520468 1.698991 0.61013824 -1.0059003
000040 d0 1d 17 bf 4c 2c 88 3f 92 cc 2f 3f 61 20 8e 3e
       -0.59029865 1.0638518 0.68671525 0.27759078
000050 99 cd ab 3e fb 3c 8d bd 48 a6 60 be 3e 9d a3 be
       0.33555296 -0.06896397 -0.21938431 -0.31955904
000060 9c d7 7b 3d 8b ed 21 3f c5 06 ab 3f 83 52 6b 3f
       0.061484918 0.63253087 1.3361441 0.9192278
000070 7a 2b fd bf e7 c0 05 bf 80 71 07 40 35 42 f1 bd
       -1.9778893 -0.5224747 2.1163025 -0.11780206
000080 b0 d0 73 bf 43 0a 3e be 11 a0 40 bd 40 a5 10 c0
       -0.95240307 -0.18558602 -0.04702765 -2.260086
000090 f1 cd 26 3f b2 48 57 bb ce 29 8b 3c 01 74 c8 bf
       0.6515799 -0.0032849726 0.016987707 -1.5660402
0000a0 e7 65 7b 3e 5e b9 2a 40 16 fe b3 3e b8 c6 27 3f
       0.24550591 2.667564 0.3515479 0.65537596
0000b0 5c 47 0d bf 0c cf 79 bf aa 65 ac be 13 c9 25 3f
       -0.5518701 -0.97581553 -0.33671314 0.6475994
0000c0 e0 9b 8f 3e e8 81 36 bf 9d 74 b7 bf 86 fc 2b 3f
       0.2804861 -0.7129197 -1.4332463 0.67182195
0000d0 84 0b 11 bf 95 86 8a bf 70 50 c3 3e c4 c7 12 3d
       -0.56658196 -1.0822321 0.38147306 0.035835043
0000e0 2a ed b9 bf c5 3f c0 be 75 40 6b be 57 15 5f bd
       -1.4525502 -0.37548652 -0.22973807 -0.05446371
0000f0 fa 5e c7 3f ba 5b 9f 3f 63 ee 15 be ef 51 79 bf
       1.557586 1.2449868 -0.14641719 -0.97390646

onnx::MatMul_140 f4 [64, 64]
000000 61 2d 13 3e a6 46 4a 3d e7 e5 48 be 83 b6 f5 bc
       0.1437278 0.04938378 -0.19618951 -0.029994255
000010 1a 1a 08 be a0 38 8f bd ac 75 ba bd dd 5e 69 be
       -0.13291207 -0.06993222 -0.091044754 -0.22790094
000020 4b df bc 3c dd a6 c0 3b 7c 57 ed bc a6 ec bb 3d
       0.023055693 0.0058792667 -0.02897238 0.091759965
000030 01 a5 3b bd 4c 41 27 bd b1 10 a0 bd 69 a0 87 bc
       -0.045811657 -0.040833756 -0.07815684 -0.016555982
000040 26 df c0 3d 12 0a 09 3e 13 49 55 bd 5b e9 f0 bd
       0.09417562 0.13382748 -0.052071642 -0.11763259
000050 2a 8d b2 3d af e2 8e bd 66 f3 24 38 c2 57 10 3d
       0.08718331 -0.0697683 3.932733e-05 0.035239942
000060 1d c3 7c 3d 5f 8c bc bd d1 fa ff bd 04 41 29 bd
       0.061709512 -0.09206461 -0.12499011 -0.04132177
000070 da c0 1a bd b2 4c 2c be d2 33 9b 3c fe b7 41 be
       -0.037781574 -0.16826132 0.018945608 -0.18917844
000080 b8 ee bc 3d 84 01 a4 bd b7 bc 0c bc 31 36 fe 3d
       0.092252195 -0.080081016 -0.008589915 0.1241268
000090 03 d2 95 3d 18 b0 a5 3b 81 e9 2b 3c 4c 4a f0 bd
       0.07315447 0.0050563924 0.010492683 -0.11732921
0000a0 92 99 f1 bd 0b da 21 bd 47 37 3a bd 2a 72 2e bd
       -0.11796869 -0.039514583 -0.045462873 -0.042589344
0000b0 62 a3 01 3e 16 4d 23 bd 4d 32 a8 3d b6 25 5c 3d
       0.12659982 -0.039868437 0.08212719 0.0537469
0000c0 8e 8c 36 3e a9 0a fc 3c ab 3a 39 bd b8 6a 16 be
       0.17827055 0.030766802 -0.045221966 -0.14689147
0000d0 24 5f e1 bd 58 18 30 3e e9 21 2a 3e 98 95 25 bc
       -0.11004475 0.17196786 0.16614498 -0.010106467
0000e0 e2 0e 96 be 74 3a da bd fb 1f 50 bd 95 d1 05 3b
       -0.2930823 -0.1065568 -0.05081175 0.002041911
0000f0 04 7b 7f 3d 63 9b d9 bd 22 11 38 be 40 50 68 bd
       0.062373176 -0.10625341 -0.17975286 -0.056717157
000100 2e a9 6f bd 8f 19 a8 bd c0 b0 98 3d 9c 64 ca 3d
       -0.05851095 -0.08208 0.074555874 0.09882471
000110 81 1c ba 3c 60 51 e3 bc a7 73 24 3d 9e 18 ed bc
       0.02271867 -0.027748764 0.040149357 -0.028942402
000120 84 ff 6f ba 37 6c 58 3d f1 05 3e 3d 5c 93 17 3d
       -0.0009155201 0.052837577 0.046392385 0.037005767
000130 d3 b3 55 3d 2e 2d 84 3d 60 21 07 3c 38 d4 84 bc
       0.052173447 0.0645393 0.008247703 -0.016214475
000140 0a be cd bd 0a 5f 33 3e c6 c3 0a bd 4d 96 86 3d
       -0.10046013 0.17516723 -0.03387811 0.06571636
000150 1b 48 99 bd 91 e8 15 be 6b be ab 3a 7a 91 57 bc
       -0.07484456 -0.14639498 0.0013103014 -0.013157243
000160 99 68 98 bd b7 ac 53 bd e8 e9 83 3d 1d db a7 bd
       -0.074418254 -0.051678386 0.064410985 -0.081960894
000170 6f f8 d0 3d 23 5a c4 bd d8 1e 16 3d 8f 9e 40 bd
       0.10203635 -0.09587505 0.03665051 -0.047026213
000180 8f f8 b6 bd 10 4f 61 bd 68 b1 9d bc 4d 81 2a 3c
       -0.089341275 -0.05500704 -0.019249633 0.010406804
000190 ef 26 1c be 12 6f 37 be 22 12 d6 3c c3 ec e1 3d
       -0.15249227 -0.17913464 0.026131693 0.11031487
0001a0 2b 1f a4 3d e6 ec 5d bd d2 cd 83 bd 12 b0 c5 bd
       0.08013757 -0.054181002 -0.064357415 -0.09652723
0001b0 f1 aa 06 bd 8e e6 52 bc 11 d6 06 be 61 8a b5 bd
       -0.032877866 -0.012872351 -0.13167597 -0.08864284
0001c0 85 d0 05 3e 91 fa 2f 3e b5 6a 11 3e fe 38 1b be
       0.13067825 0.17185427 0.14200862 -0.1515846
0001d0 fa ec d4 bc 5d 61 3b 3c b6 53 c3 3d fa 13 8f 3c
       -0.025991905 0.011436787 0.09537451 0.01746558
0001e0 06 a7 af bb c1 a4 df bc b1 a1 66 3d ff 29 6a bd
       -0.005360487 -0.02730024 0.056306545 -0.057168957
0001f0 df 52 e1 3d e3 c5 b2 3c 9e 50 b0 3d b8 07 07 3e
       0.110021345 0.021822875 0.086091265 0.13186538
000200 6a 68 c3 3c 71 02 82 bd 77 0c 46 bc a0 df 02 3e
       0.0238535 -0.06348122 -0.012087933 0.12780619
000210 58 f6 04 be 58 cf a0 bd 1e 4e 13 bd a5 3c 83 3c
       -0.12984598 -0.07852048 -0.03596317 0.016020129
000220 91 08 40 3d c4 7e 4b 3c 57 b9 c4 bd 59 a9 05 3d
       0.04688317 0.01242036 -0.09605663 0.032632206
000230 c2 6d 40 bd 54 c3 36 bd db bc 1b 3e fe cf 45 bd
       -0.046979673 -0.044619873 0.15208761 -0.04829406
000240 7c 3a e4 3d ce eb 93 3d 37 e6 15 bd 6d c8 03 be
       0.111439675 0.072227105 -0.036596503 -0.12869425
000250 04 84 7f bc 0a 84 3a bd 50 11 08 3d 76 f5 01 be
       -0.01559544 -0.04553608 0.033219635 -0.12691292
000260 fc 72 44 be b2 14 88 3d 14 e6 2e 3c b2 a6 d2 3d
       -0.19184488 0.06644572 0.010674972 0.10285701
000270 a4 56 9d 3b 75 bb 14 be c8 17 06 3d a0 15 b7 3d
       0.004801588 -0.14524634 0.032737523 0.089396715
000280 95 d4 fd bd 9a 8f f6 3d b6 76 7d 3c 1d 4d a9 bd
       -0.123940624 0.120391086 0.015470197 -0.08266661
000290 9e d3 68 be 7c ef 29 be 4c 67 d9 bb e1 8f 5b 3d
       -0.22736976 -0.16595262 -0.0066346284 0.05360401
0002a0 8f 36 93 3d db 8c 50 bc 32 e3 97 3c c1 8d dd bd
       0.071881406 -0.012728895 0.018540952 -0.10818053
0002b0 f6 06 9e bd 69 9a 1e 3d fa a6 aa bd 1f 12 bf 3d
       -0.077161714 0.038721476 -0.083326295 0.09329628
0002c0 b1 01 eb 3d c2 37 25 bd 11 a0 a0 3d 25 8d c6 bd
       0.11474932 -0.040336378 0.0784303 -0.0969489
0002d0 2a f6 61 3d bf 64 06 3d 75 25 00 be a5 f9 0b bd
       0.0551664 0.032810923 -0.12514289 -0.034173626
0002e0 10 b4 1b be ca 2d 04 be d5 ee 16 be b3 b4 c7 bd
       -0.15205407 -0.12908092 -0.14739545 -0.097512625
0002f0 4c 46 a7 3d d3 00 d9 3d 7b f7 40 3c c5 80 47 3d
       0.08167705 0.1059586 0.011777754 0.04870679
000300 05 22 9c bd c1 5f 81 bc b7 b1 62 bd 3c b3 6e bd
       -0.07623676 -0.01579273 -0.055345263 -0.0582764
000310 69 c2 03 3e a3 55 04 3e f1 8b 96 bd 20 dd 87 3d
       0.1286713 0.12923293 -0.073509105 0.06633973
000320 f0 17 0b 3e 2d 87 61 bd bb 53 ce 3d df 93 fa bc
       0.1358335 -0.055060554 0.10074564 -0.030588089
000330 47 d6 c4 bd d4 23 5a 3d 73 0d 4d bd fd f8 44 bd
       -0.09611183 0.053256825 -0.050061654 -0.048089016
000340 c0 81 35 bc 30 f0 ca bd fa 74 46 3e cd c8 fd 3d
       -0.011078298 -0.099090934 0.1938056 0.12391815
000350 ae 6f 46 3d 22 9c 32 3e a5 c4 8b 3d 54 66 58 3d
       0.04844635 0.17442372 0.06824616 0.052831963
000360 5b 61 08 bd 13 ee 80 3c 61 94 35 3e 8a 45 07 be
       -0.03329597 0.015738523 0.17732383 -0.13210121
000370 10 04 7a bd 00 f8 7a 3e f5 19 23 be 04 84 cc 3d
       -0.06103903 0.24508667 -0.1592787 0.099861175
000380 5a 2e 3a bd 18 b9 1e 3e 75 40 72 bd 48 32 dc 3d
       -0.04545436 0.15500295 -0.059143502 0.10751778
000390 37 ab 09 3e 3b 0b 0b 3e 1d e4 53 3d d8 68 65 3d
       0.1344422 0.13578503 0.051731218 0.05600819
0003a0 0e d7 7c 3d 88 a3 e9 bd 7f 21 ed bd 4e d3 e2 bd
       0.06172853 -0.11408144 -0.115786545 -0.110754594
0003b0 d3 75 44 3e fb 9c b2 bd 84 0a 9e 3d 77 bd 83 bb
       0.19185571 -0.08721348 0.077168494 -0.0040203887
0003c0 4b 62 0b be 46 34 c8 ba 6d 3d df bd 0a 94 de 3d
       -0.13611715 -0.0015274368 -0.10900388 0.1086808
0003d0 af 38 db bc 89 48 09 3e ac 79 c8 3d cd 5a 47 3e
       -0.026760427 0.13406576 0.09788832 0.19468231
0003e0 d2 6b 3b 3e 2a 97 b1 3d 5f ca da 3c 89 1c e4 3c
       0.18302849 0.086714104 0.026707826 0.027845638
0003f0 86 27 72 3d 3d 01 52 bd f3 b3 fe 3d 31 90 08 3e
       0.059119724 -0.051270712 0.12436666 0.13336255

onnx::MatMul_141 f4 [64, 64]
000000 d0 c6 b4 bd aa 70 3e bd 9c 97 15 bc 03 c1 92 bd
       -0.08826983 -0.046494164 -0.009130385 -0.0716572
000010 b4 4c d3 bd 72 a4 bc 3d e5 3f e5 3c e6 17 65 3d
       -0.10317364 0.09211053 0.027984569 0.055930994
000020 58 44 ee 3d 91 ff 96 bd 4f 91 d6 bd 7b 7a 88 3d
       0.11634129 -0.07372964 -0.10476934 0.06663986
000030 13 c7 84 3d ee 4b 50 bd 79 fe e4 3d aa 26 b8 bd
       0.06483283 -0.050853662 0.11181349 -0.089917496
000040 d4 64 87 bb 8a ee c3 3d 6a 28 06 bd 99 f7 e6 bc
       -0.0041318927 0.09566982 -0.032753386 -0.028194236
000050 62 18 d5 3d 5b 91 00 3e 3e ae b1 bd ba 74 f0 3c
       0.10405041 0.12555449 -0.08675812 0.029352535
000060 69 21 58 3d 0e b7 e6 bd 0a be c3 3d 92 08 8e 3a
       0.052766237 -0.11265384 0.095577314 0.0010836294
000070 2d fd 5a bd f7 82 be 3d 35 76 be bd 0d af 67 ba
       -0.053464103 0.09302323 -0.0929989 -0.0008838035
000080 00 f4 e3 bd 0e cd c7 bd c8 c0 8d bd ac 9f eb 3d
       -0.11130524 -0.09755908 -0.06921536 0.11505064
000090 d0 f2 17 3b 12 b4 1b bd e9 3a ce 3d 60 d8 56 3c
       0.00231855 -0.038013525 0.1006983 0.013113111
0000a0 1f ba 89 3d bd 68 0b be 98 fe e8 3d d0 95 4d 3d
       0.06724953 -0.13614173 0.11376685 0.0501917
0000b0 de 2b 04 3e 5f f0 5d 3d e5 2e ca 3d 7d cc 41 3d
       0.12907359 0.054184314 0.09872226 0.047314156
0000c0 d6 6a bf 3d b3 8c 90 3d 62 e8 99 3c 05 4f c2 bd
       0.09346549 0.07058086 0.018787567 -0.09487728
0000d0 c1 12 ea 3b 7a 4d 8d 3d c7 bb fe 3d 93 34 24 bd
       0.007143349 0.06899543 0.124381594 -0.0400892
0000e0 81 e3 87 bd 5e 67 be bd 25 5f c4 bd 8b 32 98 3d
       -0.0663519 -0.092970595 -0.0958846 0.07431515
0000f0 7e 8f c7 3d c9 f2 83 3d a6 da 8d 3d 5a fa f6 bd
       0.09744166 0.06442792 0.069264695 -0.120594695
000100 49 53 ec 3b 87 b2 12 bd 75 3a 96 3d d8 58 84 bc
       0.007212077 -0.03581479 0.073353685 -0.016155645
000110 c8 eb b7 bd 44 65 03 be d4 8e 2b 3d c7 7e 22 be
       -0.089805186 -0.12831599 0.04188426 -0.15868674
000120 82 df 4c ba ea a0 36 bd 62 2a b7 bd e0 7f 36 3d
       -0.00078152877 -0.044587053 -0.08943631 0.044555545
000130 65 f6 84 3a c8 cd 1a be 00 40 f7 bc 74 b7 6c 3b
       0.0010144232 -0.15117562 -0.030181885 0.0036120089
000140 08 78 1d bd ca 28 84 bd af 99 84 bb 44 96 3e 3d
       -0.03844455 -0.064530924 -0.004046641 0.046530023
000150 dc 7a 59 bd 9f a5 c0 bd 2c ee d3 bc 29 77 83 3d
       -0.053095683 -0.0940659 -0.025870405 0.06419212
000160 0f 4c fc 3d 7b 65 e1 3d c0 2d 5f 3d 85 e5 8b 3d
       0.123191945 0.11005684 0.05448699 0.06830887
000170 c1 6e 0d bd 71 fc 01 be bb 55 72 3d 33 76 2b bc
       -0.03452945 -0.12693955 0.05916379 -0.010465193
000180 e4 0b 21 bd 59 62 7e bd bd cd 03 3e 6e d5 0c be
       -0.03931798 -0.06210551 0.12871452 -0.13753292
000190 ae 27 19 be 83 49 4a 3d 1e 7c 5f bc 0f b8 14 3e
       -0.14956543 0.049386512 -0.013640432 0.14523338
0001a0 04 ac 84 bd 67 fd 95 3d 28 92 8c bd 76 38 56 3d
       -0.06478122 0.07323723 -0.068638146 0.05229994
0001b0 bc 83 13 be c4 36 71 3b a8 b5 41 3d 02 74 ce bd
       -0.14405721 0.0036806324 0.04729238 -0.100807205
0001c0 91 f2 51 bd de 35 ac 3d 3e 3f 06 bd 71 97 20 bd
       -0.05125672 0.08408712 -0.032775156 -0.039206926
0001d0 0c 6b 97 bc 13 dc e6 bb 6a a6 93 bd 95 ba 6a 3d
       -0.018483661 -0.007045278 -0.07209475 0.057306845
0001e0 1d 51 a9 bd 4e fe 4a bb 4e 58 7c 3d 8b 15 3b 3d
       -0.08267424 -0.0030974331 0.06160765 0.04567484
0001f0 d1 ab c3 3c b5 65 f7 bc 77 2e 4d bd 73 f3 6b bd
       0.02388564 -0.030199865 -0.05009314 -0.05760522
000200 9d a9 f6 3d 0f be 20 3d 16 2b 19 3d 4d 1f f4 bd
       0.1204407 0.039243754 0.037394606 -0.11920033
000210 89 5e 93 3d b0 d6 f2 bb e5 a7 a5 3b 2a d2 f2 bd
       0.071957655 -0.0074108467 0.005055415 -0.11856492
000220 a0 2e f2 bd 99 7c 6d bd cc 70 a5 3d 38 4d 30 bd
       -0.11825299 -0.057980154 0.08078155 -0.04304239
000230 ce 06 01 bc 12 0f 94 3d 30 ed cd bd 1f f4 ca bd
       -0.0078751575 0.07229437 -0.100550056 -0.09909844
000240 43 2e fe ba 75 88 08 bd eb fa c2 3d 21 59 c2 3d
       -0.0019392449 -0.03333326 0.09520515 0.09489656
000250 97 99 32 bd e3 02 e4 3d 70 e1 7c bb 04 b8 65 3c
       -0.043603506 0.11133363 -0.003858652 0.0140209235
000260 f9 e6 d3 3c 2e e5 07 3e d5 b6 d9 3a 8a a5 4a bd
       0.025866972 0.13271019 0.0016610274 -0.049474277
000270 c4 2b 87 3d 79 e1 ef 3d c7 6f d8 bb 6c bb ff 3d
       0.066001445 0.11712927 -0.006605122 0.1248692
000280 2a a6 b8 3b 65 ed 46 bd 38 f9 57 bc 76 7a 56 bb
       0.0056350427 -0.04856624 -0.013181977 -0.00327268
000290 e1 0b 67 3c af 02 37 3d e0 6b ea bd 27 b7 02 3e
       0.014101953 0.044680294 -0.11446357 0.1276518
0002a0 cd b5 22 bd a6 03 e9 3d 74 79 e5 bd d8 25 97 3d
       -0.03972416 0.11377649 -0.11204806 0.07380265
0002b0 e6 c1 a3 bc db b5 b9 3c fe a5 b9 bd 69 65 bd 3d
       -0.019989919 0.022669723 -0.090648636 0.09247858
0002c0 5a 21 b1 3d e1 21 86 3d 29 7d 9d bd cc ff 9c bd
       0.086489394 0.06549431 -0.07689888 -0.07665977
0002d0 71 74 3e 3c 19 dc ee bd fa d4 2f bd 71 ad f0 3d
       0.0116244415 -0.11663074 -0.04292772 0.11751831
0002e0 49 64 2c 3d 8f 61 06 be 25 0f d1 3c 91 01 d3 bb
       0.042087827 -0.13123153 0.025519917 -0.0064393957
0002f0 a1 ed bd 3c 8a 40 02 bd 9c 34 6c 3d 98 21 c2 bd
       0.0231846 -0.03179983 0.05766736 -0.09479064
000300 2e 12 b2 3d 80 69 a9 3d b2 6e ac 3d e9 ec e2 bd
       0.08694874 0.08272076 0.08419551 -0.11080343
000310 9e f1 45 3d 82 04 79 3c d5 19 bd bd 6a 8f bf 3d
       0.048326127 0.015198829 -0.09233443 0.09353526
000320 9a 09 12 3c 63 25 e6 bd e3 ba 50 3d 7f a6 fe bd
       0.008913422 -0.112376 0.05095948 -0.124341
000330 92 d2 d7 3d c6 35 45 bc ed 02 c6 bc f0 8e 87 3d
       0.1053821 -0.012036746 -0.024171317 0.0661906
000340 7f 54 27 3c 0f 2d 55 3d 75 89 52 bc 5e 8f 6d bd
       0.0102130165 0.052044924 -0.012850155 -0.057998054
000350 4a 9b 84 3d f2 59 09 3d df ee 95 bd 78 7a 90 bb
       0.064749315 0.033533044 -0.07320952 -0.0044091307
000360 95 cc 70 bd 89 da b9 3c 49 c1 a9 3d e2 d7 9c bb
       -0.058788855 0.022687213 0.08288819 -0.0047864774
000370 bc ca b9 bc 38 9f 1d 3d 20 ed c6 3d 8c 23 06 3e
       -0.02267968 0.03848192 0.09713197 0.13099498
000380 46 23 4a bd 12 99 5c 3d a9 24 34 3d 84 3e b1 bd
       -0.049350046 0.053856917 0.043980274 -0.08654502
000390 fa 85 a9 3d d9 68 2c 3d 1f de 23 3d 0b 69 29 3d
       0.08277507 0.042092178 0.040006753 0.041359942
0003a0 7d 87 d4 bd e4 ed c3 3d 91 d5 a8 3d 3e 38 bf 3d
       -0.10377405 0.095668584 0.082438596 0.09336899
0003b0 40 fa 2d 3d fa bb 9b 3d fe f6 20 3d ae c0 a0 3c
       0.042474985 0.07604213 0.03929805 0.019623127
0003c0 0f 26 d8 bd 78 d1 b1 bd 63 5e 98 bd 4e 91 59 3d
       -0.10554134 -0.08682531 -0.07439878 0.05311709
0003d0 2c 92 9c bd a8 3c bc bd 91 5b d7 3d 02 41 fd 3d
       -0.076450676 -0.09191257 0.10515512 0.12365915
0003e0 ea 8e 02 bd 3d f2 c4 3d 3b b0 fa 3d 51 51 2e bd
       -0.031874575 0.09616516 0.122406445 -0.042558018
0003f0 ae c2 ca 3c 2b fd b5 3d ad 4e f3 bd ef 58 b7 bd
       0.024751034 0.088861786 -0.118802406 -0.089525096

onnx::MatMul_142 f4 [64, 64]
000000 f4 97 1f bd c2 d8 83 3c 60 a5 8c 3c b4 39 fa bd
       -0.038963273 0.01609457 0.0171687 -0.12218037
000010 17 d0 d5 3d 72 74 4d 3d 58 55 1c be 9a 9b 4e be
       0.104400806 0.05015988 -0.15266931 -0.20176545
000020 4f 3f 4b 3d ff 70 bd bd 0e 0a 10 3d 8b dc b9 bd
       0.049620923 -0.09250068 0.03516584 -0.09075268
000030 b1 b1 45 3e 77 a3 7d be 22 eb 89 3d 33 fd 80 3e
       0.19306065 -0.24769388 0.06734301 0.25193176
000040 7b 61 b7 3b ba 61 fd bd 3d 8f 80 3c 69 6a 05 3d
       0.0055963374 -0.123721555 0.015693301 0.032572184
000050 aa 65 7e bd 39 6e cc 3c 83 a6 e4 bd d6 01 06 be
       -0.062108673 0.024954902 -0.11164572 -0.13086638
000060 d3 ee 10 3e 4a f3 2c 3e 3f 1a 65 bd dd 70 53 3e
       0.14153604 0.16889682 -0.055933233 0.20648523
000070 18 da 17 3d 50 0a b3 3d 47 30 a5 3d 6d 1c 37 3d
       0.037073225 0.08742201 0.08065849 0.044704843
000080 64 38 9a 3c 01 fd a3 bd 94 7b 74 bc 8c 79 2d 3e
       0.018825717 -0.08007241 -0.014922041 0.16940898
000090 6b f0 56 3e 8e d6 4d 3e 1d 97 5e bc 31 22 26 be
       0.2099015 0.20101377 -0.013585833 -0.1622398
0000a0 62 55 e3 3d 45 ee c9 3d c4 80 24 be 3a 5a 01 be
       0.1110027 0.098598994 -0.16064745 -0.12632075
0000b0 40 c4 8c 3d 04 8b 75 3d a2 61 84 bd cd 93 9e 3d
       0.06873369 0.05994703 -0.064639345 0.077430345
0000c0 d1 d3 2f be 75 e7 b3 bd 13 76 96 bd 13 99 55 bd
       -0.17170645 -0.08784381 -0.073467396 -0.052147936
0000d0 a8 af e5 bc 9c 01 0c 3d 1f a1 20 3b 41 f8 3a 3d
       -0.028037861 0.034181222 0.0024510098 0.04564691
0000e0 36 6c 06 3e 82 69 83 bd bb 03 4f 3c aa 73 07 3e
       0.13127217 -0.064166084 0.012635167 0.13227716
0000f0 0a f6 3d bc 3b 0e 06 be e1 85 55 be f4 d9 33 be
       -0.011594305 -0.13091366 -0.20851852 -0.17563611
000100 95 5c 08 3e ab ec 84 3d 37 3c 33 be 16 1e 88 3c
       0.13316567 0.06490453 -0.17503439 0.016615909
000110 78 e3 e8 bd 78 25 98 3d f8 a9 19 be 9a 19 b4 bb
       -0.11371511 0.074290216 -0.15006244 -0.005496216
000120 85 5a c2 bd 9a 75 d2 3d d6 c3 dc bc 67 b7 95 bd
       -0.094899215 0.10276337 -0.02694885 -0.07310372
000130 68 ed cc bc 44 aa 96 bd db 07 38 be 4b 46 e0 bc
       -0.025015548 -0.07356694 -0.17971747 -0.027377268
000140 ac a7 dc 3d be 5b 72 bd 66 76 63 3d e7 aa f3 3d
       0.10774168 -0.059169523 0.055532835 0.118978314
000150 38 62 1d 3e c5 ee df 3d 8b 3f ba 3d f4 57 d1 3c
       0.15369499 0.109342135 0.09094151 0.025554635
000160 e9 29 a8 3d f7 1c 0b 3e e8 bc 8b 3c 8f 5d a3 3d
       0.08211119 0.13585268 0.017057851 0.07976829
000170 a9 85 8d bd 56 d4 8e 3d 32 39 d6 3d f0 eb 8a bb
       -0.06910259 0.069740936 0.10460128 -0.0042395517
000180 5e c0 b4 3d 1c 21 01 3e 66 81 f2 bd d6 ed 03 bd
       0.08825754 0.12610286 -0.11841087 -0.03220924
000190 0b e1 a9 3d 89 25 16 3e 46 2b 19 3e a7 05 3b 3d
       0.08294877 0.14662756 0.14957914 0.045659687
0001a0 7f 1d 8c 3d 52 da 5f bd ad 09 ba 3d bd 12 20 3e
       0.068415634 -0.054651566 0.09083877 0.15632148
0001b0 93 65 23 3e 25 3b 13 be 51 c3 32 bd 3f 1d 81 bb
       0.15956716 -0.1437803 -0.0436433 -0.003940254
0001c0 a4 25 73 bd f4 06 1a 3b 04 5b 26 bc 53 91 b9 bd
       -0.05936207 0.002350268 -0.010153536 -0.090609215
0001d0 70 f9 a7 3d 5e 8c af 3d 13 e2 0f 3e 5b 58 ae 3d
       0.08201873 0.08571695 0.14051084 0.08512946
0001e0 4c 06 6d bd aa 10 8d 3d c4 55 04 bd f2 61 9a 3d
       -0.057867333 0.06887944 -0.032308355 0.07538213
0001f0 3c 15 94 bd a4 a3 ff 3d 5f 9a 23 bd b1 0c 0e bd
       -0.07230613 0.12482384 -0.03994214 -0.034680072
000200 45 8e 10 3d 75 7a 19 bd 29 b0 e8 bd df b1 16 bd
       0.03529193 -0.0374703 -0.11361725 -0.036790725
000210 44 b4 93 bd 1e 57 1d 3d 6e f5 8e 3c f9 7e f5 bd
       -0.07212117 0.03841316 0.017451014 -0.11987109
000220 52 04 eb 3d 7f 70 34 3d a0 d6 44 3d c5 49 2e be
       0.114754334 0.044052597 0.048056245 -0.17020328
000230 59 43 1a 3e 8c 5f f9 3c 13 59 2a be 0b 68 bc 3d
       0.15064754 0.030441068 -0.16635542 0.09199532
000240 d8 8d 87 3d 46 54 a4 3c 97 a9 d1 bc 61 24 64 3d
       0.066188514 0.020059716 -0.025593562 0.055698756
000250 3e 5f 8c bd 52 60 d9 bd 6e 68 5d 3d 6c 56 f9 3d
       -0.068541035 -0.10614075 0.05405467 0.12174687
000260 7c a1 ce 3d 88 14 78 3d 2b a1 b9 bc d8 09 3c bd
       0.100893945 0.060566455 -0.022659859 -0.045907825
000270 53 f9 c4 bd 95 bb 27 3e e1 fc b3 bd 2e 3a 04 3e
       -0.09617867 0.1638015 -0.08788467 0.12912819
000280 b0 fe 14 be 9c c7 bc 3d dc a5 c9 3d ed 30 20 bc
       -0.1455028 0.0921776 0.09846088 -0.00977729
000290 99 92 ad bd 31 46 84 3d 3e b8 54 3b bf 54 9d 3d
       -0.08475227 0.064587004 0.003245845 0.0768218
0002a0 58 5d c3 bd 11 b6 07 be c6 e6 ab 3d 36 5a 8b bd
       -0.09539288 -0.13253047 0.08393626 -0.06804316
0002b0 f6 85 88 bc 83 d9 3f 3c 87 7e 47 bd d8 c0 0d bd
       -0.01666544 0.011709574 -0.04870465 -0.03460774
0002c0 52 2c 33 be 62 3f 11 be d8 4f 68 3d fb 17 96 3d
       -0.17497376 -0.14184335 0.05671677 0.07328793
0002d0 b4 26 e7 bb 54 29 d7 3d ff c1 88 3d 9d f3 ec 3d
       -0.0070541743 0.105059296 0.06677627 0.11569903
0002e0 ee 29 3f 3e 8d a4 8f bd a3 4a 03 3d be 54 57 3d
       0.18668339 -0.070138074 0.0320536 0.05257105
0002f0 5d 61 c4 bc 75 ba e0 bc a7 da 9d bd 27 1b a5 bd
       -0.023972208 -0.02743266 -0.0770772 -0.080618195
000300 70 4a 3c 3b 04 6f fc 3b 77 cc 00 3a 54 b1 97 3d
       0.0028730892 0.007703664 0.000491328 0.074068695
000310 d3 fc 33 be a1 af 9a 3c 2d 97 41 3d 2c 6d b5 3b
       -0.17576914 0.018882575 0.047263313 0.005536696
000320 75 55 99 3c 0d 66 d5 3d 5c b7 8d 3d cc e7 1a bd
       0.018717507 0.10419855 0.06919739 -0.037818715
000330 20 d2 82 3d 27 bf 4c 3d 59 9f 5c bc e6 dd c6 3d
       0.063877344 0.049986985 -0.013465726 0.097102925
000340 92 62 43 be e5 7c 6d 3e b3 25 06 be 75 b5 09 3d
       -0.1908057 0.23192175 -0.13100319 0.033620317
000350 f6 ee ec 3d 5e 00 e5 bc 0c aa 29 3e 16 b2 6a bd
       0.11569016 -0.027954277 0.16568774 -0.057298742
000360 6e 2f b1 bd 08 fa 3c bc 08 37 b7 bd ed a0 af 3d
       -0.086516246 -0.0115342215 -0.08946043 0.08575616
000370 c7 10 5b bd 40 95 74 be a7 4a 45 3c 82 1e 78 3d
       -0.053482797 -0.2388506 0.012041724 0.06057597
000380 99 43 21 bd 6a b6 ce ba b9 7c 57 bd bd 5c a4 bd
       -0.039371107 -0.0015770916 -0.05260918 -0.08025501
000390 87 89 22 bd f4 ba 88 3a b3 c8 64 3c 40 d6 13 3e
       -0.039681938 0.0010431693 0.013963866 0.14437199
0003a0 f9 73 ff bc 9e a0 6d bd b6 a8 6a bd 08 1d 70 3d
       -0.03118323 -0.058014505 -0.0572898 0.058621436
0003b0 64 39 34 bd 2c 44 8e 3d 3f 3a d8 3d 95 2e 97 bd
       -0.044000044 0.069465965 0.105579846 -0.07381932
0003c0 1f c5 8f bd f6 d9 0c bd 1f 0d eb 3d 19 d8 f7 bd
       -0.0702002 -0.03438755 0.11477112 -0.12101764
0003d0 8c 89 5c be 45 a3 52 be 13 d2 61 be b7 05 47 bc
       -0.21536845 -0.20570095 -0.22052793 -0.012147359
0003e0 79 39 24 bc ae a6 16 be 02 8f 32 bd 20 8c 3e 3d
       -0.010023468 -0.14712021 -0.043593414 0.046520352
0003f0 33 c2 96 3c 15 f7 85 bd b7 e3 1d be 1e 0e 82 3c
       0.018403148 -0.06541268 -0.15418898 0.015875872
