AI/visualize/model.onnx (onnx, 129895 bytes, 18 tensors)

positional_encoding f4 [64, 64]
000000 88 dc af 3f b6 60 b4 3d 9f 52 be 3d 2d 58 53 3f
       1.3739176 0.08807509 0.092931025 0.8255642
000010 06 7b a8 be e7 e9 1a 3e 08 f7 40 be 91 b8 41 bf
       -0.3290636 0.15128289 -0.18844235 -0.7567225
000020 de 7f 4a 3f e8 26 0b 3f 51 a0 9a bf dd ef 61 3e
       0.7910136 0.5435624 -1.2080175 0.22064157
000030 30 94 63 be 74 a5 99 be a1 54 af 3e cf a9 92 3f
       -0.22224498 -0.30009043 0.34244254 1.1458071
000040 1e a9 e8 bf b1 58 29 3e 21 75 98 3d 73 4d 2c bf
       -1.817661 0.1653774 0.074442156 -0.6730568
000050 32 be 58 bf 2a 79 31 bf e3 2f c5 be 54 d3 a8 bf
       -0.84665215 -0.69325507 -0.38513097 -1.3189492
000060 45 4a d2 3e 03 32 4f be cc 8b 06 c0 4e 28 9e bf
       0.41072288 -0.20233922 -2.1022825 -1.235605
000070 d8 6e 55 3f cd aa 2e 3e c2 27 bc bf 64 d1 2d be
       0.8337226 0.17057343 -1.4699633 -0.16974407
000080 7f a4 97 3f 66 73 a8 3e 4d 8c ac 3f ba 54 4b 3e
       1.1847075 0.32900542 1.3480316 0.1985654
000090 d2 f0 e0 bf c7 dc 75 3d e6 16 2e bf e8 65 57 bf
       -1.7573493 0.060025003 -0.6800369 -0.8413987
0000a0 a6 f8 25 3e 62 ba a8 bf 5e 3f 64 bd 55 b0 38 3f
       0.16208133 -1.318188 -0.055724494 0.7214406
0000b0 69 02 c9 3d 3d a7 80 3f 99 36 29 3f 23 c1 dc 3e
       0.09814913 1.0051037 0.66098934 0.43116102
0000c0 fe a6 fa 3f ef 30 58 3f 51 2f 13 bf a3 b0 4e bf
       1.9582212 0.84449667 -0.57494074 -0.80738276
0000d0 cc 25 ac 3e ec 61 b9 3f c3 ed 42 3f 21 64 dc bf
       0.33622587 1.4483008 0.76144046 -1.7218057
0000e0 cb 53 1d bf 83 13 9d bf 26 1f ac 3f 7c 51 15 3f
       -0.6145598 -1.227158 1.3447006 0.5832746
0000f0 9b cf 12 3e 01 3a 2e bf 37 a9 a2 3f 55 8f 0c bf
       0.14337008 -0.68057257 1.270789 -0.5490621
000100 87 7a 3c be 5d 32 93 3f db 42 92 3e 00 d9 9d bf
       -0.18406115 1.1499745 0.28566632 -1.2331848
000110 80 96 ba 3b 5b 81 b8 3c e8 4e a2 bf de 5a f6 be
       0.0056942105 0.022522619 -1.268033 -0.481162
000120 be a7 84 3f 89 eb 58 3f 54 db 66 bf 3f 5d 59 bf
       1.0363691 0.847344 -0.9017842 -0.8490791
000130 80 8b 63 3f 1e 01 ff 3f e9 9f ca 3f 4b 14 48 bf
       0.88884735 1.9922216 1.5830051 -0.78155965
000140 55 80 ec 3c 64 79 78 bf 10 82 6e bf 74 4a d5 bf
       0.028869787 -0.9706023 -0.9316721 -1.6663346
000150 65 dd 38 bf 62 94 3d 3e c8 9a 6f 3f d4 28 c4 3f
       -0.7221282 0.18513635 0.9359555 1.532496
000160 ee a9 ae 3e 12 99 bd be b5 67 b9 be f1 6a 74 3e
       0.3411402 -0.37030846 -0.36211935 0.2386892
000170 b5 da bd 3f 18 13 b6 be a1 59 05 3f 46 38 e7 be
       1.4832369 -0.35561442 0.5208989 -0.4516012
000180 29 99 bb bf aa ab a3 3e d4 24 02 bf b7 e6 58 3f
       -1.4656116 0.31966907 -0.50837445 0.8472704
000190 a2 f9 90 bf 1b 91 8e bf d3 0f 24 3f 84 f4 26 3c
       -1.1326182 -1.1138033 0.64086646 0.010190133
0001a0 ff 6e f4 3d f5 dc 88 3e 37 ef 93 be b0 53 00 bf
       0.11935233 0.26731077 -0.28893444 -0.50127697
0001b0 5a c9 22 be d0 8a b5 bf f6 cc 96 bf 70 48 4d bf
       -0.15897122 -1.4182987 -1.1781299 -0.80188656
0001c0 25 e4 d7 be e4 99 e3 3e 2d 76 53 bf d2 3b 27 bd
       -0.42166248 0.44453347 -0.82602197 -0.040828533
0001d0 2e ed 7a 3f 40 93 c5 bf 20 b3 82 bf 20 55 7b 3f
       0.9801816 -1.5435562 -1.0210915 0.98176765
0001e0 32 68 34 bf c9 25 dc be e8 d3 26 bf 4c 9a 8e bf
       -0.7047149 -0.42997578 -0.65167093 -1.1140838
0001f0 f4 9d 0c 3e 67 42 71 bf a0 c7 96 3f a6 03 b6 bf
       0.1373213 -0.94241947 1.1779671 -1.4219863
000200 80 d4 87 bf 2a d0 c4 3e 71 52 1b bf 70 f9 d5 be
       -1.0611725 0.38440067 -0.6067267 -0.41791868
000210 3a 40 1d 3f 4f 59 35 3f cc 2b a3 bf ff 56 e1 3e
       0.61426127 0.708394 -1.2747741 0.44011685
000220 ee 6c 30 3f a9 95 9a bf 6a cb 08 bf 12 c1 8e bf
       0.68916214 -1.2076923 -0.53435385 -1.115267
000230 51 3d 31 bf d9 95 83 3e ef 00 bf bf bd a5 93 bf
       -0.69234186 0.25700262 -1.492216 -1.1534954
000240 d2 4a 01 40 2f 0e ed be 31 e9 ca 3e b1 63 6c 3f
       2.0201917 -0.46299884 0.39631036 0.92339617
000250 00 6d a4 bf bc 2b ff be 73 b5 4b bf e1 21 9a 3f
       -1.2845764 -0.49838054 -0.79573745 1.2041589
000260 94 39 3e 3f b4 8f 1d 3f 4e 67 f4 3e 15 35 92 bf
       0.7430661 0.615474 0.47735065 -1.1422449
000270 09 06 6e 3f 87 e7 07 3f cd 0c ad be 48 bb ac be
       0.9297796 0.5308766 -0.3379883 -0.33736634
000280 b0 ac c2 3e 14 42 9e bf bd a2 db 3e f5 b1 e4 bf
       0.38022375 -1.2363915 0.42897597 -1.7866808
000290 b8 2d f9 3e f9 52 1c bd 0b 2c 96 bf 4d 19 2c bf
       0.48667693 -0.038165066 -1.1732191 -0.67226106
0002a0 90 bb 4b bd 71 d3 2a bd cc d9 a0 3f c3 f1 bc 3f
       -0.04973942 -0.041705552 1.2566466 1.476128
0002b0 38 e0 fc 3d bc 63 ab 3f 0d 67 0c 3e c0 e2 b2 be
       0.12347454 1.3389812 0.13711186 -0.34938622
0002c0 fd 80 79 3f 20 5e 38 c0 3e 34 10 3f 27 e9 e8 be
       0.97462445 -2.880745 0.56329715 -0.4549038
0002d0 4b 60 92 bf a1 de 50 3d 40 29 23 be fc f5 8a 3e
       -1.1435636 0.050993565 -0.15933704 0.27140796
0002e0 bd 99 7d 3f 93 96 61 3d 6a 79 25 3e 1b 84 b2 bf
       0.9906271 0.05507524 0.16159597 -1.3946565
0002f0 17 d6 a9 3f d6 ad 90 bf 89 83 51 3d 75 0e 89 bf
       1.326846 -1.130305 0.051150832 -1.0707537
000300 9a b5 cd 3f 06 f3 d6 be a4 e5 55 bf dd 85 1b 3f
       1.6071045 -0.41982287 -0.8355353 0.60751134
000310 98 ea 08 c0 be 6b 1f 3e ed d7 44 3e 58 85 6e bf
       -2.1393185 0.15568444 0.19222994 -0.93172216
000320 9d 05 84 bf a6 79 88 be 2f 98 27 3e 01 dd bb bf
       -1.0314213 -0.2665531 0.16366647 -1.467682
000330 9c 92 1f bf d9 3c 06 bf 0e 92 86 bf ef 9c 21 3f
       -0.62333083 -0.52436596 -1.0513322 0.63130087
000340 04 5b c0 be 76 ff 78 bf 78 02 3e bf bd 98 85 3f
       -0.3756944 -0.972648 -0.74222517 1.0437237
000350 c0 c8 87 3f 88 2b 30 3f 7b b9 76 3f 1e 0e f3 3e
       1.0608139 0.68816423 0.9637677 0.47471708
000360 ec 8a be 3f 42 d5 b1 bf 72 8a d1 be 64 89 17 bf
       1.4886146 -1.3893206 -0.40925938 -0.59194016
000370 b2 1e 86 bf c5 82 80 be 76 30 c3 3f 84 96 aa 3f
       -1.0478117 -0.2509977 1.5249164 1.3327184
000380 33 37 08 3e b9 20 4b 3f db 34 0d 40 ac 2d aa 3f
       0.13302307 0.79346806 2.206351 1.3295188
000390 bf d8 e2 be 6a de bf bf fc 6c 67 bf 36 bf 46 3f
       -0.4430599 -1.498975 -0.9040067 0.77635515
0003a0 6e 51 59 bf 60 b6 5a 3f f4 24 2c c0 8b 7d 81 3f
       -0.84889877 0.8543453 -2.6897554 1.0116438
0003b0 4c 38 a4 3f 89 75 10 bf 55 ec c6 3e cf 87 31 bf
       1.282968 -0.56429344 0.38852182 -0.6934785
0003c0 40 7c 01 3f 60 64 20 40 6b 62 04 3f bb b6 b7 be
       0.50580215 2.5061264 0.51712674 -0.358816
0003d0 f0 21 ca 3e 14 b5 20 bf a7 01 0b c0 5c ff aa 3f
       0.39479017 -0.62776303 -2.1719759 1.335918
0003e0 6b d6 f9 be 4d a5 fa be ac 06 74 bf 95 cc 73 3f
       -0.487964 -0.4895424 -0.9532268 0.9523404
0003f0 d1 74 c9 bf d0 53 20 3f cc 66 8e bc 6e 87 00 be
       -1.5738775 0.6262789 -0.017383002 -0.12551662

encoder.0.0.block.0.queries_projection.bias f4 [64]
000000 70 b8 db 3d 51 01 f9 3d c1 04 c8 3c 1b 38 8f 3d
       0.10728538 0.12158454 0.02441633 0.06993123
000010 a3 4f 2e bd 68 d8 ca 3b 00 64 ba bd 45 60 a6 3d
       -0.042556416 0.0061903484 -0.09101105 0.08123831
000020 2c 00 c7 3d 96 24 85 3d e6 85 d2 bd e8 4f 95 bd
       0.0971683 0.06501119 -0.10279445 -0.072906315
000030 02 5f 47 bc d9 25 fa bd e8 e9 45 39 04 05 c6 bd
       -0.012168648 -0.1221425 0.00018874521 -0.096689254
000040 c4 90 22 bd 66 0a 3f 3d 1d ec d5 bd 99 58 b6 bd
       -0.03968884 0.046640776 -0.10445426 -0.089036174
000050 c1 c7 6f bd 99 81 a4 3d 80 5c c6 3b 4b d0 82 3d
       -0.05854011 0.08032531 0.0060535073 0.06387385
000060 bb a2 42 3d bd 61 28 3d f9 1a dc b8 f6 db a5 bd
       0.047518473 0.041108835 -0.000104954415 -0.08098595
000070 ee 1c 85 bc 2c 03 c9 3d 4e 4a 65 3d 7b 7f 69 bd
       -0.016249146 0.09815058 0.055979066 -0.05700634
000080 0c c8 d6 bd 0a 87 a9 3d 58 ef d7 3d 0d 1c b4 3c
       -0.10487375 0.0827771 0.10543698 0.021986032
000090 31 08 cd bc e3 68 79 bd 93 90 bc bc b2 41 84 3c
       -0.02502832 -0.060891043 -0.023018157 0.016144607
0000a0 eb df c1 bc a8 ba e3 bd ed 0e 09 3e 9a 29 94 bd
       -0.023666343 -0.11119586 0.133846 -0.07234497
0000b0 d6 af e1 3c a7 5d 34 3d 7b af c7 3d 27 da d9 bd
       0.027549665 0.044034626 0.09750267 -0.106373124
0000c0 69 51 11 bd 06 8d 99 bd 76 b9 7e bd 20 fe e4 3d
       -0.03547803 -0.07497601 -0.062188588 0.11181283
0000d0 ec b7 ba 3d 06 8f 57 3d 0b 9b e2 bd 2b 00 ba 3a
       0.091171116 0.052626632 -0.11064728 0.0014190724
0000e0 0b da 1f bd 89 f5 b8 bc 39 72 5d bd e7 da e2 3d
       -0.0390263 -0.022578018 -0.05406401 0.110769086
0000f0 1a 5b d6 3b e3 88 ac bd 8a 39 a7 3d 6f 79 06 ba
       0.006541622 -0.084245466 0.081652716 -0.00051297894

encoder.0.0.block.0.values_projection.bias f4 [64]
000000 57 7b a9 bd ba 59 6e bd 05 a1 ae 3d 53 22 31 3d
       -0.08275478 -0.05819104 0.08526806 0.043245625
000010 77 ff 34 3c c2 18 97 bd 89 2b ed bd fd 8f 2e 3d
       0.011047236 -0.07377769 -0.11580569 0.042617787
000020 6c 0e ba 3d 07 98 dd 3d 4b a5 4a 3d 42 54 83 3d
       0.09084782 0.108200125 0.049474042 0.06412555
000030 31 1a 48 3d 1e 92 e6 3d 5c 55 2d 3d 24 a7 9e 3b
       0.048853103 0.112583384 0.042317733 0.004841702
000040 2e be 99 bd 6a 5f cc 3d 64 b9 92 3d f5 3a a0 bb
       -0.07506977 0.09979136 0.07164267 -0.0048898407
000050 f1 9b d4 bb 6b 52 19 3d b5 f4 17 3d 94 68 f6 3d
       -0.006488316 0.037432116 0.037098605 0.120316654
000060 be 3b 8f 3d 94 6a 20 bd 16 40 89 bd 22 6b 48 3d
       0.06993817 -0.03916414 -0.067016765 0.048930295
000070 48 69 75 3d 5c f3 49 bd a2 03 9f 3d f3 3f 9b 3d
       0.059914857 -0.04930435 0.07764365 0.07580557
000080 62 59 d7 bc 15 d0 f2 3d d6 ea 8e bd 6d 2e a5 3d
       -0.026287738 0.11856095 -0.06978385 0.08065496
000090 c9 a5 9c bc b5 aa cb bd 4a 45 83 3d 96 62 f0 3b
       -0.019122021 -0.09944669 0.064097 0.007335971
0000a0 fd 65 d2 bd 0a 70 f4 3d 2f b7 2e 3d 3e 08 e8 bb
       -0.10273359 0.11935432 0.042655166 -0.0070810607
0000b0 ab 93 e7 3c f7 34 d1 bd 46 98 1a bd 4e 79 d3 3c
       0.028268656 -0.1021518 -0.037742876 0.025814679
0000c0 15 91 d3 3c 87 28 c6 3d ad 86 c7 bc 0d 79 5a bd
       0.025826016 0.09675699 -0.02435621 -0.0533381
0000d0 ba 1e ac 3c e0 86 8e bd cf 30 2b 3d a7 fd f4 3a
       0.021010745 -0.06959319 0.041794594 0.0018691317
0000e0 58 85 f9 3d 68 92 d1 bc 55 28 a4 3d 52 56 f9 3d
       0.121836364 -0.025582507 0.08015505 0.121746674
0000f0 11 e2 e2 bd 41 f6 2f 3d eb 06 20 3c 9e f9 84 bd
       -0.11078275 0.042959455 0.009767274 -0.06492923

encoder.0.0.block.0.keys_projection.bias f4 [64]
000000 97 bf 92 3d f0 3f df bd 61 f5 3e be 03 6a 04 3e
       0.07165449 -0.10900867 -0.18648292 0.12931065
000010 bf 7c ce bd ba 75 85 bd 29 70 37 bb 72 70 35 39
       -0.10082387 -0.06516595 -0.0027990437 0.00017303394
000020 36 36 72 3d c4 1f 78 bc 9b a5 0f 3e ea 2c f3 bd
       0.05913373 -0.015144292 0.14028017 -0.11873801
000030 d9 4d c5 3d 69 09 90 bd 1a c2 4b bd 63 19 d8 bc
       0.09633989 -0.07033045 -0.049745657 -0.026379293
000040 7f cd 3e 3d 7b d8 d3 3d fb 08 64 bd fd e3 59 bd
       0.046582695 0.10344025 -0.055672627 -0.053195942
000050 fb a2 29 3a 87 ff 1e be b8 2c 3f 3d 51 2e 0c be
       0.00064711244 -0.15527163 0.046673506 -0.13689543
000060 01 49 bf bd aa 50 a5 3d 84 ab 29 3e 92 0e 89 bc
       -0.09340096 0.08072026 0.16569334 -0.01673058
000070 6d 28 8e bc 25 3f 0c 3e 1c e3 68 3c 45 08 ad 3d
       -0.01735326 0.13695963 0.014214303 0.08448843
000080 57 f7 dd 3c 18 22 1d be 50 c3 8c bd 00 03 07 be
       0.02709548 -0.15345037 -0.068731904 -0.13184738
000090 15 32 dd 3d f3 94 1c be fe f2 19 3e 03 80 a1 bb
       0.10800568 -0.15291195 0.150341 -0.0049285903
0000a0 4c 4a 58 bd 37 78 f2 bd f3 af cd 3d 51 d9 30 bd
       -0.05280523 -0.118393354 0.10043325 -0.043176
0000b0 f4 fb 06 3b b6 34 19 be 98 45 43 bd b2 48 8e bd
       0.0020596953 -0.14961514 -0.04767379 -0.06947459
0000c0 8b c3 bc bd db df 9d bd ff 99 1c bd ec 6f 76 3d
       -0.09216984 -0.07708713 -0.0382328 0.06016533
0000d0 24 3b 8b 3d 1e 61 14 bd 65 53 11 3e 15 4a 8e bd
       0.067983896 -0.03622543 0.14191969 -0.06947724
0000e0 98 1d 99 bd 24 2d 32 3d 38 f4 6d bc d5 87 13 bd
       -0.07476348 0.04350008 -0.014523558 -0.03601821
0000f0 d5 f6 4b 3d eb 99 e1 3d f0 44 f1 3d 0b b4 fb 3c
       0.049795944 0.11015686 0.11780727 0.0307255

encoder.0.0.block.0.final_projection.bias f4 [64]
000000 34 9c 7a 3d 26 72 73 bd ef af 0b 3d e6 49 d9 3d
       0.061184123 -0.059435032 0.03410333 0.10609798
000010 ba 6f 77 3d f1 58 ce 3d c3 43 c4 bd 37 c8 ac 3d
       0.060409285 0.10075558 -0.09583237 0.084366255
000020 17 77 4f bc 98 ee c6 bd 03 b1 e0 3d 13 13 75 3d
       -0.012662671 -0.09713477 0.10971262 0.059832644
000030 25 f2 df 3d 02 47 cf bd 12 51 0b bd 57 0c d4 bd
       0.10934857 -0.101209655 -0.03401286 -0.10353916
000040 42 64 17 3e b6 d3 34 bb 46 72 55 ba 84 25 17 bd
       0.14784339 -0.002759201 -0.0008142333 -0.036901012
000050 71 77 39 bd cf ee ff 3d 21 d6 9f bd 68 cc f9 3d
       -0.045279924 0.12496721 -0.07804514 0.121971905
000060 76 09 96 bd 02 98 22 bd 8f 8b fb 3d ce 2c d7 bd
       -0.07326023 -0.039695747 0.12282478 -0.10506593
000070 97 d6 94 bc 08 7c 8c bd 9c d3 e1 3b 86 ad 02 3e
       -0.01816873 -0.068595946 0.006891681 0.12761506
000080 d4 24 dc 3d e3 cc 2b bd 85 1e e5 bd 94 8c b1 bd
       0.10749212 -0.041943442 -0.11187462 -0.08669391
000090 c2 7d 56 3d 02 25 58 3d a1 5e a0 3d ee 03 c9 3d
       0.052366026 0.05276967 0.07830549 0.09815203
0000a0 1f b9 f6 3c 26 ba c3 3d f3 bb 99 3d c5 d3 9f 3d
       0.03011757 0.09556989 0.075065516 0.07804064
0000b0 b5 5b b7 bd 1e 55 a8 bd 90 b6 04 bc 80 81 d3 3d
       -0.089530386 -0.0821936 -0.008100167 0.103274345
0000c0 ba 14 8d 3d 3a 48 ed 3d aa 7c f0 bd 06 1b a5 bc
       0.06888719 0.11586042 -0.11742528 -0.020154487
0000d0 3b be c6 3d 67 79 f6 bc 95 9b f9 bc b6 e5 7e bd
       0.09704252 -0.030087186 -0.030469695 -0.06223079
0000e0 06 a4 9b bc f7 a3 5d bb 1f 02 df bd 79 83 c8 3d
       -0.01899911 -0.0033819654 -0.108890764 0.097907014
0000f0 eb c0 42 bd 96 b9 23 bd 7d 28 ee 3d 87 90 24 3e
       -0.047547262 -0.03997191 0.11628816 0.16070758

encoder.0.1.block.0.0.bias f4 [64]
000000 3a 0e 23 3c 5e b5 5f bd 37 bb 92 3d f6 6a fc 3d
       0.009952122 -0.054616325 0.07164615 0.12325089
000010 d0 ec a6 3d af 28 07 be 71 1f c6 3d ff c8 2c bb
       0.08150637 -0.13199113 0.09673966 -0.002636492
000020 0b 28 c6 bd a3 be 8a bd 1b 93 14 3e c4 fa a4 bd
       -0.09675606 -0.06774642 0.14509241 -0.08055642
000030 c8 b5 e2 bc 8f 92 8b bd 1d 05 1c 3e 26 35 26 bd
       -0.02767457 -0.06815063 0.15236326 -0.04057803
000040 f4 4f be bd cc 11 0c 3c dd de 86 3d c3 d2 55 3d
       -0.092925936 0.008549165 0.065854765 0.05220295
000050 4c 61 18 bc c0 8b eb 3d 84 1d e0 bb e0 68 c3 3d
       -0.009300541 0.115012646 -0.006839456 0.09541488
000060 ed a2 8e 3d 51 fa 1a 3d 80 dc bd bd ee c4 58 bc
       0.069646694 0.037836377 -0.09270573 -0.013230545
000070 15 fc cf 3d 36 3f 40 be e2 bf f2 bb 11 d6 19 bc
       0.10155503 -0.18774113 -0.007408128 -0.009389416
000080 7e 9b 95 bd e7 ad 64 3d 7f af b1 bd 47 3a 79 bd
       -0.073050484 0.05582991 -0.08676051 -0.060846593
000090 3b df 26 bd ec 5f 86 3c 1a ce 4f bd 6c 7e 0f 3e
       -0.040740233 0.016403161 -0.050733663 0.1401307
0000a0 f0 6c 12 3e dc 7f 06 bc 14 49 07 3e 6b 68 a9 bc
       0.14299369 -0.008209195 0.13211471 -0.020679673
0000b0 1d a2 19 be 61 6d 2c bd 92 d4 dc 3d 5d c5 cd 3d
       -0.15003248 -0.0420965 0.10782732 0.1004741
0000c0 96 2e 6d bd ae f3 a0 3d d3 f1 a7 bd ab 26 da bc
       -0.057905756 0.07858978 -0.08200421 -0.026629766
0000d0 9f 1e a3 3d c7 63 50 bc 34 3a ac bd e0 16 a7 bd
       0.07964825 -0.012719101 -0.08409539 -0.0815866
0000e0 0d 78 93 bd c2 7d 9b bd b3 6b 1e be db 80 b2 bc
       -0.07200632 -0.07592346 -0.15470771 -0.021789959
0000f0 28 f4 ac bd 1b 5d 16 bd c2 50 44 3d 9a 7e a0 bb
       -0.084450066 -0.036709886 0.04792858 -0.0048979046

encoder.0.1.block.0.2.bias f4 [64]
000000 75 76 45 3c 49 ef f5 3d 78 41 58 bd fe 60 ad 3d
       0.012052168 0.12008531 -0.05279681 0.084657654
000010 96 d0 83 3d b8 73 46 bc be 3e 18 3d 4d 86 23 3d
       0.06436269 -0.01211255 0.03716921 0.039923
000020 d4 1c 08 be 12 df 38 bd 87 e9 33 3d 55 2d af bd
       -0.13292247 -0.04513461 0.04392388 -0.08553568
000030 c6 23 43 bd 26 3b b8 bd b5 79 33 bd a0 4c 8c bd
       -0.047641538 -0.08995657 -0.04381724 -0.068505526
000040 fb ad aa 3d 43 c2 dc 3d 81 1d 98 3d 8d 5b f1 bc
       0.083339654 0.1077924 0.074275024 -0.0294626
000050 05 d5 a1 bd 40 c4 1f bd cc fe ed bd 99 36 20 3c
       -0.079019584 -0.039005518 -0.11620864 0.009778642
000060 6f 16 ee 3d bd 71 88 3d 74 de e3 3d e2 7f 89 3d
       0.116253726 0.06662319 0.11126414 0.06713845
000070 9e b2 6e bc ba 66 04 bd c3 af 10 bc bd a3 9d bd
       -0.014568953 -0.03232453 -0.008830967 -0.07697246
000080 b2 3b 81 bd 3e 0e 48 3d 37 45 dc bd 32 10 e0 3d
       -0.06310214 0.048841707 -0.10755389 0.10940589
000090 25 d9 8d bd 4b 30 cf 3c 39 50 bd bd e1 1f e7 bd
       -0.06926183 0.025291583 -0.09243817 -0.11285377
0000a0 67 f3 1a bd 53 0d 91 bc 68 64 8a 3d 1c d9 d9 bd
       -0.037829783 -0.017706549 0.06757432 -0.106371135
0000b0 5c 1f 4c bb 0d 97 75 3d 5a 05 e1 bc fb ad 5b 3b
       -0.0031146621 0.059958506 -0.027468372 0.0033520448
0000c0 3a be 7a 3b 4c 34 f5 3c 9d 99 e9 3d 86 f4 d4 3d
       0.0038260357 0.029932164 0.114062525 0.10398202
0000d0 52 03 c4 bd 70 15 81 bd 68 6f bb bc 19 8d 06 be
       -0.09570946 -0.06302917 -0.022880271 -0.13139762
0000e0 a5 ea 45 3d 1e 4b c6 3d 14 29 e5 bd 37 66 ba bc
       0.048319478 0.09682296 -0.11189476 -0.022753818
0000f0 60 80 97 bd 4e 2c 52 bd 82 cc a3 bd d6 db de bd
       -0.073975325 -0.051311783 -0.07997991 -0.10881774

classifier.1.weight f4 [2, 64]
000000 af 7c f3 bd a7 41 bb bd 5c 82 1a 3e fa 4d fe bd
       -0.11889016 -0.091433816 0.1508879 -0.124172166
000010 97 a2 8b be 2c f1 f8 bd f1 e7 6a 3e 06 56 eb 3c
       -0.27272484 -0.12155375 0.22940041 0.028727543
000020 9b 3d e4 3b e7 2c 39 3e a2 bf 54 be 00 3e 67 3e
       0.0069653518 0.18083535 -0.20776227 0.22582245
000030 c7 3d 25 be d8 77 77 bd 02 b2 52 be ac d0 e5 3d
       -0.16136847 -0.060417026 -0.20575717 0.112214416
000040 4b a9 62 bd cc a2 b6 bc 59 be 79 3e 43 95 2d be
       -0.05533723 -0.022294424 0.24389018 -0.1695147
000050 c2 16 dc bd 7d 72 6f bd 4e 46 e3 3c 0c 66 0e be
       -0.10746528 -0.058458794 0.027743485 -0.13906115
000060 84 be 3b be dd d7 58 bd ae 2b 3c bd df 2e 25 3e
       -0.18334395 -0.05294024 -0.045940094 0.16131161
000070 12 6f 19 be 59 85 17 3e 33 8a 2f 3e 70 55 98 be
       -0.14983776 0.14796962 0.17142563 -0.29752684
000080 b4 77 48 3e a6 3e 71 3d c1 65 7e 3e dd 00 34 3e
       0.19576913 0.058897637 0.24843504 0.17578454
000090 2f d6 ec bd b6 ae e4 bd 29 ab e2 3a dd cf 45 3e
       -0.1156429 -0.11166136 0.0017293441 0.19317575
0000a0 c6 45 27 3e 52 49 5b be 9c 8d 0b be b0 a4 68 3e
       0.1633521 -0.21414688 -0.13628238 0.22719073
0000b0 47 79 e1 3d 28 d2 e5 bd 9d d7 84 3e 17 8c 4f 3e
       0.1100946 -0.11221725 0.2594575 0.20268284
0000c0 37 7e f7 bc fa 02 ec bd 07 e2 21 3e 3b e3 3d 3e
       -0.030211551 -0.11524005 0.15808879 0.18543713
0000d0 c0 70 86 be f9 a4 65 3e 99 7f 48 bd 4b 35 30 3e
       -0.26257896 0.22426213 -0.04894981 0.1720783
0000e0 88 a8 18 3e 89 2b 7d 3e 36 83 0b be b3 21 5d be
       0.1490804 0.24723639 -0.13624272 -0.21594886
0000f0 27 46 58 be 6d 6f 05 3d 77 74 46 be 94 25 75 3d
       -0.21120511 0.032576967 -0.19380365 0.05985029
000100 b3 47 20 3e b9 7e 6c 3e da 54 2f be 8a c2 24 3d
       0.15652351 0.23095216 -0.17122212 0.04022459
000110 3a 36 08 3e 5d 5e 91 3b f4 bf 80 be 2d f5 90 bd
       0.13301936 0.004436298 -0.2514645 -0.070780136
000120 d1 01 5e 3e 45 bf 06 be fc fe 85 3e 41 9b 34 be
       0.2168038 -0.13158901 0.261711 -0.1763735
000130 c0 4b 7a 3e 4d 21 80 3d 75 bf 66 3e cb b3 2a be
       0.24442959 0.062563516 0.22533973 -0.16670148
000140 8f 59 11 3e 19 7e 3b 3e 16 43 b5 bd e7 7f 11 3e
       0.1419432 0.18309821 -0.08850686 0.14208947
000150 05 af 09 3e 59 e7 47 3e be ad 2c be 04 e1 c3 3d
       0.13445671 0.19521846 -0.16863152 0.09564403
000160 ab 7b 77 3d cd 92 45 3e 8b 78 f0 3d 86 7b 8a bd
       0.060420673 0.19294281 0.11741742 -0.067618415
000170 36 83 cf 3d 36 5d 06 be 13 73 b3 bd 09 a0 72 3e
       0.101324484 -0.13121495 -0.08762183 0.23693861
000180 ac bf 1b be 7f 15 16 be 05 3a 3b be 82 7c c9 bd
       -0.15209836 -0.14656638 -0.18283851 -0.09838201
000190 07 32 25 3e 49 f3 5b 3e 47 ad 02 3e 66 f8 76 be
       0.16132365 0.21479525 0.12761413 -0.24118194
0001a0 ff 0a bd bd e3 e1 cd 3d 36 a3 52 3e c7 c8 81 be
       -0.09230613 0.1005285 0.20570073 -0.25348493
0001b0 a7 83 dd bd ca fb e4 3d 8b 95 ec bd 67 00 d3 bd
       -0.10816126 0.111808375 -0.115519606 -0.10302811
0001c0 d2 b8 53 3e 85 94 16 3e 7a e2 63 be 81 fe e0 3c
       0.20675972 0.14705093 -0.22254363 0.027465107
0001d0 5a 7f 29 3e 77 b0 1d be 33 ed 20 be 06 fd d3 3c
       0.16552487 -0.15399347 -0.15715484 0.025877487
0001e0 8a 42 f0 bd 95 14 a8 bd 97 6d 09 3e 41 0f 9c 3d
       -0.11731441 -0.08207051 0.13420711 0.07620097
0001f0 fe aa 10 3e 6d 5f fa bd fc e6 53 3e 16 bb 56 be
       0.14127728 -0.12225232 0.20693582 -0.20969805

classifier.1.bias f4 [2]
000000 9a c1 6d 3d c9 7a e5 3d
       0.05804596 0.1120506

embedding.0.bias f4 [64]
000000 74 b6 a6 be c6 4c b2 3e 9a 82 06 3f f4 e1 d2 3e
       -0.32561076 0.34824198 0.5254303 0.41188014
000010 6e 38 a8 3e a9 e7 fb 3d e3 eb ae 3e 98 5c 2e 3e
       0.32855552 0.12300045 0.34164342 0.17027509
000020 3c ac c1 3e 54 09 7f bf 80 c0 47 bd 0c a5 be be
       0.37826717 -0.9962361 -0.048767567 -0.37235296
000030 22 ad c1 3e 4d 33 03 3f 4f 49 53 bf e8 0f c5 3e
       0.37827402 0.51250154 -0.82533735 0.38488698
000040 55 96 89 bd 00 b3 29 3f 62 26 0b bd f4 d0 ba be
       -0.06718127 0.6628876 -0.03397215 -0.36487544
000050 98 22 57 3f d8 e8 52 bf a0 70 1e bf 2d d6 b3 3e
       0.8403716 -0.8238654 -0.618906 0.3512434
000060 0b 2e 3a bf 70 3d 11 bd 9e 34 4f bf 50 38 dc bd
       -0.72726506 -0.035458982 -0.8093966 -0.10752928
000070 72 0c 2f 3f 32 4e 50 bf 19 46 2b 3f 96 ee 93 3e
       0.68378365 -0.81369317 0.66903836 0.28892964
000080 e0 68 b1 3e 30 12 7c bf d0 2a 24 be 0c 88 92 be
       0.34650326 -0.9846525 -0.16031957 -0.2861942
000090 07 2a 34 3f da e5 2e 3f 7c 14 72 bf 06 39 58 bf
       0.7037663 0.68319476 -0.94562507 -0.8446201
0000a0 71 65 95 3e 20 c9 e9 3e 62 0f 49 bf c8 64 bd be
       0.29178956 0.4566126 -0.785391 -0.36990952
0000b0 24 46 bc be 2f e6 6f 3f 29 b4 c4 3e 94 03 ed be
       -0.36772263 0.9371061 0.384187 -0.46291792
0000c0 c4 7a fe 3e f0 81 ad be 80 de 2b bf d6 cb 80 3e
       0.49703038 -0.33888197 -0.67136383 0.25155514
0000d0 d4 29 ac be c4 cb 15 bf 64 0b 00 bf 86 c5 2d 3f
       -0.33625662 -0.58514047 -0.5001738 0.6787952
0000e0 ae 5a 26 3f e6 33 9f bd d8 ea 2a 3f 78 e9 76 bf
       0.64982116 -0.07773571 0.66764593 -0.96449995
0000f0 28 ea 0c bf 72 34 11 bf a0 8a a7 be 7c 9d 3f 3f
       -0.55044794 -0.5672065 -0.3272295 0.7484968

onnx::MatMul_137 f4 [1, 64]
000000 00 06 e3 bb d1 a5 71 bf 94 b3 9f 3f 00 69 3e bf
       -0.0069282055 -0.9439364 1.2476678 -0.7437897
000010 c2 36 62 bf 03 6c 5a 3f 1a 02 90 3d 02 e5 82 3f
       -0.88364804 0.8532106 0.07031651 1.0226138
000020 ec 84 68 3d 90 a7 bf be 40 2a 7e be 84 98 63 bf
       0.05676739 -0.37432528 -0.24820805 -0.88904595
000030 35 2c 01 bf 8c a8 54 bf 04 d5 67 3f 25 82 86 3f
       -0.5045808 -0.8306968 0.9055941 1.0508467
000040 11 37 1e 3f b3 e3 bd 3e d0 1d 2a bf bc 49 9f 3e
       0.61802775 0.37087783 -0.6645174 0.31110942
000050 ce 8a dc bd 80 b0 2a bf 80 4e b7 3d 56 50 6a bf
       -0.107686624 -0.6667557 0.089505196 -0.9152883
000060 84 8e 96 3f d5 63 b3 3e 82 63 49 bf 28 1f 24 bf
       1.1762242 0.35037103 -0.7866746 -0.6411004
000070 41 09 8e 3f 2c 9c d7 3e 07 7c 0b bf 40 a4 c4 be
       1.1096574 0.42111337 -0.54486126 -0.38406563
000080 52 fc 6a bf 40 12 75 bf 24 38 1b bf 74 9d 4b bf
       -0.9179126 -0.9573097 -0.6063254 -0.7953713
000090 27 70 50 be c8 44 8d bf 28 91 66 bf 7e c2 2d bf
       -0.20355283 -1.1036615 -0.9006524 -0.67874897
0000a0 72 55 1b be 62 10 a2 bf 10 56 ea 3e 0e cd 5f 3f
       -0.15169314 -1.266125 0.45768785 0.87422264
0000b0 c2 9e 37 bf ba d4 36 bf db 49 bb 3e 80 a1 c3 3e
       -0.7172662 -0.71418345 0.36579785 0.38209152
0000c0 a9 9f 7f 3f 5e bf 15 bf 6e 75 15 3f fb a7 32 3f
       0.99853 -0.5849513 0.5838231 0.6978757
0000d0 20 42 73 3e 18 7c 6d bf 8c fc 0d bf d1 5a d8 3d
       0.23755693 -0.9276748 -0.5546348 0.10564197
0000e0 e3 9b a1 bf 81 6f 71 3f 32 32 f9 3d 98 a7 60 3e
       -1.2625698 0.94310766 0.12167777 0.21938932
0000f0 64 74 54 bf b8 5e 15 bf ab 81 3b 3f 7c 0f 94 bd
       -0.829901 -0.58347654 0.7324473 -0.07229516

onnx::Expand_138 f4 [1, 1, 64]
000000 d0 b9 6e bf e0 64 25 be 9c ca 99 3f 69 c2 5a 3f
       -0.9325228 -0.16151762 1.2014956 0.85452896
000010 b6 91 42 bf 68 2d 20 40 fc 90 4d 3e a4 b8 9c bf
       -0.7600359 2.5027714 0.20074838 -1.2243848
000020 51 cc 50 3f 8b e1 55 3d af 7c c2 3f 00 3b f7 be
       0.8156176 0.052217048 1.51943 -0.482872
000030 e0 d6 1f be d1 e4 0d 3f 57 a0 c0 bf a3 ee e8 3e
       -0.15609312 0.5542727 -1.5048932 0.45494565
000040 11 9e 63 3c 92 c2 3f bf 1c 16 fa be 70 ad cb 3e
       0.013892666 -0.74906266 -0.48844993 0.3978076
000050 8e 16 f4 3f a2 df 73 3e d3 0e 94 3f a4 41 04 3e
       1.9069383 0.23815778 1.1567024 0.12915665
000060 1c 60 95 be 83 ab 11 c0 6a 76 bf 3f 45 5f 87 3d
       -0.29174888 -2.2760932 1.4958012 0.06609968
000070 f9 f9 b8 3f e4 04 79 bf c0 a2 cd 3d c4 69 e7 bd
       1.4451286 -0.9727309 0.10040808 -0.1129947
000080 c3 ba 82 bf 20 66 01 40 b7 48 74 3f 5e 64 f6 bd
       -1.0213245 2.0218582 0.95423454 -0.12030862
000090 fc d3 d9 bc 38 43 a7 3f 8f 72 39 3f 44 c2 b0 bf
       -0.02659034 1.3067389 0.7244043 -1.3809285
0000a0 28 1b 72 be 20 54 69 3f f7 ae 39 bf 87 e0 8a be
       -0.23643172 0.9114399 -0.725326 -0.27124426
0000b0 cd 0e 38 3e ed 87 08 40 14 20 ec 3e 2f d3 38 bf
       0.17974396 2.1332963 0.46118224 -0.7219724
0000c0 1c 29 f5 bf fc 83 89 bf 5f e8 ab 3f 21 a4 e9 3f
       -1.915317 -1.0743403 1.3430289 1.8253213
0000d0 a5 89 03 3e ed 08 7b 3e 69 b7 6d bf 59 dc c6 3f
       0.12845476 0.24515124 -0.92857987 1.5535995
0000e0 52 a1 8c 3f 81 08 cd bf 06 83 ee 3f 7a 24 d3 bf
       1.0986731 -1.601822 1.8633735 -1.6495507
0000f0 14 25 1a bf cb cc af bf 95 65 a1 be 14 ec 10 40
       -0.60212827 -1.3734373 -0.31522813 2.264409

onnx::MatMul_145 f4 [64, 64]
000000 7a 00 e2 ba 5e 16 be bd 5d c5 8f 3d 37 1f 1d be
       -0.0017242574 -0.0928161 0.07020066 -0.15343939
000010 90 84 fa bd 6b d9 94 bd 54 10 c0 3d 8a 7e 00 bc
       -0.122323155 -0.07268032 0.09378114 -0.007842669
000020 d1 7e ec 3d af 5e 4e bd 39 e2 f4 bd d8 e7 29 bc
       0.11547626 -0.050383266 -0.11957211 -0.010370217
000030 ca e5 d0 3d dc ed 12 3d 2c e1 f0 3d ff 12 04 bd
       0.10200079 0.03587137 0.11761698 -0.03224468
000040 55 0a f9 bd 3f 21 87 bd 8e 50 1a 3c f0 15 78 3d
       -0.12160174 -0.06598138 0.00941862 0.060567796
000050 f7 5f 7f 3d b0 d3 fb 3d fc 34 86 3c 90 8f 79 bd
       0.06234738 0.122962356 0.016382687 -0.060927927
000060 30 e2 01 be 2f e2 d2 bd 00 c7 b6 bd 8d bc 36 3d
       -0.1268394 -0.10297047 -0.08924675 0.04461341
000070 fa 3f 97 bd f4 fe a8 bc 97 5b 2d 3e 14 3e 97 3d
       -0.073852494 -0.020629384 0.1692947 0.07384887
000080 3d b6 ea bd e6 85 97 bd c4 61 e5 3d a6 09 72 3d
       -0.114605404 -0.07398586 0.11200288 0.059091233
000090 cc a8 d7 3c dc 65 b0 bd b5 e6 2a 3d 6f 1b 9a bd
       0.026325606 -0.08613178 0.041723926 -0.07524764
0000a0 19 b1 4e bd b6 9f 86 bd 61 af cf 3d 9f db 8b 3d
       -0.050461862 -0.06573431 0.10140873 0.06828999
0000b0 56 7a 1f 3c 5c 81 d6 bd 7d 13 f8 3d 21 51 4c bd
       0.009733757 -0.10473892 0.12113092 -0.049882058
0000c0 79 36 aa 3d e3 5e 6f bd 95 3f 22 bd 1f 8e cf 3d
       0.08311171 -0.0584401 -0.039611418 0.10134529
0000d0 0b e4 cd 3d 41 15 05 be 7b 01 b1 3c 62 95 25 bd
       0.10053261 -0.12996389 0.021607151 -0.040425666
0000e0 01 4f f9 bc 73 d0 32 bd b0 0c 8b bd 1f 01 0f be
       -0.03043318 -0.043655824 -0.06789529 -0.13965271
0000f0 1d 76 50 3c 12 09 fa bd ee 37 20 be 83 5f 1d be
       0.012723473 -0.12208761 -0.15646335 -0.15368466
000100 7a 92 9f bc f7 0c 05 bc 8b 50 f2 3d ed 40 e8 3c
       -0.019479025 -0.008120767 0.118317686 0.028351272
000110 63 6c df 3c 6f f1 4f bc 52 b2 d5 bd af 70 8f bd
       0.027273363 -0.01269184 -0.104344025 -0.070039146
000120 b8 85 83 3d 24 ac b4 bd 85 37 75 3d eb 43 05 3c
       0.06421989 -0.08821896 0.0598674 0.008133869
000130 fd d5 d6 3d 1b c4 e5 bc 5f 32 7c 3d b0 a0 1a be
       0.10490034 -0.028047612 0.061571475 -0.1510036
000140 8e b4 90 bd a1 10 0e bd b3 15 91 3d 23 f1 32 3e
       -0.07065688 -0.034683827 0.07084217 0.17474799
000150 23 c4 7d 3d 5e 4f 89 bd 3b c8 0c 3e 4e 0d 73 bd
       0.06195463 -0.06704591 0.13748257 -0.05933886
000160 64 dd 41 3c 55 b2 f4 bc 6a 25 d8 3d 38 78 1f be
       0.011832569 -0.029870192 0.10554011 -0.15573204
000170 ff 06 c4 bd 38 4a 93 3c 89 a5 39 3d e4 da 10 be
       -0.09571647 0.017979726 0.045323882 -0.14146
000180 80 6a 80 bd e5 6a 38 bd 1e 55 0c 3e f9 57 05 be
       -0.06270313 -0.045023818 0.13704345 -0.1302184
000190 e6 38 31 3d 22 1f 89 3c 68 14 d1 3d 95 a0 5a 3d
       0.043267153 0.016738478 0.1020897 0.0533758
0001a0 25 21 09 3e c1 95 c2 3d 3b 52 e2 bd a0 32 3b bc
       0.1339155 0.095012195 -0.110508405 -0.011425644
0001b0 00 73 b9 3d b3 d2 57 3a 99 e1 b1 bd d0 a5 92 bd
       0.09055138 0.0008232996 -0.086856075 -0.071605325
0001c0 4f 9e 5d bb 0a 5a 54 3e d5 c9 26 3e 77 cc 48 be
       -0.0033816283 0.20737472 0.1628793 -0.19609247
0001d0 fc 89 97 3d e8 a5 e0 3c dd e0 1c be 41 1f 5d 3d
       0.07399365 0.02742286 -0.15320154 0.053984884
0001e0 09 95 c8 bd ad 6e 86 3c bb 41 0f 3e 47 3f 0d be
       -0.09794051 0.016410196 0.13989918 -0.1379367
0001f0 25 a0 05 bd 6b 10 ce 3d 81 c5 8f 3d f2 8c 52 3d
       -0.03262343 0.10061725 0.07020093 0.051403947
000200 96 4e 93 3e 15 f2 3c 3e db 5c f4 bd 2f 13 7b be
       0.28770894 0.18451722 -0.11931773 -0.24519037
000210 db 0b fb bd 61 c5 25 3e ad 89 b3 bd 2d db 31 be
       -0.122581206 0.16188575 -0.08766494 -0.17368765
000220 c8 6a 6d 3d 6b 50 76 3e cf c9 0d 3d 37 b1 37 be
       0.057963163 0.24054115 0.034616288 -0.17938696
000230 44 db 1b 3c 5f 01 bd bd 0e 50 f3 3d c0 78 eb bc
       0.009512726 -0.09228777 0.118805036 -0.028744102
000240 c2 d4 91 bd 3c f5 31 3e ca 7c 00 3e 68 2f 0a bd
       -0.071206585 0.17378706 0.12547603 -0.033736616
000250 72 9c 5e 3e ab b4 94 3d c2 2e 88 be 8f ab 0d 3e
       0.21739367 0.07261022 -0.26598173 0.13834976
000260 81 b9 40 3c ca 02 3b 3e a5 1a be 3d b5 f8 29 3e
       0.011762978 0.18262783 0.09282426 0.1659878
000270 78 e6 5a bd 1e 3f 18 3e aa 02 96 ba ab 78 a9 bc
       -0.05344245 0.14867827 -0.0011444886 -0.020687422
000280 45 2c b6 bd 1b d3 d3 bd bf 90 f6 bd 26 9a 0c 3e
       -0.088951625 -0.103429995 -0.12039327 0.13730678
000290 aa 1e 0c be cd 36 1f 3e 32 f7 96 bd 4d 6b 1c bd
       -0.13683572 0.15548249 -0.073713675 -0.038188267
0002a0 b1 99 e6 bc 82 69 a9 bd e7 bf 0b 3e c7 8e 35 3e
       -0.028149458 -0.08272077 0.13647424 0.17730246
0002b0 76 dc b7 3e 26 7b 00 be c5 25 0e 3e b3 7a e9 bd
       0.35910386 -0.12546977 0.13881595 -0.11400356
0002c0 9b 2f a2 bd 38 1a 09 be b5 42 01 3e d4 d6 14 3e
       -0.07919236 -0.13388908 0.12623103 0.14535075
0002d0 7e eb c8 3d 13 65 15 3d a9 98 9c bb 70 19 06 be
       0.098105416 0.036473345 -0.0047789407 -0.13095641
0002e0 98 58 10 3e fb 11 88 3e 65 5c 1b bd 75 90 30 bd
       0.14096296 0.26576218 -0.03792991 -0.043106515
0002f0 0f d9 45 3e 60 a1 90 3c 25 c8 1a be ff 87 05 be
       0.19321083 0.017655075 -0.15115412 -0.1304016
000300 3b 9e 92 3b 27 a1 33 be a4 68 ea 3d 6d ac ae bc
       0.004474429 -0.17541943 0.1144574 -0.021322453
000310 b3 a0 d3 bd 59 dc 41 be 15 55 99 bd 37 c6 ad 3d
       -0.10333385 -0.18931712 -0.07486931 0.08485072
000320 81 61 e9 bc d8 86 00 be a5 dc 8e 3d 82 6c 06 be
       -0.028488876 -0.12551439 0.06975678 -0.1312733
000330 0e c4 1c bd 0a 07 dd bd ed 46 08 3e de 60 fe bd
       -0.03827291 -0.10792358 0.13308306 -0.1242082
000340 f0 2b 9d 3b 3d 37 f6 3c 26 62 0a bd 6e 46 c3 bc
       0.0047964975 0.030055637 -0.033785008 -0.023837294
000350 1d 55 2f bd 31 46 06 3e 4f 2f 20 3e 86 ce 05 be
       -0.04280578 0.13112713 0.15643047 -0.13067064
000360 66 dd b1 bd 73 aa b4 bd 5c 07 d0 3d 2a 0e 06 be
       -0.086848065 -0.08821573 0.10157654 -0.1309134
000370 1b 20 72 bd 12 07 b3 bd c2 13 d0 bd 70 9d 7b bc
       -0.05911265 -0.08741583 -0.101600185 -0.01535736
000380 2d 9e 62 bd 82 01 05 be 13 15 2c 3e e1 51 b0 bc
       -0.05532663 -0.12988856 0.16804914 -0.021523418
000390 a8 35 db bd eb 5e 93 bd ec 65 de 3d 79 69 c0 3d
       -0.107035935 -0.071958385 0.10859284 0.09395117
0003a0 76 ee c4 bd d2 9f 8c 3d 3e ca 93 3c 5b a4 d9 bd
       -0.09615795 0.06866421 0.018040773 -0.106270514
0003b0 9c 71 0c be a0 be 0c be fb 3c 45 3c 7d ac fb 3d
       -0.13715214 -0.13744593 0.012038465 0.12288759
0003c0 10 77 54 3c 86 0d af bd 72 2a 4b bd 5f 46 c7 bb
       0.01296784 -0.08547501 -0.049601026 -0.006081387
0003d0 76 36 ca bd 7e 53 c9 3d e6 7b 2f 3d 82 37 a9 3d
       -0.09873669 0.09830378 0.042842768 0.082625404
0003e0 c1 57 4d bd 7b 7d 8c 3c e6 39 9e bd da 16 ba bd
       -0.050132517 0.017149678 -0.07725887 -0.0908639
0003f0 c1 3e 08 bd a5 8a b7 bd 65 95 2d 3d 3e 06 45 bd
       -0.03326297 -0.08961991 0.0423788 -0.048101656

onnx::MatMul_146 f4 [64, 64]
000000 cb d1 3e 3e b5 d9 83 bd 65 36 fd bc 4e 00 3d be
       0.18634717 -0.06438009 -0.030909726 -0.18457147
000010 d3 b8 f5 3d dc b1 43 3d e8 b3 c2 bd 88 e9 5b 3d
       0.11998143 0.04777704 -0.09506971 0.05368951
000020 ef 1c bb bd 75 b6 f8 3d 6a a9 15 be c2 21 04 be
       -0.09136378 0.12144176 -0.14615408 -0.12903503
000030 a3 04 a8 3c e0 c1 3b bb 8d 3a d0 ba 05 a9 48 3e
       0.020510023 -0.0028649494 -0.001588659 0.19595726
000040 6b 01 41 bd bc 35 85 3d 2e 20 c8 bb 41 54 b2 3d
       -0.047120493 0.0650439 -0.0061073517 0.087074764
000050 89 2d 8f 3d 42 86 22 3e 64 54 34 be b6 be 8a bd
       0.06991107 0.15871528 -0.17610317 -0.067746565
000060 70 82 0d 3d af f1 19 be eb e1 0d be 42 65 57 be
       0.034548223 -0.15033601 -0.13855712 -0.2103472
000070 62 76 af 3c 65 0a 64 3d 3f 67 a1 3c 8d f8 f5 3d
       0.021418754 0.055673975 0.019702552 0.12010298
000080 9c 93 20 3e 99 5a 3f 3e 4e c8 10 bd 4e 78 c1 bd
       0.15681309 0.18686904 -0.035347275 -0.094467744
000090 40 32 7d bd bb 49 cb bc 9c 9b f4 3b 9e 2a 1b 3c
       -0.0618155 -0.02481543 0.007464839 0.00947061
0000a0 95 e1 27 be 56 c4 2d be 71 b4 65 bb dd 36 c4 bc
       -0.16394646 -0.16969427 -0.0035050178 -0.023951942
0000b0 50 9b 8a 3c 50 a1 08 3e e7 65 fb bc 19 6d 00 3d
       0.016919762 0.13342786 -0.03068824 0.031354044
0000c0 fc 79 38 3d 06 7c 36 3e e3 57 4e 3d 6b 3a 04 3c
       0.04503821 0.17820749 0.050376784 0.008070569
0000d0 23 96 79 bd 25 24 ef bd b1 06 01 3e 6c bd 2b 3d
       -0.060934197 -0.11676816 0.12600209 0.041928694
0000e0 ee 2f 46 3e c1 75 2c be 93 99 af 3b a2 c6 f5 3d
       0.19354221 -0.16841795 0.0053588836 0.12000777
0000f0 ae f2 18 bb ee e5 a6 3c 17 5e 87 3c 00 51 5c 3e
       -0.0023338008 0.02037331 0.016524358 0.21515274
000100 ca 72 bc 3b 3e fa 02 be 96 02 98 3d da 96 84 bd
       0.0057509886 -0.12790772 0.07422368 -0.06474085
000110 81 7e 2a bc c7 2a 5c bb 3f 00 ec 3d c2 bc 65 3d
       -0.010406137 -0.0033594833 0.115234844 0.056088217
000120 0b 22 78 3c 22 90 d3 bd f6 f1 ad bc 8d 78 38 3d
       0.015144835 -0.103302255 -0.02123354 0.04503684
000130 f8 d7 af bd 83 11 51 3d 01 54 87 3d 50 59 88 bd
       -0.08586115 0.05104209 0.06607819 -0.0665766
000140 94 0b de 3c 6a 26 7c bd 1a 36 cd 3d 9e 93 e1 3c
       0.02710513 -0.061560072 0.10020085 0.02753621
000150 a5 5d a1 bd 3c 5b 1c 3d b2 0d fc bd b9 58 1e bb
       -0.078791894 0.038172945 -0.123073 -0.002416177
000160 99 a8 8a 3d 20 c5 4b bc d7 1f be 3d d9 b1 57 bd
       0.06770439 -0.012437135 0.09283417 -0.052659843
000170 2b 91 80 3d bd c5 d8 bc 43 f1 7b 3d 0e f1 d0 3d
       0.062776886 -0.026461476 0.061509382 0.102022275
000180 46 66 14 3b a3 f2 f3 ba 9d 2f e5 3b 5e 5b 8e 3d
       0.0022643968 -0.001861174 0.0069942013 0.06951021
000190 da 9c 6d bd 22 14 12 bd 50 85 b0 bd e9 cc ff b9
       -0.058010913 -0.03566373 -0.08619177 -0.0004879006
0001a0 3e 1b a1 3d 2c 22 7e bb 11 fc 4b 3d b5 81 b5 bd
       0.07866524 -0.0038777692 0.049800936 -0.0886263
0001b0 35 f3 e3 3d d7 2b f7 3d 62 3b 80 3d ac 17 fb 3d
       0.111303724 0.12068909 0.062613264 0.122603744
0001c0 f9 58 b1 3d 3a 8d 3b bd f7 a0 99 3d 2f 1c d6 3d
       0.08659548 -0.04578898 0.07501405 0.10454594
0001d0 b9 86 d2 3c 56 3e c1 bd 6f d7 2c bd 75 b0 5d 3c
       0.025699006 -0.09435718 -0.04219764 0.01353084
0001e0 3e f1 d9 bc b8 ee 68 3d 4a 70 9f 3d 8e 43 c0 3a
       -0.026604291 0.056868285 0.07785089 0.001466857
0001f0 fb 51 b2 3d 9a 6b d4 bd 3e c1 b5 bd b0 69 d6 3d
       0.08707043 -0.10372086 -0.08874749 0.10469377
000200 d2 c8 88 3d 66 3d f1 bd 63 98 62 bd 2a 94 3f 3c
       0.066789284 -0.11779289 -0.05532111 0.01169304
000210 95 3f 6a bd 58 fd db bd 1a 50 e8 bb b8 4e 9b 3d
       -0.057189543 -0.10741681 -0.007089627 0.07583374
000220 54 4d dc 3c bd 77 a4 3d 3c 97 d0 3d 40 76 d5 bd
       0.026892342 0.08030651 0.10185096 -0.10422945
000230 10 4d 98 bd 71 f8 0a 3e 90 4b d8 bc 5b 0a cf 3d
       -0.074365735 0.13571335 -0.026403219 0.10109397
000240 eb ab 43 3d 99 4d 8f bd 37 3d a8 bd b5 77 b9 bd
       0.047771376 -0.069972225 -0.08214801 -0.090560354
000250 e8 44 9d bd 00 27 b1 3d 2d 7a ac bd 25 04 cd 3d
       -0.076791584 0.08650017 -0.08421741 0.10010556
000260 09 fa 72 bd a6 b6 90 3d b8 92 cf 3d 78 23 97 bb
       -0.059320483 0.070660874 0.10135406 -0.0046123825
000270 56 96 ce 3d 5f d9 d3 3c 57 4a e7 bc 9e 16 a5 3d
       0.10087268 0.025860487 -0.02823369 0.080609545
000280 9d 69 30 bb 30 89 ff bd 05 b5 84 bd be 1c 4f 3c
       -0.002691842 -0.12477338 -0.06479839 0.01264113
000290 98 49 67 bd 4a 2c 68 3d 2c 0e c0 3d 96 56 86 3d
       -0.05646667 0.056682862 0.09377703 0.06559484
0002a0 2a 4b 4a bd e4 b8 1d 3d a9 81 30 bd 53 91 5b 3c
       -0.04938809 0.038506404 -0.043092404 0.013401347
0002b0 70 47 0f 3d 2e 16 c5 3d bb 31 ad 3c fc 97 8d 3b
       0.034980237 0.09623371 0.021141877 0.0043210965
0002c0 6f a5 8a bd b8 0e 99 bd ae f9 cd 3d cb de 2b 3d
       -0.06769835 -0.074735105 0.10057388 0.04196052
0002d0 33 8f a7 bd 75 09 53 bd d4 dd b8 bd 48 1c 85 3d
       -0.0818161 -0.05152269 -0.09026685 0.06499535
0002e0 48 9f 85 bc 5d b1 76 bb 53 e2 9f bd 9c aa c4 bd
       -0.016311303 -0.0037642338 -0.0780684 -0.09602854
0002f0 81 4a 2f 3b 40 e1 4c 3d 34 0c 1f bd 49 b7 8b bd
       0.0026747289 0.050019503 -0.038829997 -0.06822068
000300 50 f1 c7 bd b2 12 e6 bc 6e d0 36 bd 77 14 dd bd
       -0.097628236 -0.028085086 -0.044632368 -0.10794919
000310 51 dc 2a 3c 28 98 20 3c 3a 51 e8 bd b8 9a d3 3d
       0.010428504 0.009801902 -0.11343618 0.10332245
000320 f8 d0 b6 bd e2 63 e2 3d c3 d2 19 3d c5 89 c3 3c
       -0.089265764 0.110542074 0.037554514 0.023869405
000330 ab 45 a5 bd 1b bb e8 bd 3d c9 c8 3d c4 6d 4e bd
       -0.08069929 -0.113638125 0.09804008 -0.05039765
000340 f5 11 1c bd bb a8 b7 bd 6f 5f 72 3c 24 c0 66 3d
       -0.038103063 -0.0896773 0.014793261 0.056335583
000350 c3 ab e2 3d c9 20 4b bd 72 8c 89 3c b2 6d 94 bd
       0.11067917 -0.049591813 0.016790602 -0.07247485
000360 ea bf fe bc ed 91 a2 bd 7f 9d 18 be 93 2a 25 3d
       -0.031097371 -0.079379894 -0.1490383 0.040323805
000370 63 19 59 3d 83 be 63 3d cb 51 0a 3e fa f0 b4 3d
       0.053002726 0.055601608 0.13507764 0.08835025
000380 62 10 1f 3e 75 db d7 3d 60 d9 d2 3d 83 77 ac bd
       0.15533593 0.10539905 0.10295367 -0.084212326
000390 b7 3f a4 bd e3 00 1d be 19 96 0d 3e 17 b1 6a 3c
       -0.08019965 -0.1533237 0.13826789 0.014324448
0003a0 c9 ae d7 bc c0 95 d4 bd 4e ac d0 3d 9f 72 c7 3d
       -0.026328461 -0.10380125 0.101891145 0.09738659
0003b0 85 0f 01 bd d6 ec 8c 3d 9a c5 76 bc 68 dc 01 bd
       -0.03150894 0.0688111 -0.01506176 -0.031704336
0003c0 8b 76 7e 3d af 46 a6 bd c4 e1 b5 bd 46 2f ee bc
       0.06212477 -0.081189506 -0.08880952 -0.029075276
0003d0 c1 d3 ad bd 97 fb 90 3d aa 89 0f 3e 11 05 7d 3d
       -0.084876545 0.07079237 0.14017358 0.06177241
0003e0 d2 d6 5c bd 1a 5c 0b be eb ff 01 bc 93 e2 62 3d
       -0.053915806 -0.13609353 -0.007934551 0.05539186
0003f0 e4 cf bf 3d 6a bb 31 3d 06 f8 e1 3c 7d 21 33 bd
       0.09365824 0.043391623 0.027584087 -0.04373311

onnx::MatMul_147 f4 [64, 64]
000000 b3 23 3c 3c a7 7c 36 bd b3 10 f8 3c fa f3 ac bd
       0.011483121 -0.04455247 0.0302814 -0.08444972
000010 35 4b 5e bd db 21 92 bd 6e c9 a3 3d 0d 10 bb 3c
       -0.05427094 -0.07135364 0.07997404 0.022834802
000020 ca c5 90 bd cb 37 ac 3d 58 49 87 bd 12 df 9d 3d
       -0.07068975 0.08409079 -0.06605786 0.07708563
000030 e9 48 0d be d1 36 2f bb 10 0f e9 3d ba 39 1c bd
       -0.13797344 -0.0026735554 0.11379826 -0.03814099
000040 5b 11 29 3d d0 ac f1 3d 81 8b ad 3d 07 00 33 3d
       0.041276317 0.118005395 0.08473874 0.043701198
000050 f4 f1 62 bd a4 f0 a5 3d 50 0d 10 be 4f 22 d5 bd
       -0.055406526 0.08102539 -0.14067578 -0.104069345
000060 03 f4 cd bd c7 00 b1 bd 97 55 25 3d 8e a2 bc 3c
       -0.10056307 -0.086427264 0.040364828 0.02302673
000070 23 6b 33 bd bc 5c 83 bd 4c 45 d3 3d 0a 49 d4 3d
       -0.043803345 -0.06414172 0.10315952 0.103654936
000080 25 30 a7 bb da f0 91 bc d1 d1 62 be b0 85 e5 3c
       -0.005102175 -0.017815042 -0.22150351 0.028017849
000090 78 f7 91 bd 3b 73 9c bc ed 61 8e 3d a3 b6 29 3e
       -0.07127279 -0.019097915 0.069522716 0.16573577
0000a0 df d0 13 be ac 5d 75 3d ac 97 ea 3d a3 3a 7c bd
       -0.14435147 0.059903786 0.1145471 -0.061579358
0000b0 7c ae d9 3d 13 76 af bd ec e9 21 3d 9e 04 ee 3c
       0.106289834 -0.08567443 0.039529726 0.029054936
0000c0 21 4e b5 3d 50 25 6a bd a4 99 7a 3d f3 e7 1c 3e
       0.088527925 -0.05716449 0.06118168 0.15322857
0000d0 01 18 1d bc 09 22 e8 3d eb c7 07 3e b8 4a 0e be
       -0.0095882425 0.11334617 0.13259856 -0.1389569
0000e0 a3 02 af 3d 13 cb dd bd d9 83 c5 3d 74 25 58 3c
       0.08545425 -0.10829749 0.096442886 0.013192523
0000f0 23 82 13 bc 72 92 4c bc 19 27 e1 3a a7 21 92 3b
       -0.009003195 -0.012486087 0.001717779 0.004459578
000100 3f aa 99 3d 82 d1 10 be 8f 01 a7 3d da bf 16 3e
       0.07503175 -0.14142421 0.08154594 0.14721623
000110 f2 17 66 bb 12 68 cf 3c 74 68 15 3e b7 b0 c4 3d
       -0.0035109487 0.02531818 0.14590627 0.09604018
000120 df 7a 42 bc 66 11 4b be 28 2f ff bd 41 75 e7 3d
       -0.011870115 -0.19830856 -0.12460166 0.11301661
000130 d3 3e 9f bd 62 d5 d5 bc 0c be 17 3d c8 8c e6 3d
       -0.07775655 -0.026102725 0.037046477 0.11257321
000140 9a 1e 0e 3e 54 f6 dd bc 63 81 63 bc b0 06 8d bd
       0.13878861 -0.027094997 -0.013885829 -0.06886041
000150 75 7c 96 bc ce ee 7f 3d cd 04 2e bd ec 55 10 3e
       -0.018369893 0.0624836 -0.042485047 0.14095277
000160 26 33 85 bd 26 43 e5 bc db 83 9d bd 17 b8 7f bd
       -0.065038964 -0.02798612 -0.07691165 -0.06243142
000170 47 40 36 3d c1 e9 8e 3d d5 73 30 be 15 28 d9 bd
       0.044494893 0.06978179 -0.17231686 -0.10603348
000180 53 45 8a 3d 38 26 c3 3d 7f 52 04 3c 06 7e f3 3d
       0.06751504 0.09528774 0.008076309 0.118892714
000190 ec fd cd 3d 64 f0 0f 3c 47 52 37 3d 40 22 c3 3c
       0.100581974 0.008785341 0.0447562 0.023820043
0001a0 8b 51 11 be d4 98 13 3d 63 cc cb bd 7e 3b c3 3d
       -0.14191262 0.03603442 -0.09951093 0.095328316
0001b0 f1 d3 b5 3d 2c f2 ff 3d 10 7c ee 3d 5a 1e f7 3d
       0.08878315 0.124973625 0.11644757 0.12066336
0001c0 1a da b7 bd 0e 59 af bd b6 01 b1 3d 95 2b 5f 3d
       -0.089771464 -0.08561908 0.086429045 0.054484922
0001d0 b9 cd 25 be d2 9e be bc 36 42 32 bd a8 0e c9 3d
       -0.16191758 -0.02326909 -0.043520175 0.098172486
0001e0 71 6a 6f 3d 99 5d cb 3d 31 ba 6a bc 31 50 34 bd
       0.05845112 0.09929962 -0.014326618 -0.04402179
0001f0 24 ea a3 3d 0d fd b7 bd ea a6 9c bd 3c 39 b7 bd
       0.08003643 -0.089838125 -0.07649024 -0.089464635
000200 70 0a 0f be b9 3b 5a be 69 07 88 3d c1 a7 45 3d
       -0.13968825 -0.21311845 0.066420384 0.048255686
000210 69 aa 93 bd 61 07 b5 bd 1d f9 6b bc 81 23 2d bd
       -0.072102375 -0.08839298 -0.014402655 -0.042270187
000220 cd 87 d7 3d 40 fa e8 bc e0 7f cb 3d 4d 3a e4 bd
       0.10523949 -0.028439641 0.099364996 -0.111439325
000230 07 cd 1d be cf cf cc bd 7d 74 0f 3e 30 f8 e7 3d
       -0.15410243 -0.10000574 0.1400928 0.11326635
000240 f9 8a 91 bc ae 32 59 bd 63 91 02 be cc ed 42 3d
       -0.017766463 -0.053026848 -0.12750773 0.047590062
000250 8e c7 a5 bc 1b c5 14 bd 4f b7 1f 3e 65 71 7b bd
       -0.020236757 -0.036320787 0.1559727 -0.06138744
000260 29 d2 79 3d b6 b0 91 3d ca 41 57 bc 29 f7 1b be
       0.06099144 0.07113783 -0.013138244 -0.15231003
000270 d8 f8 bb bd 82 13 db bd 21 ad e5 3d e5 53 8d 3d
       -0.091783226 -0.1069708 0.11214662 0.06900767
000280 92 e2 11 be ff b9 5a be 8f c1 01 3e 18 af 1d bd
       -0.14246586 -0.21360014 0.12671493 -0.03849706
000290 4a 35 86 bd 98 89 a5 bd 13 e1 6b 3d 09 2d d0 3c
       -0.06553133 -0.080828846 0.057587694 0.0254121
0002a0 96 25 11 be 6c 3c e2 bd 47 5e 76 bd 9e a9 bb 3d
       -0.14174494 -0.11046681 -0.060148504 0.09163211
0002b0 54 86 e5 bd 9a 86 c0 3d 22 99 b4 bd d3 1c 34 be
       -0.11207262 0.09400673 -0.0881827 -0.1758912
0002c0 7e 8b 22 be fd 06 0d be 0d f7 c1 bd f3 b9 bd 3d
       -0.15873525 -0.13772197 -0.09470949 0.092639826
0002d0 71 18 17 be df 2c 17 3e 5c 1f bf 3d 59 7a 4d 3d
       -0.14755417 0.1476321 0.09332153 0.050165508
0002e0 b1 29 55 3d b3 68 8f 3b 69 be 39 3e 8d 21 b6 3d
       0.052041713 0.004376495 0.18139042 0.08893118
0002f0 63 cb 93 bd bb 0d 85 3d d4 a5 a2 3d f9 48 a8 3c
       -0.07216527 0.064967595 0.079417855 0.020542609
000300 37 5c b3 3c e6 a7 c7 3a 37 6f 63 bc cd 7c 65 3d
       0.021894557 0.0015232533 -0.013881496 0.056027222
000310 18 1f 41 3d 7e 60 db bd ed 65 59 bd a6 26 5d 3e
       0.047148794 -0.10711764 -0.05307572 0.21596774
000320 6d b7 76 3d 55 a7 1e 3c 35 4b 1e be c8 39 1a 3e
       0.060233522 0.00968345 -0.15458377 0.15061104
000330 89 1d 0b bd 96 0b ae 3c 9f 28 54 be 8f f0 db bd
       -0.033963714 0.021245759 -0.2071862 -0.10739242
000340 9d 13 9f bd ad 8f 4e be 67 47 8c 3d f7 fa da 3d
       -0.07767413 -0.20171995 0.068495564 0.10692399
000350 07 12 c6 bd fb 43 12 be 46 7c 50 3e a6 0d 18 3e
       -0.09671407 -0.14283745 0.20359907 0.14848956
000360 68 bd f4 3d 35 7c 25 3e e9 a0 47 3b 6d 75 5f be
       0.11950189 0.16160662 0.00304609 -0.21822138
000370 85 c4 35 3e dc d0 e8 bd a3 9e 4d be 9f eb f6 bc
       0.17750748 -0.11367962 -0.20080046 -0.03014165
000380 79 18 f9 3d 2e 56 78 3d 3a c8 ea 3d 50 c3 e1 3d
       0.12162871 0.060629062 0.114639714 0.11023581
000390 03 d9 41 3e b9 94 1a 3e e4 73 02 bd 46 83 18 be
       0.1893044 0.15095796 -0.031848803 -0.14893827
0003a0 7d 7a 0b be e9 48 8c 3d 16 ee 8d 3d 5d 5a 14 be
       -0.13620944 0.06849844 0.06930177 -0.14487596
0003b0 a0 f6 35 bd 16 f8 9d bd 6f e1 61 bc 67 29 93 3d
       -0.044424653 -0.07713334 -0.013786658 0.07185631
0003c0 d2 da 22 3e e4 15 86 bc f7 f5 13 3e 18 13 fe bd
       0.15903786 -0.01636786 0.14449297 -0.124059856
0003d0 4d 8f ec 3d 19 fa 66 bd 0a 14 d5 3c 44 84 81 3e
       0.1155077 -0.056390855 0.026010532 0.25296223
0003e0 27 30 48 be e1 ae 42 be e7 8b 1d 3e 26 ff 9b bc
       -0.19549619 -0.19012024 0.153854 -0.019042563
0003f0 78 1b 8b 3d ab 02 37 3d 92 19 7a bd cf 70 0a 3e
       0.067923486 0.04468028 -0.061059542 0.13519596
