AI/visualize/model.onnx (onnx, 20503 bytes, 18 tensors)

positional_encoding f4 [16, 16]
000000 70 dd 3c 3f e7 b6 ca bc 1b bd c3 bf b2 c8 8e bf
       0.73775387 -0.024745418 -1.5292085 -1.1154997
000010 66 e5 ec 3e 7f f9 d8 be c8 e5 3f 3f e6 d4 e2 3f
       0.46268767 -0.4237785 0.74959993 1.7721221
000020 f4 4b c9 3f a2 dd 33 bd b5 f6 26 3f c7 1a 25 3f
       1.5726304 -0.043912537 0.65220195 0.64493984
000030 e2 c9 c6 bf 5a e8 04 3f 12 7f b8 bf d7 95 68 bf
       -1.553036 0.5191704 -1.4413779 -0.9085364
000040 5d 42 88 3f b7 75 0b bf 61 52 8b be 3f 77 38 3f
       1.0645252 -0.54476494 -0.27211288 0.72056955
000050 04 68 cf 3e c7 0d 15 c0 a3 2c a7 be 96 02 99 be
       0.40509045 -2.328966 -0.32651243 -0.29884785
000060 d4 91 79 bf 2f c7 df bf d9 11 04 bf 07 10 f3 3e
       -0.9748814 -1.7482661 -0.51589733 0.47473165
000070 29 54 15 3f 03 00 8c 3e 28 c9 29 bf 0e f6 06 3d
       0.58331543 0.2734376 -0.66322565 0.0329495
000080 bd a3 44 3e 85 4f f7 bf 9f ef 26 40 7b 0b e8 be
       0.19203086 -1.9321142 2.6083753 -0.4532126
000090 67 d6 be bf b1 d2 7d bf 14 9b 0f c0 6f 15 a8 3e
       -1.490918 -0.99149615 -2.2438402 0.32828853
0000a0 14 a1 e1 be c0 68 d8 bf 39 47 19 bf 0c ae 50 bf
       -0.44068205 -1.6906967 -0.598743 -0.81515574
0000b0 07 3c 4f 3f bb b9 b6 3f 65 06 01 40 f3 35 b2 bf
       0.8095097 1.427543 2.0160153 -1.3922714
0000c0 0a e7 43 3f 52 88 e8 3f 40 27 af 3f d6 16 66 3e
       0.7652441 1.8166602 1.3683853 0.22469649
0000d0 71 35 ac be 9d 54 9c 3e 40 55 b3 bf ec 27 7a 3f
       -0.33634523 0.30533305 -1.4010391 0.97717166
0000e0 50 3c 63 3e 7a 18 3c 3f 9d 45 0d 40 38 8d 7e 3f
       0.22190976 0.7347485 2.2073739 0.9943423
0000f0 7a 02 83 bf 2a a7 8a bc f8 ca bc 3e ba d1 b1 3f
       -1.0235131 -0.016925413 0.36873603 1.3892128
000100 60 63 fd 3e 54 ba 65 bf cb 9f 2d 3e f6 7e 86 3e
       0.4948988 -0.8973744 0.16955487 0.26268739
000110 94 47 e2 bf d9 64 8c 3f be 93 3a 3f 81 39 08 3d
       -1.7678094 1.0968276 0.72881687 0.033257965
000120 4c 41 be 3d e0 31 08 3d d2 ef 45 3f ce a2 4a 3f
       0.09289798 0.03325069 0.7731906 0.7915467
000130 8b c0 a2 3f 3e a8 27 3f cb df f2 bf 4f d4 08 bf
       1.271501 0.6549109 -1.8974546 -0.5344896
000140 45 28 e8 bf e0 0b bd bc 9d 4f 8b be ea ee bc bd
       -1.8137289 -0.023076952 -0.27209178 -0.09225257
000150 c4 10 bb 3f ed 6e 1e c0 7b 06 06 40 a3 6a 4e 40
       1.4614491 -2.4755204 2.0941455 3.2252586
000160 9a a4 fa be bc 3a 9f 3e e3 c6 c5 3e a9 f9 a9 bf
       -0.48953706 0.31099498 0.386283 -1.3279315
000170 9f d9 12 3f 91 e0 0c 3f fb 34 7e 3f 6b 34 16 be
       0.57363313 0.5503016 0.9929959 -0.14668433
000180 e0 2e fa 3d e1 17 9f 3f a0 17 c8 3f a7 14 64 3f
       0.12215972 1.2429162 1.563221 0.8909401
000190 35 a2 7d 3f 81 53 10 bf 3f 6e 25 c0 da 22 98 3e
       0.99075633 -0.56377417 -2.584854 0.2971409
0001a0 b7 5c a4 3f a2 1d 05 40 5a 3c 95 bf 93 cd 56 3f
       1.2840794 2.0799336 -1.1659043 0.8390743
0001b0 c9 34 77 3f 90 d9 1b bf b7 69 d6 3b ba f1 b4 3f
       0.9656492 -0.6087885 0.006543364 1.4136269
0001c0 f2 36 72 bf 3d 39 92 bf 8a 14 34 bf 79 08 b0 3f
       -0.9461509 -1.1423718 -0.7034384 1.3752586
0001d0 a8 8e 85 3e 18 b4 d8 be b5 b3 8a bb 12 b4 3a be
       0.260854 -0.423249 -0.0042328485 -0.18232754
0001e0 fd 7e d3 3f f0 d2 9e 3f 29 45 b2 bd af 9f 38 bc
       1.6523129 1.2408123 -0.087045975 -0.01126854
0001f0 07 52 ac 3d ff 4f 83 3f 4f 6d c4 3f 67 00 f7 be
       0.08414083 1.0258788 1.5345858 -0.48242494
000200 16 1a 9c 3f 47 70 cd be 45 88 f1 3e 72 cf 67 bf
       1.2195461 -0.40124723 0.47174278 -0.9055091
000210 fc 88 f7 3e 5e 09 8a bf 40 4f 96 be 91 7a 68 bf
       0.48346698 -1.0784109 -0.29357338 -0.9081202
000220 34 a4 45 40 66 f9 a8 3f 69 65 36 3f c5 4b 17 3d
       3.0881472 1.320111 0.7124849 0.036937494
000230 04 16 5f be a6 4f c0 3f d4 61 02 c0 f5 25 01 40
       -0.21785742 1.5024307 -2.037221 2.0179417
000240 29 e9 59 bd c4 44 2a be fc 44 72 3d 0e 49 9d 3f
       -0.053200874 -0.16627795 0.05914782 1.228792
000250 8c 37 a8 be aa d1 9f bf f7 16 18 c0 78 f3 41 bf
       -0.3285488 -1.2485859 -2.3764017 -0.7576213
000260 d0 7f e0 3d 7a 44 96 3f db 70 d5 bf ed 46 ea bf
       0.10961878 1.1739647 -1.6675066 -1.8302895
000270 9c 04 3e 3e b4 30 78 be 0e 32 d7 be 83 b2 00 3f
       0.18556446 -0.24237329 -0.42030376 0.5027239
000280 e9 2b 0a c0 e7 19 df bf 76 7f 57 bf 4e ab 88 bf
       -2.15893 -1.742978 -0.84178865 -1.0677278
000290 ba 78 73 be 39 13 75 bf b2 f8 7e bf 7b 41 bd 3f
       -0.23776522 -0.95732456 -0.9959823 1.4785608
0002a0 09 2b 1a bf 0d 4c d1 bf 75 03 dd bf b3 7c 54 3e
       -0.60221916 -1.6351334 -1.726668 0.20750694
0002b0 8c 15 e3 3f 02 d6 86 bf 33 3e 02 3e 8a 64 a4 3f
       1.774095 -1.053406 0.1271904 1.2843182
0002c0 8e 3f bd be 48 50 89 3f 70 9b 4b bf 15 4c 9a bd
       -0.3696255 1.0727625 -0.79534054 -0.07534043
0002d0 bc 62 0f c0 f0 e6 d8 3f 6d 9a 42 be 48 6e 95 3f
       -2.2404013 1.6945477 -0.19004221 1.167428
0002e0 55 0a 62 bd e2 e4 48 3f 08 ae 6c bf d7 5d 8e bf
       -0.055185635 0.7847425 -0.9245305 -1.1122388
0002f0 d4 bb 10 be 1e ea a2 3f 7e 33 36 3e 9b ba 2e bf
       -0.1413415 1.2727697 0.1779308 -0.6825349
000300 60 77 21 bf c9 b9 b7 3f d9 b1 95 bf b2 4a 11 bf
       -0.63072777 1.4353572 -1.16949 -0.567546
000310 a2 c8 c1 3e 75 4c bc 3f 42 b9 98 3f 72 4c 7b bf
       0.37848383 1.4710833 1.1931536 -0.9816352
000320 28 d9 61 bf 3c 9e b0 be 57 a3 b5 bf d2 b6 e8 3e
       -0.8822198 -0.34495723 -1.4190472 0.4545198
000330 74 e0 9e bf c1 c9 03 3d 8b ae ac bd 45 2a 87 3f
       -1.2412248 0.03217483 -0.08431729 1.0559775
000340 5e 14 32 bf 84 d5 28 be ef 84 fe 3f 54 31 f3 bf
       -0.6956233 -0.164877 1.9884318 -1.8999429
000350 23 49 1b 3f 24 9e 89 bf 47 d4 7f 3f 14 b8 2d bd
       0.6065847 -1.0751386 0.99933285 -0.04241188
000360 34 1c b4 bf 26 c6 c7 3f fb bd b6 bf bd eb 3d 3f
       -1.4071107 1.5607345 -1.4276727 0.74187833
000370 3b 08 4d bf 68 d8 0e 3f 4f c0 49 bf 08 5a 9a 3f
       -0.80090684 0.5579896 -0.78809065 1.2058725
000380 76 49 61 bf 89 72 75 bf ca bd 45 bf 5d d7 8d 3f
       -0.8800272 -0.9587789 -0.7724272 1.1081349
000390 3b ca da bf bb 97 71 3e d8 04 a5 3f e9 97 66 bf
       -1.7092966 0.23593037 1.2892103 -0.90075547
0003a0 21 12 c0 bd 0f 46 97 3f d7 6d 19 bf b6 4b c7 bf
       -0.09378458 1.1818255 -0.5993323 -1.556998
0003b0 ac b0 6c 3f 2e 45 f5 3f ca 71 9f bf b7 f8 c9 bf
       0.9245708 1.9161737 -1.2456601 -1.5779027
0003c0 89 88 02 40 f8 6f 3c 40 a5 6c 07 c0 de 21 c9 3f
       2.0395834 2.944334 -2.1160061 1.571346
0003d0 20 75 03 bf cf 95 3c 3e a6 2f ac 3f df 4d f3 3e
       -0.51350594 0.18416522 1.3452041 0.47520348
0003e0 91 16 71 3f 02 a0 be 3f a0 be f4 be c6 04 44 bf
       0.9417506 1.489258 -0.47801685 -0.76569784
0003f0 cb 4b c6 3f f1 c3 9c be d4 20 d3 3f 81 29 35 3f
       1.549188 -0.3061824 1.6494393 0.70766455

encoder.0.0.block.0.queries_projection.bias f4 [16]
000000 dd 70 d9 bd 40 ca 35 be b9 37 86 3e 92 2c c9 3b
       -0.1061723 -0.17752934 0.26214388 0.0061393464
000010 e7 33 b4 3d f6 09 46 3e d8 5a 0f 3d 1e cd d8 3e
       0.08798962 0.19339737 0.034998745 0.42343992
000020 b0 fe 20 3e d6 3e 9c 3e 42 f1 1f 3e df 88 76 be
       0.15722156 0.3051669 0.15619376 -0.2407565
000030 7b 90 2e be 8d de 8d 3e db ef aa be 51 5b 9d 3e
       -0.17047302 0.27708855 -0.3338612 0.3073373

encoder.0.0.block.0.values_projection.bias f4 [16]
000000 fe a1 82 bd b4 15 77 be fb 49 fe 3d a3 49 d1 bd
       -0.06378554 -0.24129373 0.124164544 -0.10219123
000010 33 dd 09 3d 2c 91 7a be 84 ed 8e bd df 7e 07 3e
       0.033658218 -0.24469441 -0.06978896 0.13231991
000020 6b 0b 1f be 1c 7e 15 be f8 31 25 3e 29 b6 00 3d
       -0.155317 -0.14598888 0.16132343 0.03142372
000030 db 7f 0b be 3c 62 68 3e 01 fe 7b 3d 94 2c c1 bd
       -0.13622992 0.22693723 0.061521534 -0.09432331

encoder.0.0.block.0.keys_projection.bias f4 [16]
000000 34 a0 87 3e a4 83 0f bf e4 c2 91 bd 05 18 48 bf
       0.26489413 -0.5606024 -0.071172506 -0.7816165
000010 64 bf 0a 3d 7e ff 84 bd 96 68 7d 3d 89 2a 91 3d
       0.03387393 -0.06494044 0.06186732 0.07088191
000020 66 52 8a be f3 f8 0a 3f 73 81 cc 3d 29 25 ae be
       -0.2701599 0.54286116 0.09985628 -0.34012726
000030 72 a2 b5 be 85 18 b2 bd 5f 45 51 3e 84 76 57 3e
       -0.35475498 -0.08696083 0.20436619 0.21041304

encoder.0.0.block.0.final_projection.bias f4 [16]
000000 73 21 21 3e e8 be 33 3e 20 fd 8f be d6 24 02 be
       0.15735416 0.17553294 -0.28122807 -0.12709364
000010 1b 47 24 be 9d 5a 2b 3c 90 d5 00 be 18 e4 d5 3d
       -0.1604275 0.010458616 -0.12581468 0.10443896
000020 c5 d6 b5 3e f0 b9 7e 3e 62 bf 1e 3e 5b ed 1d 3e
       0.3551542 0.24875617 0.15502694 0.15422575
000030 67 13 2a bd ae 87 9b 3e 28 12 09 3e 87 23 1b bc
       -0.04152241 0.30376953 0.13385832 -0.00946892

encoder.0.1.block.0.0.bias f4 [16]
000000 cd 97 c0 bd 1b 68 db 3e a2 04 38 3d 0d 76 8a bc
       -0.09403954 0.42852864 0.044926293 -0.016901994
000010 da 11 64 3e 9d 72 bc be 36 f1 52 bd 5c 9c 14 be
       0.22272435 -0.36806193 -0.051499568 -0.14512771
000020 25 2c 69 3e 54 e4 a1 3d 8c c1 98 bd c3 cd 9f bc
       0.22770746 0.07904878 -0.07458791 -0.019507295
000030 05 44 e8 3d b8 fd 70 3d ab e9 1a 3e 3b f2 84 3e
       0.11341099 0.058835715 0.151282 0.25966057

encoder.0.1.block.0.2.bias f4 [16]
000000 93 97 1f be 2b e2 0d bd b9 02 69 3d b7 42 b3 bd
       -0.15585165 -0.03463952 0.056887362 -0.08752959
000010 81 37 c0 be 8a d2 3a 3d ec 45 3a 3e 4e 65 01 3e
       -0.37542346 0.045610942 0.18190736 0.12636301
000020 8a 6a 06 3b d1 61 01 bd 0b 7b 86 bc ac fb 26 bd
       0.002051028 -0.031587426 -0.016416093 -0.040767357
000030 f3 15 36 bb 6d 5e 88 bd 53 fd 46 be b5 21 98 bd
       -0.002778408 -0.06658635 -0.19432573 -0.07428304

classifier.1.weight f4 [6, 16]
000000 cd 9c 6d 3e 50 94 a7 be 13 99 cc be 6b 92 c7 be
       0.23204346 -0.3273034 -0.39960536 -0.38978896
000010 23 f6 4a 3e 98 82 fe be 59 09 02 3f cd 19 dd 3e
       0.19820456 -0.4970901 0.50795513 0.43183747
000020 5e ab b6 3e 03 e5 03 3f 7f d0 bd be 74 d2 a1 3c
       0.35677618 0.5152132 -0.37073132 0.019753672
000030 ae d9 cd be 55 b7 06 3f 2a 38 83 3d 33 9f 0c 3b
       -0.4020514 0.5262349 0.06407197 0.0021457195
000040 87 92 0a 3f 15 15 91 3f 8c 14 5a 3f e6 da 38 bf
       0.54129833 1.1334559 0.851876 -0.7220901
000050 e6 4a 48 3f dd 5f 8d 3e 61 4d a2 bf f2 da 0f 3e
       0.78239286 0.276122 -1.2679864 0.14048365
000060 5a cd cf 3c 96 66 40 3e 9b 6c 10 bf e1 71 b3 3f
       0.025366474 0.18789133 -0.5641572 1.4019128
000070 69 4b 6a be 66 5b 4c bd 57 c7 6e 3f 85 53 95 bf
       -0.22880329 -0.04989185 0.9327292 -1.1666113
000080 86 e1 17 3f 02 7e 9a bf d9 82 a2 bd 05 52 62 3f
       0.59328496 -1.2069705 -0.079351135 0.884064
000090 89 bd 10 3d 89 6e 67 3d d8 3e 9d be 66 9a a0 be
       0.035337005 0.0565019 -0.30712008 -0.31367797
0000a0 23 c7 2b bf e1 7a b3 be 8a 8e 20 3f 20 f0 65 3f
       -0.67100734 -0.35054687 0.627175 0.89819527
0000b0 f8 f7 d3 3e 89 8a 01 bf 75 2f e4 be cb c2 2f 3f
       0.41400123 -0.5060201 -0.44567457 0.68656605
0000c0 ef cd 20 bd b2 e3 1d c0 3f 29 4f 3f cb b6 52 3f
       -0.039258894 -2.4670224 0.8092231 0.8231017
0000d0 13 c1 59 3f c4 3d 81 3e 84 5d 20 3e 2b b2 22 be
       0.8506023 0.25242436 0.15660673 -0.15888278
0000e0 76 d4 d1 bd 98 43 bf be 67 9c fa 3c 20 d6 5d be
       -0.10245602 -0.37356257 0.030592157 -0.21663713
0000f0 0a 87 dc be 93 93 e2 3d 9b 94 83 3e a6 40 21 3e
       -0.43071777 0.11063304 0.25699314 0.15747318
000100 05 a7 20 bf e0 d5 90 3f 99 36 8a bf 87 6d 9e 3f
       -0.6275485 1.131527 -1.0797912 1.2377175
000110 7e b4 88 bf 95 e0 6b 3f 33 f3 d7 3e 3c 78 57 bf
       -1.0680082 0.9213956 0.42177734 -0.8416784
000120 3a 07 1f bf d2 59 d8 be 57 de 4e 3f 6b de 75 bf
       -0.621204 -0.42256027 0.80808014 -0.9604251
000130 59 39 41 3f 70 df 77 bf e5 0a 5c bf b3 13 c2 be
       0.7547813 -0.96825314 -0.85954124 -0.37905654
000140 45 10 87 be f1 b4 ce 3e c3 10 75 3f 11 17 18 bf
       -0.263796 0.40372422 0.957287 -0.59410197
000150 f6 60 a9 3e 04 db c2 3e 0a ee 97 be 27 b6 b5 3e
       0.33081788 0.3805772 -0.29673797 0.35490534
000160 9c 11 b2 3e bd f8 4b 3e a3 74 f4 3d ec 0d 97 bf
       0.3477906 0.19919105 0.11936309 -1.1801124
000170 21 9f d1 be 7b 05 39 3e f1 71 dc bc 0d 7d 93 3e
       -0.40941718 0.18068497 -0.0269098 0.28806344

classifier.1.bias f4 [6]
000000 ad de 77 3e d5 35 99 bd 44 35 b4 3c 96 c6 d0 be
       0.24206038 -0.07480971 0.021998055 -0.4077651
000010 77 79 83 bc e0 d7 b4 be
       -0.01604913 -0.3532095

embedding.0.bias f4 [16]
000000 31 3a c8 be 77 a2 78 3f eb 34 5a bf 96 51 2d 3f
       -0.39106897 0.971229 -0.85236996 0.67702615
000010 20 60 3f be 2e 07 ef 3d aa f2 32 bf c1 72 69 3f
       -0.18689013 0.11671291 -0.69901526 0.91190726
000020 1d 05 84 3f e8 08 c0 be 96 dd 99 bc e6 c4 74 bf
       1.031406 -0.37506795 -0.018782418 -0.95612943
000030 19 96 e2 3e f4 36 1b 3f 2a 5b 88 3f 5b 5e 89 3e
       0.4425514 0.60630727 1.0652821 0.268298

onnx::MatMul_137 f4 [1, 16]
000000 b7 37 3e 3f bf 66 74 bf cc cf 4f 3f 97 7b de bf
       0.74303764 -0.9546928 0.8117645 -1.7381467
000010 40 5c f4 3c e9 32 93 3e 84 4b 80 3e 30 05 b4 3f
       0.029829144 0.2874978 0.25057614 1.4064083
000020 56 10 92 bf 90 b7 30 be 12 80 bd be 48 3d 2d be
       -1.1411235 -0.17257524 -0.37011772 -0.16917908
000030 b0 2a 98 3f d4 17 c2 bf 7b 40 02 c0 34 23 db 3f
       1.1888027 -1.5163522 -2.0351856 1.7120118

onnx::Expand_138 f4 [1, 1, 16]
000000 6c 8c ef 3e 73 d9 75 3f 6f 3c ad 3e 41 7b b8 bf
       0.4678682 0.96034926 0.3383517 -1.4412614
000010 86 1c 55 3f 73 bd 8b 3e d3 2a e9 bd ae ed 44 3e
       0.8324665 0.27292976 -0.11385121 0.19231293
000020 4b 28 b4 bd b7 cd 9a bf 41 c6 a3 3f 99 0c 21 3e
       -0.08796748 -1.2094029 1.2794877 0.15727462
000030 d7 2f 4b 3d 3e 8e c8 3e 1f b1 38 3f 97 da bd 3e
       0.04960617 0.39171022 0.72145265 0.37080833

onnx::MatMul_145 f4 [16, 16]
000000 56 1a 09 be 56 4a e0 3e e2 00 06 3f a9 27 0e 3e
       -0.13388953 0.43806714 0.523451 0.13882317
000010 5a f2 a1 bc 41 83 72 3e 2b ef 57 3f b8 af 0f 3f
       -0.019768883 0.23682882 0.84349316 0.561275
000020 fb 83 c5 bd f4 6d d9 3e ff 77 99 3e 18 92 8d be
       -0.09644314 0.424667 0.29974362 -0.27650523
000030 0e 6a 02 be 83 bb 98 bd 46 d5 15 bf f9 ed 95 3d
       -0.12735769 -0.0745764 -0.58528554 0.0732078
000040 0c fd 82 bc 21 00 b8 3e 0d 1f b1 3e 95 74 34 be
       -0.015989803 0.35937598 0.34594002 -0.17622598
000050 ef f0 45 3e ba 31 95 3e f5 81 6b bd af 00 3f 3e
       0.1933019 0.291395 -0.057496984 0.18652605
000060 a4 b1 ae 3d 54 ff 37 be cd f8 2c 3e c5 a7 eb be
       0.08529976 -0.17968494 0.16891785 -0.46026435
000070 1a ed 00 3d a0 64 50 3d ed 00 d2 3d e8 23 8c 3e
       0.031476118 0.050877213 0.10254083 0.27371144
000080 3b 0a e4 3d 2c 88 90 be c4 b5 d0 bd 03 af 04 3e
       0.11134764 -0.2822889 -0.10190919 0.12957387
000090 3f 0e ba 3e bf b0 2c 3d 66 5d 98 3e c3 d0 71 3e
       0.36338994 0.042160746 0.29758757 0.23614793
0000a0 f7 ee 1d be 5d f4 9e 3d 05 67 6b 3d a9 04 27 3e
       -0.15423189 0.07761452 0.057471294 0.16310371
0000b0 23 bd 42 3d 06 0a 9f be a3 22 79 be 8d 31 0f be
       0.047543656 -0.31062335 -0.24329619 -0.13983746
0000c0 f5 2c 04 3e 4c 65 0f be 91 11 1b bd 4f 3d eb 3d
       0.12907775 -0.14003485 -0.03785855 0.11486303
0000d0 5c 87 e3 bd b0 62 85 be 7c 89 ad be 42 fa 1c bd
       -0.11109802 -0.26051855 -0.33893955 -0.038324602
0000e0 4b af bb bd 57 1a bb bc fd 69 25 be a5 88 5d 3e
       -0.09164294 -0.022839708 -0.16153713 0.21634157
0000f0 f4 40 f5 3d 34 c1 5a bd ab 04 c6 3d 99 51 7d be
       0.119752795 -0.05340691 0.09668859 -0.24738158
000100 37 ef fc 3d b6 ec 30 be 94 c8 ca bd a6 e1 28 3c
       0.12350314 -0.17277798 -0.099015385 0.010307705
000110 82 e5 ee 3e d0 31 68 3e a2 32 62 3e 00 63 3b 3f
       0.46659476 0.22675252 0.22089627 0.73197937
000120 87 f5 c5 bc 12 7e da 3d 08 04 7a 3c 52 1f 59 be
       -0.024164928 0.10668577 0.01525975 -0.21203354
000130 5a 34 61 be 29 5e fc 3d d8 49 16 bd fb cc ca 3e
       -0.21992627 0.12322647 -0.036691517 0.39609513
000140 b4 8c 4c bd 8c 24 98 3e 5e f4 d6 3e 83 bf 7c 3e
       -0.049938872 0.29715383 0.41983312 0.24682431
000150 7b da 7a 3e 13 55 3c 3e cc e9 3f be ee 20 18 bf
       0.24497406 0.18391828 -0.1874153 -0.59425247
000160 9d c1 6e bd d1 08 20 be ab b3 42 be de db 4d 3e
       -0.058290113 -0.15628363 -0.1901385 0.20103404
000170 f5 d1 60 3e d3 ac b1 be 8f 36 d1 3d cc 81 e2 3d
       0.21955092 -0.34702167 0.10215484 0.11059913
000180 f3 39 fa be ab d1 65 be de 80 0e bd 7c 09 01 be
       -0.48872337 -0.22443263 -0.034790866 -0.12601274
000190 39 a0 3b 3d 87 29 05 bd 74 20 07 bc 78 6f 41 bc
       0.045807097 -0.032510307 -0.0082474835 -0.011806361
0001a0 73 20 02 bd 4b 02 84 3e ba c1 34 be 0b ab 0a be
       -0.031769227 0.25783 -0.17652026 -0.1354181
0001b0 9c ea 0a bd 10 6f 6f be f9 9b 98 3c e9 01 e7 3c
       -0.033915147 -0.2338221 0.018629061 0.028199153
0001c0 e9 f7 1a bf 83 81 58 3e 88 4a a3 3e a3 73 5d 3e
       -0.6053453 0.21143155 0.318928 0.21626143
0001d0 a7 fd 35 3e fa ad cc bd 69 04 86 3d 95 b4 c0 be
       0.17772542 -0.09994121 0.0654381 -0.37637773
0001e0 64 6e 16 be 9b 76 5f 3d 2c cb 4a be 80 09 25 3e
       -0.14690548 0.05455647 -0.19804066 0.16116905
0001f0 25 3b 3d 3e 5f bc a6 3c 14 11 91 be 9d 59 38 3d
       0.18479593 0.020353494 -0.28333342 0.045007337
000200 cd e7 1f 3f e9 d6 a6 be 42 7a 66 3e 77 84 03 be
       0.62463075 -0.32585838 0.22507575 -0.128435
000210 d4 b0 64 3d 10 ec 37 bd 30 26 ad 3b ba 93 1e 3d
       0.0558327 -0.04490286 0.0052840933 0.0387151
000220 61 cb fe 3e 47 1a e2 bd 15 0e f4 3e 50 3f 44 3e
       0.4976454 -0.11040168 0.47666994 0.19164777
000230 17 aa fd be fc 2f 12 3f 15 b4 03 3d f4 f5 54 3d
       -0.4954383 0.5710447 0.03215416 0.05199237
000240 b9 5e aa bd bc 60 40 3d 1a 68 11 3e 9c dd 1b 3c
       -0.08318848 0.046967253 0.14199868 0.009513285
000250 53 47 49 3d 8a 5d fa bb 24 a6 9f bd db be ee 3e
       0.049140286 -0.0076405453 -0.07795361 0.46629986
000260 05 ff a5 3e 16 27 f9 bd 42 23 a7 3e 91 a7 3c 3e
       0.32421127 -0.12165658 0.32644087 0.18423297
000270 53 fd 22 bd 33 75 2a 3e 5e 09 32 be f9 14 83 3d
       -0.03979237 0.1664627 -0.17386386 0.064004846
000280 29 f3 bd be 12 9b 3f bd 6b b1 8a 3d 91 25 f7 bd
       -0.3709958 -0.046778746 0.06772121 -0.12067712
000290 0c 71 a5 3e c9 94 8c 3d f9 7b 10 3e 76 5c 8c be
       0.3231281 0.06864316 0.14109792 -0.27414292
0002a0 c0 e7 1b 3c dc 9e 6b 3e 1c 1f 8d be b4 92 b8 bd
       0.009515703 0.23009819 -0.27562797 -0.090123564
0002b0 1d ce 47 3e b8 75 89 be 42 12 6b 3e 66 fa 15 3d
       0.1951222 -0.26847625 0.22956184 0.03661575
0002c0 2b 37 53 3d 86 70 f7 bd 4c 04 13 be ea d3 08 3d
       0.051566284 -0.12082009 -0.14357108 0.033405222
0002d0 85 1d 12 3f be 41 8d 3d 27 69 8e bd e3 d7 0d bc
       0.57076293 0.06897305 -0.0695365 -0.008657428
0002e0 50 34 aa bd 89 e9 96 3e e1 44 1d 3e b4 02 69 be
       -0.08310759 0.29475048 0.15358306 -0.22754937
0002f0 36 62 a9 be d1 1b 7b be 3d 6d f1 3c fa 87 82 3d
       -0.33082741 -0.2452233 0.029471034 0.06373592
000300 63 20 40 bd d2 b8 57 3e 73 93 92 3b dd 28 cb 3e
       -0.046905886 0.21066597 0.0044731437 0.39679614
000310 01 64 54 3e 62 49 5e be 10 76 16 be b7 b7 81 be
       0.20741273 -0.21707681 -0.14693475 -0.25335476
000320 7d de 80 3e 56 97 4c be 67 4a c7 bd 09 0d d3 3e
       0.25169745 -0.19979605 -0.09730988 0.41220883
000330 86 6a ba bc a3 28 a6 be b6 09 ac be 34 47 24 be
       -0.022755872 -0.32452878 -0.3360116 -0.16042787
000340 f4 aa ba 3d 8d ed 34 bf 43 00 8e be cd 14 1b bf
       0.09114638 -0.70674974 -0.27734575 -0.60578614
000350 e7 3c 84 be f9 88 ec 3a 7a 57 d3 bc bc 4c b5 3e
       -0.25827715 0.0018046192 -0.025798548 0.35410106
000360 6d cc 5b bf 41 b9 88 3e f2 3c ab bd f0 ee d6 be
       -0.85858804 0.26703838 -0.08361234 -0.4197917
000370 63 d0 f9 be d9 3e 87 3d 4c 61 36 bd 1e a6 a6 be
       -0.487918 0.06603784 -0.044526383 -0.32548612
000380 eb 76 5d 3d cb 85 cb be 44 34 ff bd 16 b5 00 bf
       0.054068487 -0.39750513 -0.12461141 -0.50276315
000390 0f 35 fc be 59 d5 04 bf f4 dd ba be 74 29 b7 3e
       -0.4925923 -0.5188804 -0.36497462 0.35773814
0003a0 52 e2 39 bf bb e5 fd be 6a 92 45 be f1 b5 fc be
       -0.7261096 -0.49589333 -0.19294134 -0.4935756
0003b0 99 73 a1 3d d0 3e 11 3e 58 e6 54 3e c5 3e 0c bf
       0.07883377 0.14184117 0.20790994 -0.5478328
0003c0 22 f1 65 3e f5 c0 8b 3d d2 f5 42 bd a0 73 80 bc
       0.22455266 0.06823913 -0.047597714 -0.015680134
0003d0 47 42 6c 3c 47 d9 d6 bd a6 38 2d 3e 4c 11 34 3e
       0.014420099 -0.10490661 0.16916141 0.17584723
0003e0 fa 6c 1a be 9e 60 81 3d e5 d4 d6 bd c0 72 44 3e
       -0.15080634 0.063172564 -0.10489825 0.19184399
0003f0 53 34 dd be 6c 8d 1d be f3 fa 82 be 4b b4 cd 3d
       -0.43203983 -0.1538598 -0.25582084 0.10044154

onnx::MatMul_146 f4 [16, 16]
000000 19 e5 19 be 53 10 f1 bd 08 a5 15 3e ba 06 a4 3e
       -0.150288 -0.11770692 0.14613736 0.32036382
000010 06 06 e1 bd d7 d5 c8 3e c0 c9 9f 3d 59 2b 43 be
       -0.10987477 0.39225647 0.07802153 -0.19059505
000020 aa 0d 4e 3d 05 28 b9 be 08 fb ba 3e 62 ab 50 3f
       0.050306 -0.36163345 0.36519647 0.8151151
000030 4f 6f 69 be 52 ab 90 be 04 c5 0f bf b1 7c d9 be
       -0.22796367 -0.28255707 -0.56159997 -0.42477944
000040 3b 51 03 bf ea 0b 71 3d 19 e5 9b 3e df 85 e8 3e
       -0.5129582 0.058849253 0.30448225 0.45414636
000050 60 c7 35 3f eb 6c 62 bf 55 6c 17 3f 40 9f 2e 3d
       0.7100735 -0.88447446 0.59149677 0.04263234
000060 6f 9e c2 be 52 e7 a2 bd ba 69 94 bd c3 65 55 be
       -0.380115 -0.07954277 -0.07246728 -0.208396
000070 1f 6b 01 bd 97 e6 c0 be 60 d1 96 3e 32 ac 73 bf
       -0.0315963 -0.37675926 0.29456615 -0.95184624
000080 3a 74 3b 3d c4 6d 68 be dc a2 ad be c5 f2 c5 be
       0.04576514 -0.22698122 -0.33913314 -0.3866178
000090 d9 39 30 bf 29 71 4b be 5e ee c2 be af 9e 21 3e
       -0.6883827 -0.19867386 -0.38072485 0.15783189
0000a0 7e 42 bd 3d f3 db f9 be 8d d2 d1 be 02 d0 3c bf
       0.09241198 -0.4880062 -0.4098095 -0.73754895
0000b0 70 fe e5 3e 65 97 aa be 0a 7a ff 3e 7e 55 4a 3f
       0.44920683 -0.3331863 0.49897796 0.790367
0000c0 5c c0 b6 be 3e ae f8 3e d8 74 f2 3e 91 56 a6 3e
       -0.35693634 0.48570436 0.4735477 0.3248792
0000d0 4e b6 6a bd c7 31 7d be 2a b1 be 3e b5 a9 0a bf
       -0.057302766 -0.2472602 0.3724454 -0.541652
0000e0 8e 3e b8 3b 27 54 af be 59 d0 ca 3e ba 32 8f 3e
       0.0056226915 -0.3424389 0.39612082 0.2796839
0000f0 b6 2d 8b be 88 10 cb bd e9 36 9b be b5 59 cc be
       -0.27183312 -0.099152625 -0.3031533 -0.3991219
000100 1d f7 bc be 0f e7 94 3e a2 86 a3 3e 54 40 ce 3c
       -0.36907282 0.29082534 0.31938654 0.025177158
000110 06 9f 02 3e c4 71 00 3f f8 72 7a bd 93 b6 36 bd
       0.12755975 0.5017359 -0.0611448 -0.04460771
000120 b8 cf 59 be 4c aa 42 3f c1 54 e0 3d 1a 90 7a 3e
       -0.21270645 0.760411 0.109536655 0.24469033
000130 cb 2b b9 be c3 db 81 3d 12 d6 35 be 72 74 67 3e
       -0.36166224 0.06340744 -0.17757443 0.22603014
000140 14 b0 81 be ca ba ec be d8 b4 9f be 48 60 ce be
       -0.2532965 -0.4623626 -0.3119266 -0.40307832
000150 2c 40 0c be b3 a9 96 be 0c fe fe bc cd 78 29 3e
       -0.13696355 -0.29426345 -0.031126998 0.16549988
000160 dd 87 d9 bd 4d c0 b3 be 52 e3 e0 be bf 25 cb bb
       -0.10621617 -0.3510765 -0.43923432 -0.006199568
000170 14 0b 90 3e 7f a8 2a be 3b 45 c6 3e a6 66 9a be
       0.28133452 -0.16665839 0.38724694 -0.3015644
000180 fc 79 11 3e 5d 92 8b be 1b 9b 06 bf 1c 17 d9 be
       0.1420669 -0.27260104 -0.5258042 -0.42400444
000190 8b b8 17 bf 37 6f d5 3e 18 63 ab be 80 b8 3c 3e
       -0.59265965 0.41686413 -0.3347404 0.18429756
0001a0 b3 50 9b 3e 69 9a 68 3e f6 5b 09 bf c7 79 82 3f
       0.30335006 0.22715153 -0.53655946 1.0193413
0001b0 41 f9 12 3f bf 0d 18 3e 14 3a f2 3e 4a cb bd 3e
       0.5741158 0.14848994 0.47309935 0.3706916
0001c0 65 69 a7 be 8b ed 18 be b6 67 34 3d 33 2a 3f be
       -0.32697597 -0.14934365 0.04404422 -0.18668441
0001d0 22 c6 a3 bd 60 11 ab bc 55 6e 2b 3e 50 6c 2c be
       -0.07996775 -0.020882308 0.16741307 -0.16838193
0001e0 5a 61 52 bc 5e 93 cb 3e d5 60 eb 3d 5b fb d1 3d
       -0.012840593 0.3976087 0.114930786 0.102530204
0001f0 c2 d0 cb 3c d7 73 27 be cc 03 ba 3e 48 5b b9 3d
       0.024879817 -0.16352783 0.36331022 0.09050614
000200 c4 fb 8e be 5a dd 47 3e f0 60 3d 3d 08 86 9d bd
       -0.27926457 0.19518033 0.046235025 -0.0769158
000210 f4 b1 74 3e 1a 49 39 be 55 84 52 3e 4d c1 7f be
       0.23896009 -0.18094292 0.20558293 -0.24976082
000220 e3 21 11 be 54 3f 6e be 66 0b 47 be 06 61 d7 be
       -0.14173083 -0.23266345 -0.19437942 -0.4206621
000230 cf 03 bb 3c 10 2a 83 be d5 5a 87 bb 1e ff b1 bd
       0.022828965 -0.2561803 -0.004130701 -0.08691238
000240 40 02 f0 be 58 9f 83 3d fb f7 ec 3d ae 1a 47 be
       -0.46876717 0.06426877 0.11570736 -0.19443771
000250 dd c7 e5 be e0 6a 15 3d 65 77 e3 bd ea 47 98 be
       -0.44879046 0.036478877 -0.11106757 -0.29742366
000260 fd dc b9 3e f8 ae a6 3d c3 66 79 be 19 4d ed 3d
       0.36301413 0.081388414 -0.24355607 0.11586971
000270 e4 db 42 3c 22 a9 8f be 70 79 52 3f 58 20 7c bd
       0.011893246 -0.28058726 0.8221655 -0.061554283
000280 fc 13 9c be aa 5b 44 be c5 46 fa be 92 17 85 be
       -0.30483997 -0.19175592 -0.48882118 -0.25994545
000290 16 b8 b8 bd c6 32 42 3e 6f 3a 09 3e d0 ad 95 3e
       -0.090194866 0.18964681 0.13401197 0.2923417
0002a0 3f d2 72 3e 79 cd 95 3e 3d e3 8e be 6b 31 02 bf
       0.23713015 0.29258326 -0.27907744 -0.50856656
0002b0 70 5e 84 3e 34 9d cf 3e 49 f4 ad 3e 75 77 e3 3d
       0.258533 0.40549624 0.33975437 0.11106769
0002c0 5e e2 d3 3e fc 2e 7c be 3a 89 0c bf 28 c9 7f bd
       0.41383642 -0.24627298 -0.5489689 -0.062447697
0002d0 6a f2 e4 be 4c 78 d8 3d d2 ba e8 be 32 3d e9 3e
       -0.44716197 0.1056982 -0.45455033 0.455545
0002e0 8b e4 12 3f f7 b7 b4 be 9c 01 20 bf 30 4e 9f 3c
       0.5737998 -0.35296604 -0.62502456 0.019446462
0002f0 ed a1 f6 3e 31 bd f8 3e 7e 2f 08 bf 03 3c b2 3e
       0.48170415 0.48581842 -0.5319747 0.3481141
000300 35 11 59 3e b3 b4 cc 3e 91 c8 2d 3f 96 8a bc 3d
       0.2119797 0.39981613 0.67884165 0.09206121
000310 ee b0 cd 3e f4 e8 c3 3e 5b 66 79 bd 29 90 32 bf
       0.4017405 0.38263667 -0.06088863 -0.6975122
000320 66 a8 0a bf 59 fb f5 bd 6d c1 d4 3e 72 28 f0 3e
       -0.54163206 -0.120108314 0.41553822 0.46905857
000330 db b3 0c bf 7e c1 6a be 4e 0f a2 3d a4 fd 7a 3e
       -0.5496194 -0.22925374 0.079130754 0.24510819
000340 8a 62 74 3e ae be 4b be e0 67 29 3e c5 90 b1 bd
       0.23865715 -0.19896957 0.16543531 -0.08670191
000350 31 32 a1 be 15 f6 f9 bd 2b 2a 0f be 31 a6 26 be
       -0.31483606 -0.122051395 -0.1398093 -0.16274334
000360 d8 ce d3 bd 20 d3 91 3d 0d 44 5e 3e 97 c5 ae 3c
       -0.10342187 0.07120347 0.21705647 0.021334453
000370 18 66 57 be bc c0 80 3d 51 db c7 3d 7c 23 c9 bd
       -0.2103504 0.06286761 0.09758628 -0.09821221
000380 af 79 3c be f8 16 a6 3d 2e 71 00 bc 53 94 c0 3d
       -0.18405794 0.0810985 -0.007839484 0.094032906
000390 de eb 9f 3e 61 55 4f be 1b ec 8f 3e d3 a2 90 be
       0.3123464 -0.20247413 0.28109822 -0.28249225
0003a0 dc aa 41 bf d5 c4 a7 3d a3 0f a2 3e f1 70 17 be
       -0.75651336 0.081918396 0.31652555 -0.14789177
0003b0 e9 45 f0 bc 86 65 56 be a7 94 b3 3e 80 4a 8b 3b
       -0.02933021 -0.20937166 0.3507435 0.0042508245
0003c0 96 0f 88 be 11 94 8e 3e 47 00 b8 bd 48 a1 a8 3e
       -0.2657439 0.2784734 -0.08984428 0.32935548
0003d0 47 8c 36 3c 75 54 35 3d 76 86 4a bd 6d 81 d8 3d
       0.011141843 0.044269998 -0.04944464 0.10571561
0003e0 2e 96 59 bd a9 50 73 3e a6 ab 75 3e 53 2f 48 3d
       -0.053121738 0.23761238 0.2399126 0.048873257
0003f0 f1 1b 8a be b9 62 d9 bc 0f e2 e0 3e 00 9a 10 3d
       -0.26974443 -0.026536332 0.4392247 0.035303116

onnx::MatMul_147 f4 [16, 16]
000000 91 1c 56 3e 22 10 b3 bd 2a 5e cc 3d 38 08 b5 3d
       0.20909335 -0.087433115 0.09978898 0.08839458
000010 82 51 17 3d a9 d9 c2 bc 77 7d 8a be 57 bd 99 3d
       0.036942966 -0.02378543 -0.27048847 0.07506817
000020 6f e6 68 3e 4d bb ab be 99 68 47 be d1 63 c8 bc
       0.22744153 -0.33541337 -0.19473495 -0.024461659
000030 da 04 f1 3d 4d 57 19 3c e5 c4 4d 3e 28 17 bc 3d
       0.117685035 0.009359193 0.2009464 0.09184104
000040 53 84 16 be 5a 6b 42 3e 58 43 a4 3d 98 bf 69 bc
       -0.14698915 0.18986264 0.08020657 -0.014266871
000050 f6 88 02 3e de 37 17 be cf ca 6c 3e ab 83 90 3e
       0.12747559 -0.14767405 0.2312424 0.28225455
000060 1d 1d cf 3d 27 18 e9 bd 0e df 89 3e 44 b0 92 bd
       0.10112975 -0.1138156 0.2692799 -0.07162526
000070 37 c8 91 be 41 fd 94 bd 7a ed a1 be c6 79 27 bd
       -0.28473064 -0.07274867 -0.31626493 -0.040887617
000080 8d 9f 61 3e 52 4e aa 3e a6 08 a9 3d cb 99 6d 3e
       0.2203352 0.3326288 0.08253603 0.23203199
000090 19 58 81 3e a4 31 71 3e dc 2c 1d 3e 0d c7 97 3e
       0.25262526 0.23554093 0.15349144 0.2964405
0000a0 f0 0a e3 3e fc 75 e9 3d 50 24 51 bb 4b bc a8 3d
       0.44344282 0.11399457 -0.0031912513 0.08239039
0000b0 90 4f c6 3d f1 ce 89 bc d1 29 32 3b 79 16 74 3d
       0.09683144 -0.01682231 0.002718557 0.059591744
0000c0 24 b0 0f 3e 8b 85 72 be 28 10 31 be ae 7c db be
       0.14032036 -0.23683755 -0.1729132 -0.4286856
0000d0 4e 69 13 3e 47 0a 96 3d e0 10 56 be ae 7c bd 3e
       0.1439564 0.07326179 -0.20904875 0.37009186
0000e0 65 e6 24 be 6d c1 b9 bd 32 f3 9c 3e d3 f9 74 be
       -0.16103514 -0.09070096 0.30654293 -0.23923425
0000f0 95 ed 23 3d 3e 8d f0 3e da 15 cc 3e a2 c0 04 3e
       0.040021498 0.4698276 0.3986042 0.12964109
000100 87 22 21 3d 66 8d cc 3d e1 31 c1 3d ea d6 ba 3e
       0.03933957 0.09987907 0.09433342 0.3649209
000110 c2 2b 88 bd 1a 3a 34 bd 4c a1 83 3e 48 c5 01 3e
       -0.06648971 -0.044000722 0.25708997 0.12672913
000120 eb 3f ff bd a1 dd dd 3d 5a 77 95 be aa 72 e3 3d
       -0.12463363 0.10833288 -0.2919262 0.11105855
000130 4d c0 6d 3e 5f 95 de be c0 4a a3 bc 71 7e 19 3e
       0.23217888 -0.43473336 -0.019933105 0.1498964
000140 10 72 b1 be ed fa 93 bd 77 1b d4 3d 9f c3 64 be
       -0.34657335 -0.07225595 0.10356801 -0.22340249
000150 7f 12 99 be 90 60 c7 bd 9e 95 d9 bd 99 05 c0 be
       -0.29896924 -0.09735215 -0.1062424 -0.3750427
000160 65 cd bd be 27 b2 b4 bd d9 46 b2 be 49 e4 8c be
       -0.37070766 -0.08823042 -0.34819677 -0.27517918
000170 a7 79 1a 3e 7a 2f 3e 3d 92 cd fc 3e 6f 7e 69 be
       0.15085469 0.046431996 0.49375588 -0.22802137
000180 31 41 3b bd 95 6a c7 3d 40 67 7a 3c 25 b2 a1 bc
       -0.04571647 0.09737126 0.015283406 -0.019738266
000190 03 97 d0 be db e8 31 3e cb e1 66 bd 10 6f 50 bd
       -0.40740213 0.17373984 -0.056367677 -0.050887167
0001a0 bd 2a 61 be db 6e b1 bd 7a fe 2d bc 36 aa 59 be
       -0.2198896 -0.08663722 -0.010619754 -0.21256337
0001b0 41 62 87 3e 6f 6f ff 3b ed bc 17 be 2b 4a d4 3d
       0.2644215 0.0077952663 -0.14818163 0.10365709
0001c0 f8 d0 24 be 33 e1 ce 3e 52 94 51 3d b6 5d 7d 3e
       -0.1609534 0.40406188 0.05116684 0.24742779
0001d0 f7 f4 c5 3e 35 2f a2 3e e7 da 18 3e 94 62 81 be
       0.38663456 0.3167664 0.14927255 -0.25270522
0001e0 42 72 b9 3e e9 f9 93 3e 99 56 bc 3d aa fb 76 3e
       0.36219984 0.28901604 0.09196205 0.2411944
0001f0 15 58 85 bd fb 5c b7 bd 98 66 8d bd 01 13 7e 3e
       -0.06510941 -0.089532815 -0.06904334 0.24811937
000200 09 0e 97 3e 28 c0 8d bd 1c 47 4b 3e e6 08 07 bd
       0.29502895 -0.069214165 0.19851345 -0.03296747
000210 d0 a8 58 bd 5f d4 0b be dc 0b 5c 3e c5 77 9a 3d
       -0.052895367 -0.13655232 0.21488899 0.075423755
000220 92 83 e3 3e 7f b7 79 be 96 8b df 3e 9a 07 f5 bd
       0.44436318 -0.24386404 0.43661183 -0.119643405
000230 f6 ee c4 bb cf 55 30 3f ff 59 15 3e 7a d2 45 3e
       -0.0060099317 0.68880934 0.14585112 0.19318572
000240 e3 f7 9f bd 83 aa 91 be c1 b5 4c 3e 88 32 c8 be
       -0.078109525 -0.28450403 0.19991209 -0.39101052
000250 8e b1 60 bd fe 51 cf 3e 5b cc 98 3e df d8 5d be
       -0.05485683 0.40492243 0.2984341 -0.21664761
000260 e2 06 56 3d 08 a7 ed 3e 89 b1 cb 3d 3a ca 47 be
       0.052252658 0.46416497 0.099459715 -0.19510737
000270 cf 19 a2 bd 9b 13 88 3e 8e 24 58 3e cc bf 58 3e
       -0.07915079 0.26577458 0.21107695 0.21166915
000280 de cd 0a 3e 26 02 84 3e 92 75 96 bd 95 1a ab 3e
       0.13555095 0.2578289 -0.073466435 0.33418718
000290 8e 4a f6 3d 6d 29 01 bc c0 94 24 be 16 a3 0d bf
       0.12025939 -0.007883412 -0.16072369 -0.55326974
0002a0 fc 42 2a 3f b7 56 12 bd 42 9f 0d 3e 0d cd 96 3e
       0.6650846 -0.03572723 0.13830283 0.29453316
0002b0 4c 9d 58 3e 23 2a 06 3e 8a 0c 8f 3e 04 74 0b 3e
       0.21153754 0.13102011 0.27939254 0.13618475
0002c0 da a9 5f be ba f7 f6 3e 24 98 ce 3d f0 99 32 3f
       -0.21842137 0.48235875 0.10087612 0.6976614
0002d0 4d 06 99 be 07 4b 1e bc 90 5b 9f 3d 85 66 d3 3d
       -0.2988762 -0.009661443 0.07781136 0.103222884
0002e0 af b5 ab 3d 45 73 c1 be 22 e2 8b 3d 5a f2 85 3e
       0.08384263 -0.37783256 0.06830241 0.26161462
0002f0 60 77 e7 3c b4 1b a5 3d 71 c5 94 be 7d b7 36 bb
       0.028255165 0.080619246 -0.29056886 -0.0027880364
000300 3c 5a 2f be 31 ca a6 3d e6 79 fa bc 40 68 8b be
       -0.17124265 0.08144034 -0.030575704 -0.27227974
000310 1f 89 82 bd 2b a4 6e 3e 4d 50 1b 3e bf 67 26 3e
       -0.0637381 0.23304813 0.15167351 0.16250513
000320 19 c9 1c 3e f7 4e 84 bd 6b e5 86 3a 77 26 9f bd
       0.15311088 -0.06460374 0.001029176 -0.077710085
000330 41 50 64 3e 05 cc 47 be f4 e9 2e 3e 0b a1 7b 3e
       0.2229624 -0.19511421 0.17081434 0.24573152
000340 5c 45 90 3d 48 0e 76 be a9 12 1b be 1a 38 76 be
       0.07044479 -0.24028885 -0.15143837 -0.24044839
000350 ed 7f 09 be eb 43 33 3e a8 3a 87 3d 26 76 90 3e
       -0.13427706 0.17506377 0.06602985 0.2821514
000360 1c c8 eb be 12 04 50 3d cd 42 9a be d7 ed bf be
       -0.4605111 0.05078513 -0.3012909 -0.37486145
000370 be 9b fe 3b 9b b6 8a 3e 0c 25 ad 3e 28 d7 b4 3b
       0.0077700308 0.27092442 0.33817327 0.0055188127
000380 74 81 fc 3d 48 58 13 bf 36 99 e5 be 1c 36 20 bd
       0.12329379 -0.5755658 -0.44843453 -0.039114103
000390 b3 b5 04 3e e6 bf 09 be b3 33 bb 3e 9c 2d 04 3f
       0.12959938 -0.1345211 0.3656288 0.51632094
0003a0 5c bb 7e be 5d bd dd 3d 1a 47 6f 3e 4a c9 49 3e
       -0.2487616 0.10827134 0.23366967 0.19705692
0003b0 ee fd c6 be 7f 6b 3b 3e 40 4e 24 bd fe 63 24 3e
       -0.38865608 0.18302725 -0.040113688 0.16053769
0003c0 87 e7 93 be 3d 46 89 3e f4 08 db bc 19 f0 de 3d
       -0.2888758 0.268114 -0.026737668 0.10885639
0003d0 47 c2 2e 3f 4b 35 9d 3c bf df 66 3e ef 56 5c be
       0.68265194 0.019190451 0.2254629 -0.21517538
0003e0 1a b6 7e be 92 a1 84 3e 60 70 8c be dd ac 4e be
       -0.24874154 0.25904518 -0.27429485 -0.2018313
0003f0 b8 b6 31 3e 4f 88 21 bf 50 bf ee bc 00 06 5f 3e
       0.17354858 -0.63098615 -0.02914396 0.21779633

onnx::MatMul_163 f4 [16, 16]
000000 a1 a0 11 be cd 50 64 3e 88 79 24 be ba 15 8e be
       -0.14221431 0.22296448 -0.16061985 -0.2775095
000010 a9 61 2d 3e d4 ac 96 3e 86 8f e0 be 95 f1 83 be
       0.16931786 0.29428732 -0.438595 -0.2577025
000020 5a 33 6c 3d b1 c3 bf 3d 21 62 21 3e 2e 9d 86 3e
       0.05766616 0.09363497 0.1576009 0.26291794
000030 8e f7 82 bd 1f f4 50 bd cc 58 13 bd 7e b7 07 be
       -0.063948736 -0.051014062 -0.035973355 -0.1325359
000040 7d ac 00 3e a7 f7 cb 39 c4 45 e1 bd 27 73 01 be
       0.12565799 0.00038903693 -0.10999635 -0.12641583
000050 a0 16 3c 3e 13 bf 58 bc 1b d2 3f 3e d2 8e 82 3e
       0.18368006 -0.013229149 0.18732493 0.25499588
000060 13 c8 99 3e a1 89 dc 3e 4b 4a 85 be bd 29 ec 3d
       0.30035457 0.43073753 -0.26033244 0.115313984
000070 53 00 0e bf 72 4a ad 3e ea be 9d 3e d3 d2 8b 3d
       -0.55469245 0.3384586 0.30809718 0.06827321
000080 fa a3 53 3e dd b5 14 bd e1 5e c9 bc 4d ce 54 be
       0.20668021 -0.03630625 -0.024581375 -0.20781823
000090 1d 52 07 3e a5 70 19 3d 4a 6e 0f 3c fc 30 95 3e
       0.13214917 0.03746094 0.008754322 0.29138935
0000a0 7b c4 55 3f af 53 b7 3e 61 52 95 be 04 58 67 be
       0.8350293 0.35806033 -0.29164413 -0.22592169
0000b0 2e 85 90 bf 1e 4b 66 3f 5c 26 68 3f 28 f1 44 3e
       -1.1290643 0.8995837 0.9068353 0.19232619
0000c0 7a 7c bc 3e 51 ca de 3e 2d 91 2e 3e 62 a9 23 be
       0.36813718 0.4351373 0.17047568 -0.15982583
0000d0 a9 46 0e bf 73 fa 79 be 91 ba 25 3e d4 c4 aa 3e
       -0.5557657 -0.24411945 0.1618445 0.33353293
0000e0 a4 12 79 3e f8 75 33 3d df 1e f4 be 06 6c 46 be
       0.24323517 0.043813676 -0.47679803 -0.19377145
0000f0 6a 74 0b bf ca 06 88 3e af 25 b3 3e 70 5a 4e 3e
       -0.5447451 0.2656768 0.34989688 0.20151687
000100 14 ef 81 3e dc 06 57 3b f6 d7 38 be b5 1b 45 3e
       0.25377715 0.0032810485 -0.18051133 0.1924885
000110 35 00 e3 be 54 b9 85 bf d1 d0 ba 3e e9 ae 4d bc
       -0.44336095 -1.0447183 0.3648744 -0.012553909
000120 23 6f e4 3e 83 c4 dc 3e e9 12 c1 3d e8 0d a2 3e
       0.4461604 0.43118677 0.09427435 0.31651235
000130 5f 28 be bd b1 66 ae 3e 3b ee b1 bd 90 33 5f be
       -0.09285044 0.34062722 -0.08688017 -0.21797013
000140 bc f6 d8 3e 6b 23 27 be 62 01 00 3e 92 22 0e bc
       0.42375743 -0.16322105 0.12500528 -0.008675234
000150 cb 6f d1 3d 82 ad b7 3f 35 5a 87 3d 51 4d 33 3d
       0.10226401 1.4349825 0.066090025 0.043774907
000160 0a 5f ae 3e 24 b4 a6 3e 33 ef e0 3e 4a cb 93 be
       0.34056884 0.3255931 0.43932495 -0.28866035
000170 21 7d 93 3e 23 52 4d be f5 02 01 be e9 82 80 bd
       0.28806403 -0.20050864 -0.12598784 -0.06274969
000180 bc dc 89 bd 7d 9c dd be 19 6e 5a 3d 93 52 0f bd
       -0.06731555 -0.43283454 0.053327654 -0.03499086
000190 2b cb 81 be 18 4c 87 bf 49 3c 1b 3c 4c fe 9d 3d
       -0.25350317 -1.0570097 0.009474822 0.07714519
0001a0 e0 d2 10 3f 9a b5 03 be cb 32 a3 3e cc 29 9f 3b
       0.5657177 -0.12862244 0.3187469 0.0048572775
0001b0 84 1c 20 bf 03 d5 16 3f 69 86 93 3e f8 96 75 be
       -0.6254351 0.5891878 0.28813484 -0.23983371
0001c0 35 3c b1 bd 7b cd a0 3e b3 c4 44 be 50 04 46 3c
       -0.08654062 0.3140677 -0.1921566 0.012085989
0001d0 62 86 a4 be 92 60 36 be 41 2b 81 be be 5e 0b be
       -0.32133776 -0.17810276 -0.25228313 -0.1361036
0001e0 35 b9 19 bf ab c8 71 bc 20 9a ad 3e 1e 9a 2f 3d
       -0.6004823 -0.014757316 0.3390665 0.042871587
0001f0 1f bc a8 3f 10 3a 18 bf 7e 74 45 bf 57 34 da bd
       1.318241 -0.59463596 -0.7713088 -0.10654514
000200 c5 76 97 bc e3 13 c3 bd 1f 7d 33 bd 8a ca f0 bd
       -0.01848925 -0.095252775 -0.043820497 -0.11757381
000210 9b 5d 6d bd e4 2d 99 3e 42 3a 6f be cb 26 21 3e
       -0.057950597 0.29917824 -0.23362067 0.15737455
000220 35 6e 61 be f2 45 c2 be c3 67 8e 3c fc 24 ae be
       -0.22014697 -0.3794399 0.017383462 -0.34012592
000230 9d d9 31 3f a3 b5 56 bf e7 99 b8 be 09 94 7b 3d
       0.69472677 -0.83870906 -0.36054918 0.061420474
000240 f6 c2 8a 3e de 14 a1 be 85 3f 62 3f 67 35 34 3e
       0.27101868 -0.31461233 0.88378173 0.17598496
000250 d1 7d dd 3e 79 6b 74 3e 60 f8 bf 3d af 23 8f bc
       0.43260053 0.23869123 0.09373546 -0.01747307
000260 a0 68 e9 3e e5 59 cb 3e ab 08 15 3f ad fc 91 be
       0.45587635 0.39717022 0.5821635 -0.2851309
000270 17 6d 1f 3f 78 cc 80 3d 92 c9 3c bd e0 ea f5 be
       0.6227583 0.06288999 -0.04609067 -0.48030758
000280 28 81 bb 3e 1f 31 09 be e2 42 17 bc e0 e3 5e bd
       0.36621976 -0.13397644 -0.009232255 -0.054416537
000290 10 ce 55 3e 49 1f f0 3d 78 aa 59 3d c9 68 ca 3d
       0.20879388 0.11724717 0.053141087 0.098832674
0002a0 ab 55 6a 3f 29 62 83 3e 72 4d 8c 3d 1d ab 6c be
       0.9153697 0.25660828 0.06850709 -0.2311215
0002b0 e4 50 5d bf 83 01 42 3f e4 ff 06 3f 1f 53 24 be
       -0.86451554 0.75783557 0.5273421 -0.16047333
0002c0 b4 a8 5b bd 63 24 00 3f 99 38 26 be 59 49 58 bd
       -0.053627685 0.5005552 -0.16232528 -0.052804325
0002d0 73 0d 6a be 88 c1 88 3f 4e 0d 09 3f d0 80 05 3e
       -0.22856693 1.0684061 0.53535926 0.1303742
0002e0 13 89 9f 3f a7 d7 a8 bb c4 a7 6c be 77 c4 78 bf
       1.2463707 -0.005152661 -0.23110873 -0.9717478
0002f0 fc e7 d6 be 4f 3e 08 3f 70 97 85 3e 78 0b 32 3c
       -0.41973865 0.53220075 0.260921 0.010866992
000300 f2 82 8b be 05 54 b9 3d a8 7d 09 be c0 ea 82 3d
       -0.2724834 0.090492286 -0.1342684 0.06392431
000310 33 8e 17 3e 47 92 45 be 42 6d ef 3c e0 0c a7 3d
       0.14800338 -0.19294082 0.029226903 0.081567526
000320 bc 1b 47 bf 8e 40 a4 be 61 eb aa 3e fe 84 8f 3e
       -0.77776694 -0.320805 0.33382705 0.28031152
000330 e5 5b 4c 3f 4e da 53 bf 8b ce eb be 40 37 16 3e
       0.7982772 -0.8275498 -0.46056017 0.14669514
000340 bb e8 7d 3e 5a 4c 2e 3e 21 10 84 3e a9 fe 08 3e
       0.24795811 0.17021313 0.25793555 0.13378395
000350 da 05 63 be fe 3f 85 3e dc dc a8 be c4 fd c2 3d
       -0.22170201 0.26025385 -0.32981002 0.09521058
000360 96 17 8e be c6 47 82 3d 80 63 33 3e d2 81 39 be
       -0.2775237 0.06361346 0.17518425 -0.18115929
000370 48 5d 39 3f 29 e1 f5 be d7 6a e5 be 30 4c cc bd
       0.7240796 -0.48023346 -0.44808075 -0.09975469
000380 a6 5e 8f be 03 e4 8c be 9f 44 07 3e 06 cc 7b 3e
       -0.280019 -0.2751771 0.1320977 0.24589548
000390 d6 13 99 3e ba 00 a0 bd f4 24 d5 3e f8 35 30 be
       0.29897946 -0.078126386 0.41629755 -0.17208087
0003a0 61 2b b6 be a3 48 2e 3e 83 08 f9 bd ee dc d9 3b
       -0.3557997 0.17019896 -0.121598266 0.0066486513
0003b0 4e 85 0d 3e c4 8b b4 bd 0b ac ed bd 47 85 12 3e
       0.13820383 -0.08815721 -0.1160508 0.14308654
0003c0 9d af 96 3e fb d4 01 bc 3c ae 8f 3d 52 04 a9 3e
       0.29430857 -0.007924314 0.070156544 0.3301111
0003d0 f3 dd 57 3f 26 25 1c 3f 1d de 92 be ed a8 8e be
       0.8432304 0.60994184 -0.28685084 -0.27863255
0003e0 08 31 e4 be e9 84 f1 3e 37 3d a3 bc 2e 4c 91 3e
       -0.44568658 0.47171715 -0.01992665 0.28378433
0003f0 c3 5b de 3e 3d c0 3c bf 90 6a a4 3d fa 25 a6 3e
       0.43429384 -0.7373083 0.08028138 0.3245085

onnx::MatMul_164 f4 [16, 16]
000000 33 9e 9b bc 9b c3 a1 be 7b 11 21 bc ed dd e1 3e
       -0.018996334 -0.31594548 -0.009830828 0.44114628
000010 3e d6 7e bf 76 d2 32 3d 81 86 f6 3d 4f 5e 87 3e
       -0.9954566 0.043657742 0.12037373 0.2643914
000020 d6 fb f3 bd 21 dd 7a 3e 66 43 2c bd 07 54 52 3d
       -0.11913268 0.24498416 -0.042056464 0.051349666
000030 99 71 23 be 2b 1c b4 3e 21 ed 67 be ff 82 0b bf
       -0.15961303 0.3517774 -0.22649051 -0.5449676
000040 35 74 b2 be 71 9d 82 3e d0 a3 3a bf 80 c7 00 bf
       -0.34854284 0.25510743 -0.7290621 -0.5030441
000050 cc 6f 1c 3f 87 8d 92 bf aa c6 f3 bd a4 d6 7a 3e
       0.6110809 -1.1449441 -0.119031265 0.24495941
000060 be a5 1c 3e b5 cd a5 be 8d bb 32 bf 4c b4 38 be
       0.152976 -0.32383505 -0.6981743 -0.18037528
000070 f2 0a da 3e 4c 79 5b 3d ca b7 3f 3e 72 04 9a be
       0.42586476 0.053582475 0.18722454 -0.30081517
000080 55 63 c1 be 63 10 e4 3e f9 74 a3 3e 16 7b 77 3e
       -0.37771097 0.44543752 0.3192518 0.24168047
000090 fe ca a8 be a1 83 2f 3f 80 36 9d be e1 47 e1 3c
       -0.3296737 0.68560225 -0.30705643 0.027500095
0000a0 52 0c e1 bb 17 5d d2 bc d9 ea 1b bf 2a 6b de be
       -0.006867924 -0.025679154 -0.60905224 -0.43441135
0000b0 ed 68 d7 be fb e3 dd be ba b1 c4 be 7c 74 47 3d
       -0.4207224 -0.43337998 -0.38416845 0.048695073
0000c0 91 84 f2 bc 75 9a 56 3f ac 62 41 3f 9e 11 ee 3e
       -0.029604228 0.8382943 0.75541186 0.46497816
0000d0 6d cd a9 3e af cc da 3e 20 0f b9 bd 95 a9 10 3f
       0.3316454 0.42734286 -0.09036088 0.5650876
0000e0 5c c6 7e 3e c4 44 b2 3e 52 3f b9 be e8 e0 27 be
       0.24880356 0.3481809 -0.36181122 -0.16394389
0000f0 57 51 1c 3f d2 76 f9 bd dc b3 24 bd 94 00 59 bf
       0.61061615 -0.12180866 -0.04021059 -0.8476651
000100 36 a4 4e 3e 11 66 c4 bc 70 7a 38 3d 03 75 99 3e
       0.20179829 -0.02397445 0.04503864 0.29972085
000110 7f ed b6 3e 1c 65 68 3f 94 5f 81 3e de 4c 38 3d
       0.3572807 0.9077928 0.25268233 0.04499518
000120 cc b0 65 be 2b af b5 3e 84 47 39 bf 52 86 10 bf
       -0.22430724 0.35485205 -0.7237475 -0.56454957
000130 00 5f 80 3e a7 42 01 3f 07 b0 77 bb 66 64 c5 3e
       0.2507248 0.5049233 -0.003779413 0.3855316
000140 9d cc de 3c be 7e 8a be 40 f5 6f be c9 4f c9 3e
       0.027197177 -0.27049822 -0.23433399 0.39318684
000150 95 cc c0 bd c1 3e b9 be f0 2d 97 3e 8a 60 b7 3e
       -0.09414021 -0.3618069 0.29527235 0.3581584
000160 7e ce 72 be 34 6e a8 be a3 b1 16 be 2e 48 07 be
       -0.23711583 -0.32896578 -0.147162 -0.13211128
000170 5e e5 23 3f 3f 04 f5 3b b1 e7 ee 3e 29 e1 3b 3f
       0.6402186 0.007477313 0.46661142 0.7339044
000180 46 3c 4e 3f c6 13 1a be 08 3a 77 3f 4d 09 ad be
       0.8056072 -0.15046605 0.96572924 -0.33796158
000190 fb 90 d9 be 6e 17 30 3f cf 72 28 3f 66 d6 41 3f
       -0.42493424 0.6878575 0.65800184 0.7571777
0001a0 db aa f1 be 61 14 53 3d 81 39 db 3e af fb 25 3e
       -0.47200665 0.051533107 0.4281731 0.16209291
0001b0 ba 8c 73 3e 05 37 91 bc c7 62 49 bf 14 89 86 bd
       0.23784152 -0.01772643 -0.7866635 -0.06569114
0001c0 01 00 6e 3d 6f cb 31 be 1f 47 1d 3d 29 22 6f 3e
       0.058105472 -0.1736276 0.038397904 0.23352875
0001d0 f1 aa a6 be 28 70 2b 3e 13 9f a0 3e d5 60 83 bd
       -0.32552293 0.16742003 0.31371364 -0.064149536
0001e0 1f 6f 8c 3d c5 9e 2a 3e 38 bd a3 3e 44 ca 3e 3d
       0.06857132 0.16662128 0.319803 0.046579614
0001f0 6e a7 7d bf 5d 67 81 3c 1f 7d 43 3e 57 4d 96 3e
       -0.990836 0.015796358 0.19090699 0.2935588
000200 47 49 0f bd f8 5c 4e be 44 05 00 3d d6 34 ca be
       -0.034981992 -0.20152652 0.03125502 -0.39493436
000210 ca b6 05 bf 77 ac 70 3e a5 c0 48 3e 05 16 b5 3e
       -0.5223204 0.2350329 0.19604738 0.35368362
000220 79 b5 dc bd e8 fb bd 3d c3 67 48 3d 20 4f 2b 3e
       -0.10776801 0.09276563 0.04892708 0.16729403
000230 a1 3e 0e be 4f 23 29 3e f1 64 b5 be 61 ca 93 3d
       -0.13891079 0.16517375 -0.35428575 0.07216335
000240 98 26 a9 3e 9c d5 af be 31 a3 06 bd ca 63 81 3e
       0.33037257 -0.3434266 -0.032870475 0.25271446
000250 4a a8 dd bd 4a d5 c2 3e d2 d6 87 3e b1 98 98 3e
       -0.10823114 0.38053352 0.26531082 0.29803994
000260 b8 41 88 3e df 4e 67 3e da d1 95 be c9 9c 46 be
       0.2661264 0.2258868 -0.29261667 -0.19395746
000270 4d e2 7b 3d c9 93 12 3f 16 90 82 bf fc fa 70 3e
       0.061495114 0.5725675 -1.0200222 0.23533243
000280 d1 ad b1 be ca a9 0f be 5f 36 f9 be 38 a2 60 3e
       -0.34702924 -0.14029613 -0.48674294 0.21936882
000290 bf 41 d5 3d 13 58 12 bf 60 79 1e bf d6 dd 94 be
       0.10412931 -0.5716564 -0.61903954 -0.29075497
0002a0 2b 1a d3 be c9 b2 07 3d 31 b9 c3 be 84 b2 cb be
       -0.41230902 0.033129487 -0.38227227 -0.39784634
0002b0 68 e2 d0 3e 07 4b 10 bf 97 2d 7a 3d 96 77 d8 bd
       0.40797734 -0.5636448 0.061078634 -0.10569684
0002c0 2b 06 45 bf 1a dc 3e 3f 7b da 81 3e dd 7a 95 be
       -0.76962537 0.745546 0.25362 -0.291953
0002d0 94 9e c3 3c df 95 3c be 7d b3 5c 3e a5 be 6d bf
       0.023879327 -0.18416546 0.21552844 -0.92869025
0002e0 56 ce 3f 3f 4e d0 1f 3f ed d8 b0 3d bd 6a a6 3e
       0.7492422 0.6242722 0.08635125 0.3250331
0002f0 62 81 01 3f 1e a4 0c 3f 9d 03 31 3f a2 ad b5 be
       0.5058805 0.5493792 0.6914614 -0.35484034
000300 b8 0f 9e 3c 27 3f 48 3d f2 a1 55 be 23 97 7e 3e
       0.019294605 0.04888835 -0.20862558 0.24862342
000310 31 b4 a6 3d c0 88 02 bf 33 67 52 be 13 50 79 be
       0.081398375 -0.50989914 -0.2054718 -0.24346952
000320 17 a0 9c bd 00 3d 8b be 87 bb 7a be 24 15 58 be
       -0.07647722 -0.27194977 -0.24485599 -0.21101815
000330 7d ae 9a 3d 7b 19 62 be c5 86 b3 bc ae 68 da bd
       0.07552812 -0.22080033 -0.021914849 -0.10664497
000340 59 8b 5d 3e ec 39 b0 bb dc 16 23 3e 24 72 f5 be
       0.21635188 -0.0053779986 0.15926689 -0.47938645
000350 ba bb 61 be 91 ea c1 3e 54 96 8e 3e c4 a3 a5 3e
       -0.22044268 0.37874272 0.27849066 0.32351506
000360 3f e4 ca bd 96 3c b1 3d 91 f1 29 3e f8 96 0c 3e
       -0.09906816 0.08654134 0.16596057 0.13729465
000370 38 00 b9 bd f9 66 11 bd fb 07 ac be 5a 5c dd bd
       -0.09033245 -0.035498593 -0.3359984 -0.1080863
000380 3e e2 2d 3e 84 07 1d bc e5 d3 af 3e c5 df 09 be
       0.16980836 -0.009584311 0.3434135 -0.13464268
000390 13 0f 13 be a2 26 98 3e ae 7b 99 3e 83 75 e8 3e
       -0.14361219 0.29716974 0.29977173 0.45402154
0003a0 bc 5c 34 3e 50 d9 43 3e 27 71 3c 3e e6 1c a2 3e
       0.176135 0.19125867 0.18402539 0.31662673
0003b0 a7 e7 eb bd c6 de 9f 3e 0d 4c 9f be 65 b6 25 3d
       -0.115187936 0.3122465 -0.3111271 0.040457148
0003c0 b7 59 f3 3e f3 c2 f2 3d be 0f d1 3d 22 e5 5c 3e
       0.47529384 0.1185359 0.10208081 0.21571782
0003d0 26 b8 5e 3e 45 29 3c be 3d 52 e5 3e 6b b8 41 bf
       0.21749935 -0.18375118 0.44789305 -0.75672024
0003e0 2f d6 41 3d 39 2f 98 3d 03 99 19 be cf 62 0c 3f
       0.047323402 0.07430882 -0.14999776 0.5483827
0003f0 0c 7c b6 3b 3c 0d e1 3e 45 c3 b6 3d 81 c0 6b 3e
       0.0055689868 0.4395541 0.089239635 0.23022653
