AI/visualize/traced_resnet_model.pth (torch, 159771 bytes, 18 tensors)

positional_encoding f4 [64, 64]
00000000: 88dc af3f b660 b43d 9f52 be3d 2d58 533f
00000010: 067b a8be e7e9 1a3e 08f7 40be 91b8 41bf
00000020: de7f 4a3f e826 0b3f 51a0 9abf ddef 613e
00000030: 3094 63be 74a5 99be a154 af3e cfa9 923f
00000040: 1ea9 e8bf b158 293e 2175 983d 734d 2cbf
00000050: 32be 58bf 2a79 31bf e32f c5be 54d3 a8bf
00000060: 454a d23e 0332 4fbe cc8b 06c0 4e28 9ebf
00000070: d86e 553f cdaa 2e3e c227 bcbf 64d1 2dbe
00000080: 7fa4 973f 6673 a83e 4d8c ac3f ba54 4b3e
00000090: d2f0 e0bf c7dc 753d e616 2ebf e865 57bf
000000a0: a6f8 253e 62ba a8bf 5e3f 64bd 55b0 383f
000000b0: 6902 c93d 3da7 803f 9936 293f 23c1 dc3e
000000c0: fea6 fa3f ef30 583f 512f 13bf a3b0 4ebf
000000d0: cc25 ac3e ec61 b93f c3ed 423f 2164 dcbf
000000e0: cb53 1dbf 8313 9dbf 261f ac3f 7c51 153f
000000f0: 9bcf 123e 013a 2ebf 37a9 a23f 558f 0cbf
00000100: 877a 3cbe 5d32 933f db42 923e 00d9 9dbf
00000110: 8096 ba3b 5b81 b83c e84e a2bf de5a f6be
00000120: bea7 843f 89eb 583f 54db 66bf 3f5d 59bf
00000130: 808b 633f 1e01 ff3f e99f ca3f 4b14 48bf
00000140: 5580 ec3c 6479 78bf 1082 6ebf 744a d5bf
00000150: 65dd 38bf 6294 3d3e c89a 6f3f d428 c43f
00000160: eea9 ae3e 1299 bdbe b567 b9be f16a 743e
00000170: b5da bd3f 1813 b6be a159 053f 4638 e7be
00000180: 2999 bbbf aaab a33e d424 02bf b7e6 583f
00000190: a2f9 90bf 1b91 8ebf d30f 243f 84f4 263c
000001a0: ff6e f43d f5dc 883e 37ef 93be b053 00bf
000001b0: 5ac9 22be d08a b5bf f6cc 96bf 7048 4dbf
000001c0: 25e4 d7be e499 e33e 2d76 53bf d23b 27bd
000001d0: 2eed 7a3f 4093 c5bf 20b3 82bf 2055 7b3f
000001e0: 3268 34bf c925 dcbe e8d3 26bf 4c9a 8ebf
000001f0: f49d 0c3e 6742 71bf a0c7 963f a603 b6bf
00000200: 80d4 87bf 2ad0 c43e 7152 1bbf 70f9 d5be
00000210: 3a40 1d3f 4f59 353f cc2b a3bf ff56 e13e
00000220: ee6c 303f a995 9abf 6acb 08bf 12c1 8ebf
00000230: 513d 31bf d995 833e ef00 bfbf bda5 93bf
00000240: d24a 0140 2f0e edbe 31e9 ca3e b163 6c3f
00000250: 006d a4bf bc2b ffbe 73b5 4bbf e121 9a3f
00000260: 9439 3e3f b48f 1d3f 4e67 f43e 1535 92bf
00000270: 0906 6e3f 87e7 073f cd0c adbe 48bb acbe
00000280: b0ac c23e 1442 9ebf bda2 db3e f5b1 e4bf
00000290: b82d f93e f952 1cbd 0b2c 96bf 4d19 2cbf
000002a0: 90bb 4bbd 71d3 2abd ccd9 a03f c3f1 bc3f
000002b0: 38e0 fc3d bc63 ab3f 0d67 0c3e c0e2 b2be
000002c0: fd80 793f 205e 38c0 3e34 103f 27e9 e8be
000002d0: 4b60 92bf a1de 503d 4029 23be fcf5 8a3e
000002e0: bd99 7d3f 9396 613d 6a79 253e 1b84 b2bf
000002f0: 17d6 a93f d6ad 90bf 8983 513d 750e 89bf
00000300: 9ab5 cd3f 06f3 d6be a4e5 55bf dd85 1b3f
00000310: 98ea 08c0 be6b 1f3e edd7 443e 5885 6ebf
00000320: 9d05 84bf a679 88be 2f98 273e 01dd bbbf
00000330: 9c92 1fbf d93c 06bf 0e92 86bf ef9c 213f
00000340: 045b c0be 76ff 78bf 7802 3ebf bd98 853f
00000350: c0c8 873f 882b 303f 7bb9 763f 1e0e f33e
00000360: ec8a be3f 42d5 b1bf 728a d1be 6489 17bf
00000370: b21e 86bf c582 80be 7630 c33f 8496 aa3f
00000380: 3337 083e b920 4b3f db34 0d40 ac2d aa3f
00000390: bfd8 e2be 6ade bfbf fc6c 67bf 36bf 463f
000003a0: 6e51 59bf 60b6 5a3f f424 2cc0 8b7d 813f
000003b0: 4c38 a43f 8975 10bf 55ec c63e cf87 31bf
000003c0: 407c 013f 6064 2040 6b62 043f bbb6 b7be
000003d0: f021 ca3e 14b5 20bf a701 0bc0 5cff aa3f
000003e0: 6bd6 f9be 4da5 fabe ac06 74bf 95cc 733f
000003f0: d174 c9bf d053 203f cc66 8ebc 6e87 00be
1.3739176 0.08807509 0.092931025 0.8255642 -0.3290636 0.15128289 -0.18844235 -0.7567225
0.7910136 0.5435624 -1.2080175 0.22064157 -0.22224498 -0.30009043 0.34244254 1.1458071
-1.817661 0.1653774 0.074442156 -0.6730568 -0.84665215 -0.69325507 -0.38513097 -1.3189492
0.41072288 -0.20233922 -2.1022825 -1.235605 0.8337226 0.17057343 -1.4699633 -0.16974407
1.1847075 0.32900542 1.3480316 0.1985654 -1.7573493 0.060025003 -0.6800369 -0.8413987
0.16208133 -1.318188 -0.055724494 0.7214406 0.09814913 1.0051037 0.66098934 0.43116102
1.9582212 0.84449667 -0.57494074 -0.80738276 0.33622587 1.4483008 0.76144046 -1.7218057
-0.6145598 -1.227158 1.3447006 0.5832746 0.14337008 -0.68057257 1.270789 -0.5490621
-0.18406115 1.1499745 0.28566632 -1.2331848 0.0056942105 0.022522619 -1.268033 -0.481162
1.0363691 0.847344 -0.9017842 -0.8490791 0.88884735 1.9922216 1.5830051 -0.78155965
0.028869787 -0.9706023 -0.9316721 -1.6663346 -0.7221282 0.18513635 0.9359555 1.532496
0.3411402 -0.37030846 -0.36211935 0.2386892 1.4832369 -0.35561442 0.5208989 -0.4516012
-1.4656116 0.31966907 -0.50837445 0.8472704 -1.1326182 -1.1138033 0.64086646 0.010190133
0.11935233 0.26731077 -0.28893444 -0.50127697 -0.15897122 -1.4182987 -1.1781299 -0.80188656
-0.42166248 0.44453347 -0.82602197 -0.040828533 0.9801816 -1.5435562 -1.0210915 0.98176765
-0.7047149 -0.42997578 -0.65167093 -1.1140838 0.1373213 -0.94241947 1.1779671 -1.4219863
-1.0611725 0.38440067 -0.6067267 -0.41791868 0.61426127 0.708394 -1.2747741 0.44011685
0.68916214 -1.2076923 -0.53435385 -1.115267 -0.69234186 0.25700262 -1.492216 -1.1534954
2.0201917 -0.46299884 0.39631036 0.92339617 -1.2845764 -0.49838054 -0.79573745 1.2041589
0.7430661 0.615474 0.47735065 -1.1422449 0.9297796 0.5308766 -0.3379883 -0.33736634
0.38022375 -1.2363915 0.42897597 -1.7866808 0.48667693 -0.038165066 -1.1732191 -0.67226106
-0.04973942 -0.041705552 1.2566466 1.476128 0.12347454 1.3389812 0.13711186 -0.34938622
0.97462445 -2.880745 0.56329715 -0.4549038 -1.1435636 0.050993565 -0.15933704 0.27140796
0.9906271 0.05507524 0.16159597 -1.3946565 1.326846 -1.130305 0.051150832 -1.0707537
1.6071045 -0.41982287 -0.8355353 0.60751134 -2.1393185 0.15568444 0.19222994 -0.93172216
-1.0314213 -0.2665531 0.16366647 -1.467682 -0.62333083 -0.52436596 -1.0513322 0.63130087
-0.3756944 -0.972648 -0.74222517 1.0437237 1.0608139 0.68816423 0.9637677 0.47471708
1.4886146 -1.3893206 -0.40925938 -0.59194016 -1.0478117 -0.2509977 1.5249164 1.3327184
0.13302307 0.79346806 2.206351 1.3295188 -0.4430599 -1.498975 -0.9040067 0.77635515
-0.84889877 0.8543453 -2.6897554 1.0116438 1.282968 -0.56429344 0.38852182 -0.6934785
0.50580215 2.5061264 0.51712674 -0.358816 0.39479017 -0.62776303 -2.1719759 1.335918
-0.487964 -0.4895424 -0.9532268 0.9523404 -1.5738775 0.6262789 -0.017383002 -0.12551662

weight f4 [64, 64]
00000000: b323 3c3c 3faa 993d 700a 0fbe 375c b33c
00000010: f2ce f4bb 881e aebd f007 173e 0289 973d
00000020: 2783 ecbd 79cc c3bc 205d 6bbd 63d5 48bc
00000030: ca46 443d 44f5 433e 1226 99bd 6604 fc3b
00000040: 929c a2bd eb70 853d 5b43 07bd 88bc 673d
00000050: 13b1 5bbd 1cda 573d 14f3 c8bd e7dd c53c
00000060: 1ca2 15be 1ce8 803d a717 d6bd e411 c2bd
00000070: 67b8 c5bd b3ee ddbd 6b2b e43c 2005 a6bb
00000080: 93b5 40bc 7b9d 023d ac5a a13d 0443 2a3d
00000090: d9be 61b8 f2a2 dd3d 840a c8bd c8e4 ef3d
000000a0: fe46 fd3d 4e28 1e3e f482 9cbd d37e a63d
000000b0: c1d0 e1bc 759f 9bbd 1d6c 90bd dc93 01be
000000c0: 654b b13d 7dc0 423d 06c5 c83d 7a79 15be
000000d0: 2df2 353d 9f76 923d d111 cf3d e0e5 ea3c
000000e0: 2c0a 713d 4b83 a2bd b15a b4bd c659 2b3e
000000f0: f8a1 0ebe 00fb 033d 9e08 8dbd 9cc2 80bd
00000100: a77c 36bd 82d1 10be b93b 5abe e6a7 c73a
00000110: 3a7a 3fbe ad88 25bd a74d 033e 89e2 d63d
00000120: cc80 15be b467 d2bd 741e 70bc ed01 03be
00000130: 49b7 febd 20dd b63d 9ee1 0c3b 1295 323d
00000140: 257e a43d 016e 63bd fde2 91bd d766 4abd
00000150: 3a51 5d3c 920e aa3d 5e8a bdbd f2f0 15bd
00000160: 60a1 733b 9877 013d cab6 85bd bda8 10be
00000170: 5a41 8dbd fca5 03bd 5e07 feb9 eed7 48bc
00000180: 217a dabd acda a63b a80c e23d a1d5 4c3d
00000190: c9c0 eb3c 1b90 d4bd 1f86 da3c 622e 5bbc
000001a0: b5fb 143e 2ac5 0f3e 403b bd3d 2399 dbbd
000001b0: 0bc8 c33d 2d5d 15be 75ad bf3d 700e 863d
000001c0: 2429 bcbc 61d3 ea3d 9aff b33d be3b 183d
000001d0: f877 95bc bde7 c53b c1f0 9f3d ad99 d43d
000001e0: d77f 66bd 8afe aebd 9af2 773c bf13 023c
000001f0: 08c4 f1bb 6a4b 693d 6b6f a53d 58cb 06bd
00000200: b310 f83c 8f01 a73d 6907 883d 376f 63bc
00000210: f04a aa3d 5d04 02be 12cc 44bc e36b 5ebe
00000220: f44e e9bd 262a 6fbd fc08 213e aabf c5bd
00000230: d342 e1bd 1cb1 babc 7c77 0bbc 8743 b13c
00000240: b036 b03d ec37 e2bd f07e 243e ede5 12bd
00000250: c766 f2bd 39a2 db3d 34fb 243e eb40 153e
00000260: 47bf 443e a8f8 e4bd 886e 94bc 4919 c93d
00000270: 41f3 f4bd 8187 ae3d eb57 113d 2dc1 24bd
00000280: 7aa9 01be 9c67 b83d ccc6 09bd 92c7 08bb
00000290: 4153 0cbd f9ff d6bd ca9f d33c 1e77 4abd
000002a0: 6729 1a3d ce72 01be 521c da3d e4c0 973d
000002b0: 658a 25be 8844 293e a3fe 433d 1db2 dabd
000002c0: 1805 98bd 9dd8 9dbd e557 43bd 2cab 1bbe
000002d0: e4ce 8f3d 2cc7 07be aa0a e6bd 4470 a93d
000002e0: 8799 51bb 868d c13d 5654 97bc 81f5 c7bd
000002f0: d267 643d 26b0 c7bd f225 8fbc 3367 b53c
00000300: faf3 acbd dabf 163e c1a7 453d cd7c 653d
00000310: b761 debd 2864 a13d cc3f 29be 57dc 45be
00000320: d6a7 aabd 0721 1ebd 0b92 0b3c 40a4 333e
00000330: 5c84 2bbc 3889 d8bd 458d 27bd 2f4f 8cbe
00000340: 17bb 353d 6e2d b03d 1a92 333e e96a a1bb
00000350: 0c47 a13d 4a5a 0bbd fe4c 993e 0cc1 fd3d
00000360: 7740 143e 5696 16be b848 1b3e 4d13 c1bc
00000370: 15aa 153d b3d6 6fbd 9ecb 2e3e a500 57be
00000380: 6211 21bd c844 803d a660 9e3b 14cc eabd
00000390: 8798 a1bd 46d2 9fbc 27f1 7f3c 7c1e e5bd
000003a0: 165f 4dbe 4ca1 c6bd aebb 48bb 1962 0cbe
000003b0: 9ac1 21bd b313 0dbc 995e 29be 62ee 1039
000003c0: e02b 06be 7fad b13d 42e6 05be 4f34 98bc
000003d0: a6db 373e d83e 073e ddbb b1bd 505b 2bbe
000003e0: ff4e 40bd 186b 2bbe d870 023d b6e4 89bd
000003f0: 5789 d63d 647c 573d 6351 703d b6db 46bd
0.011483121 0.07503175 -0.13968825 0.021894557 -0.007470959 -0.08501917 0.14749122 0.07399179
-0.11548453 -0.023901211 -0.057461858 -0.012257907 0.047919072 0.1913653 -0.074779645 0.007690954
-0.0794002 0.06515678 -0.03302322 0.05657628 -0.053635668 0.05269824 -0.098119885 0.024153663
-0.14612621 0.06294271 -0.1045373 -0.094760686 -0.096543126 -0.10836544 0.027852735 -0.005066529
-0.011762041 0.031888466 0.078786224 0.041567817 -5.382192e-05 0.10822095 -0.09767631 0.117135584
0.12367056 0.15445063 -0.07642165 0.081296586 -0.027565362 -0.075987734 -0.07051871 -0.1265406
0.086569585 0.047546852 0.09803204 -0.14597121 0.04442041 0.071515314 0.1011082 0.028674066
0.05884759 -0.079351984 -0.088063605 0.16733465 -0.13928974 0.032221794 -0.06886409 -0.06287119
-0.04455247 -0.14142421 -0.21311845 0.0015232533 -0.1869897 -0.040413547 0.12822591 0.10492427
-0.14599913 -0.10273686 -0.014655698 -0.12793703 -0.124373026 0.08928895 0.0021496783 0.043599196
0.08031873 -0.05552483 -0.07123373 -0.049414482 0.013508135 0.0830356 -0.09254907 -0.036606736
0.0037175044 0.031608194 -0.06529005 -0.14126869 -0.068972304 -0.032140717 -0.00048452144 -0.012258513
-0.106678255 0.0050919857 0.1103757 0.05000842 0.02877845 -0.103790484 0.026675282 -0.013377758
0.14549144 0.14040056 0.09239817 -0.10722568 0.095596395 -0.14586325 0.09359256 0.065457225
-0.022968836 0.114660986 0.087889865 0.03716635 -0.018245682 0.0060395882 0.07809592 0.10380874
-0.05627426 -0.08544643 0.015133524 0.007939278 -0.007378105 0.056956686 0.08077892 -0.032908767
0.0302814 0.08154594 0.066420384 -0.013881496 0.083150744 -0.12696977 -0.012011545 -0.21720843
-0.11392012 -0.058389805 0.15726084 -0.09655698 -0.10999074 -0.02278953 -0.008512374 0.021638645
0.08604181 -0.110458225 0.16064048 -0.035863806 -0.118360095 0.10724301 0.16111451 0.14575545
0.19213592 -0.1118024 -0.018119112 0.09819276 -0.119604595 0.08521939 0.035484236 -0.04022329
-0.12662306 0.09004137 -0.033636853 -0.0020870906 -0.034259085 -0.10498042 0.02583303 -0.049430005
0.03763714 -0.12641451 0.10649933 0.07409838 -0.16166075 0.16530049 0.047850262 -0.10678504
-0.074228466 -0.07707331 -0.047691245 -0.15202016 0.07021883 -0.13259572 -0.11232503 0.08273366
-0.0031982379 0.094508216 -0.018472832 -0.09763623 0.055763073 -0.097503945 -0.017474148 0.022143936
-0.08444972 0.14721623 0.048255686 0.056027222 -0.108584814 0.078804314 -0.16528243 -0.19322334
-0.083327934 -0.038605716 0.008518706 0.17543125 -0.010468569 -0.105730474 -0.04090621 -0.27404162
0.044367876 0.08602415 0.17536202 -0.0049260748 0.07874879 -0.034021653 0.29941553 0.123903364
0.14477716 -0.14705786 0.15164459 -0.023568774 0.036539156 -0.058554363 0.17069861 -0.2099634
-0.03932322 0.06263119 0.0048332987 -0.11464706 -0.078904204 -0.019509446 0.01562146 -0.11187455
-0.20055804 -0.09698734 -0.0030629444 -0.13709296 -0.039491273 -0.008610654 -0.16539992 0.00013821715
-0.13102674 0.0867567 -0.13076118 -0.01857963 0.17954883 0.13207567 -0.0867841 -0.16734052
-0.046950337 -0.16740072 0.031845897 -0.06733076 0.10475414 0.052608863 0.058671366 -0.048549376

bias f4 [64]
00000000: 70b8 db3d 5101 f93d c104 c83c 1b38 8f3d
00000010: a34f 2ebd 68d8 ca3b 0064 babd 4560 a63d
00000020: 2c00 c73d 9624 853d e685 d2bd e84f 95bd
00000030: 025f 47bc d925 fabd e8e9 4539 0405 c6bd
00000040: c490 22bd 660a 3f3d 1dec d5bd 9958 b6bd
00000050: c1c7 6fbd 9981 a43d 805c c63b 4bd0 823d
00000060: bba2 423d bd61 283d f91a dcb8 f6db a5bd
00000070: ee1c 85bc 2c03 c93d 4e4a 653d 7b7f 69bd
00000080: 0cc8 d6bd 0a87 a93d 58ef d73d 0d1c b43c
00000090: 3108 cdbc e368 79bd 9390 bcbc b241 843c
000000a0: ebdf c1bc a8ba e3bd ed0e 093e 9a29 94bd
000000b0: d6af e13c a75d 343d 7baf c73d 27da d9bd
000000c0: 6951 11bd 068d 99bd 76b9 7ebd 20fe e43d
000000d0: ecb7 ba3d 068f 573d 0b9b e2bd 2b00 ba3a
000000e0: 0bda 1fbd 89f5 b8bc 3972 5dbd e7da e23d
000000f0: 1a5b d63b e388 acbd 8a39 a73d 6f79 06ba
0.10728538 0.12158454 0.02441633 0.06993123 -0.042556416 0.0061903484 -0.09101105 0.08123831
0.0971683 0.06501119 -0.10279445 -0.072906315 -0.012168648 -0.1221425 0.00018874521 -0.096689254
-0.03968884 0.046640776 -0.10445426 -0.089036174 -0.05854011 0.08032531 0.0060535073 0.06387385
0.047518473 0.041108835 -0.000104954415 -0.08098595 -0.016249146 0.09815058 0.055979066 -0.05700634
-0.10487375 0.0827771 0.10543698 0.021986032 -0.02502832 -0.060891043 -0.023018157 0.016144607
-0.023666343 -0.11119586 0.133846 -0.07234497 0.027549665 0.044034626 0.09750267 -0.106373124
-0.03547803 -0.07497601 -0.062188588 0.11181283 0.091171116 0.052626632 -0.11064728 0.0014190724
-0.0390263 -0.022578018 -0.05406401 0.110769086 0.006541622 -0.084245466 0.081652716 -0.00051297894

weight f4 [64, 64]
00000000: cbd1 3e3e ca72 bc3b d2c8 883d 50f1 c7bd
00000010: 197d c23d 91c3 f63d a33c 30bd 130f 8ebc
00000020: 8bc7 08be 10a4 703d 0062 3c3e aab5 84bc
00000030: 0cc8 adbd 9b0c f0bc 8a38 87bd fffa c9bd
00000040: f180 14bd 2ff4 81bd 1603 e6be cf05 eebd
00000050: 2863 5dbd 49f3 efbd bc91 233e 72b8 6d3a
00000060: c3e5 0f3e fa59 fa3d 6524 50be cd85 91bd
00000070: 8962 bc3d 782f f03d e5c5 51be 0c22 713d
00000080: 4488 073d a9fe fe3d 27e4 0bbd 747b 0d3c
00000090: f91b 06be 9c06 6ebc 7262 01bd dff6 f1bd
000000a0: 7094 69bd 1109 27bd 2cd2 1cbd 546c 1c3e
000000b0: e50b 16bd 1517 e73d d3f2 d03c 283d cabd
000000c0: 8aef 79bc 0b99 eebd ef49 0c3e b930 a6bd
000000d0: 409b 6ebd 6c3c 7a3d 60c4 39be 6c70 27be
000000e0: 7e8a 153e 99bc dabd 516b d1bd c53a 383c
000000f0: 724d a03a dbba 20bd 0cb6 ccbd 8129 a33c
00000100: b5d9 83bd 3efa 02be 663d f1bd b212 e6bc
00000110: 0dfb 11be 869f 703d 1cba a33d 1203 e63c
00000120: 2573 e4bc 5304 eebc 78e3 57bd a5ed 133e
00000130: 7438 60bd 3d95 bcbd 8b2e 89bd 12b0 fc3d
00000140: 4da5 54bd b7b6 c63c b7c1 d23e d99c aebb
00000150: 9ba9 213d 875d 693d 81c2 c5bd d169 c53d
00000160: 452c 45be 88db 11be 797c c93d cfb5 0cbd
00000170: f074 57bd d2a5 26bc ce38 f43d 3426 60bc
00000180: eb9e 743c 90c3 6a3d ebce 8e3d e801 203e
00000190: a1ec 19bd 95b8 2fbd 53c0 dbbd 3127 3f3b
000001a0: 7675 d5bd 8994 8dbc 6627 ec3a 9f95 9ebd
000001b0: fb0c a83c d866 e03d b5cc 1bbc 59c0 033d
000001c0: 8622 983d afba 473d f4b5 d5bd 338b d1bd
000001d0: 2034 bbbd 6dc3 fbbd 7663 463e 20d2 213d
000001e0: aea1 18be 42d2 cfbd e9f0 8dbd 326b 40bd
000001f0: 03a1 3c3d f607 883d 6ec3 8bbc 4719 f4bd
00000200: 6536 fdbc 9602 983d 6398 62bd 6ed0 36bd
00000210: 98a9 45bc 6f78 01bd 6d25 fdbd 65d7 d13d
00000220: 2d4f de3d 6ff8 e23d dbfe b63b d6e2 373d
00000230: 258d dbbd ca3c f73d c36c b4bd 4623 72bc
00000240: 489f 60bd 8ec6 483d 228e 00bf 0d00 1cbe
00000250: d489 d53c 768e b2bd b2b5 d83d 4d63 adbd
00000260: f114 023e 17a6 4d3d c7c9 a2bd 1d3f 4bbd
00000270: 1082 033e de1b b3bd cbfc 60bd 0f98 533d
00000280: 111a da3d 636e dc3c 2c92 df3d 2adb 17be
00000290: 476c 85bd 78b6 923d 0c9f 4fbd f626 4a3d
000002a0: 86b1 8a3d 3605 23bd 6162 0cbd 05f4 943d
000002b0: 2e42 d33d 9cef c8bd 0f21 043e 8f9d bdbd
000002c0: b40b 98bd 1cec efbc 2520 333c 3edc 983d
000002d0: b224 f63d a22c bb3b 476c f4bc 8624 2ebe
000002e0: dd3e 683c 5a9c 183c e051 8a3d f087 4abd
000002f0: 3204 383c 8042 0bbd 1519 a03d 2101 66bd
00000300: 4e00 3dbe da96 84bd 2a94 3f3c 7714 ddbd
00000310: 1d9f 3ebd 9aeb 83bc f1cb adb8 809c febc
00000320: 9904 01bd ef12 c93d c3ae 18bd c301 f33c
00000330: 576e bf3d 8dc4 643c 51dd a53d 8356 883d
00000340: ce0d e43c b145 6abb 233a 933e eb81 b23d
00000350: 0496 6b3d 8a63 303e cd02 c73c 4716 1fbd
00000360: 9c43 5abd 18a1 91bd e295 893d a0e0 d83d
00000370: f979 0bbe 8be0 4d3c d080 8f3e e3ee 10be
00000380: 8b91 c3bd 52da b33d 3a7f b83c 85b9 2f3c
00000390: 9d3a 4cbc 4642 01be 038f afbc 6db7 2c3e
000003a0: 1330 68bd 52e4 4abc 0d6f 8b3d ae07 bebc
000003b0: 3666 e7bd a9a6 0cbd e409 9abd a2a3 6fbd
000003c0: 90a6 fdbc d505 293e 365c 2fbe 048c a23d
000003d0: 6bbd 7e3b 9bdf 103d e6f4 40bc 2eb3 cf3c
000003e0: 67b6 ecbd 96a7 fb3d 91e4 a8bd 497b 123e
000003f0: 3e08 9b3d 9c2a cf3b 5e4a 0f3d 82a7 b4bd
0.18634717 0.0057509886 0.066789284 -0.097628236 0.09496517 0.1204902 -0.043026578 -0.017341172
-0.1335737 0.058750212 0.18396759 -0.016199905 -0.084854215 -0.029302886 -0.06602581 -0.09862327
-0.03625578 -0.063454024 -0.4492423 -0.11622202 -0.05404964 -0.11716325 0.15973562 0.0009068317
0.14052491 0.12224193 -0.20326383 -0.071055986 0.091984816 0.11727804 -0.20485647 0.05887036
0.033088937 0.12450916 -0.03415313 0.008635391 -0.13096608 -0.014527943 -0.031588025 -0.11814665
-0.057026327 -0.04078013 -0.038286373 0.15275699 -0.036632437 0.112836994 0.025506413 -0.09874946
-0.0152548645 -0.116502844 0.13700078 -0.08114762 -0.058253527 0.06109278 -0.18141317 -0.1635148
0.14603612 -0.106805034 -0.10225547 0.0112444805 0.0012230112 -0.0392407 -0.0999566 0.019917252
-0.06438009 -0.12790772 -0.11779289 -0.028085086 -0.14255925 0.058745883 0.07994482 0.028077636
-0.027886936 -0.029054796 -0.052707165 0.14446123 -0.054741338 -0.092081524 -0.066983305 0.1233827
-0.051915456 0.024257047 0.41163418 -0.0053287563 0.03946839 0.05697396 -0.09656239 0.096393235
-0.19255169 -0.14243901 0.098381944 -0.034353074 -0.052601755 -0.010171371 0.11924897 -0.013680983
0.014930467 0.05731541 0.0697306 0.15625727 -0.037579183 -0.04290064 -0.10730042 0.0029167647
-0.104227945 -0.017282741 0.0018017113 -0.07743382 0.020514002 0.10957116 -0.009509255 0.03216586
0.0742846 0.04876202 -0.104350954 -0.10231628 -0.091408014 -0.12293134 0.19373879 0.03950703
-0.14905426 -0.10147525 -0.069307156 -0.04697723 0.04605199 0.066421434 -0.017060962 -0.11918884
-0.030909726 0.07422368 -0.05532111 -0.044632368 -0.01206436 -0.031608995 -0.12360654 0.10246161
0.10854945 0.11082541 0.0055845804 0.044894062 -0.107202806 0.120721415 -0.08809807 -0.014778918
-0.054839402 0.04901748 -0.5021688 -0.15234394 0.026066698 -0.087185785 0.10581531 -0.08466206
0.12703301 0.050207224 -0.07948642 -0.049620736 0.12842584 -0.087455496 -0.054928582 0.051658686
0.10649503 0.026908105 0.10916552 -0.14829698 -0.06514793 0.071637094 -0.05068879 0.049353562
0.06772141 -0.03979989 -0.03427351 0.072731055 0.10315357 -0.09811327 0.12903236 -0.092585675
-0.07424107 -0.02928739 0.010932957 0.07463883 0.12018718 0.0057121078 -0.029836787 -0.1700612
0.014175144 0.009314621 0.06753898 -0.049446046 0.011231469 -0.033998966 0.07817284 -0.05615342
-0.18457147 -0.06474085 0.01169304 -0.10794919 -0.04653846 -0.016103555 -8.28727e-05 -0.031080484
-0.031498525 0.098180644 -0.03727604 0.029663926 0.093472175 0.013962877 0.080988534 0.06657126
0.027838614 -0.0035747106 0.28755292 0.08716186 0.057516113 0.17225471 0.024293328 -0.038839605
-0.053287134 -0.07110804 0.06718041 0.10589719 -0.13620748 0.012565742 0.28027964 -0.14153628
-0.095492445 0.08781876 0.022521604 0.010725384 -0.012465146 -0.12622938 -0.021430498 0.16866846
-0.056686472 -0.012383537 0.06808291 -0.023197021 -0.11298792 -0.034338627 -0.07521418 -0.05850566
-0.030963212 0.16506131 -0.1712502 0.07936862 0.0038870226 0.035369497 -0.011777138 0.025353994
-0.11558228 0.12287824 -0.082467206 0.14304842 0.075699314 0.006322218 0.03498303 -0.08821012

bias f4 [64]
00000000: 577b a9bd ba59 6ebd 05a1 ae3d 5322 313d
00000010: 77ff 343c c218 97bd 892b edbd fd8f 2e3d
00000020: 6c0e ba3d 0798 dd3d 4ba5 4a3d 4254 833d
00000030: 311a 483d 1e92 e63d 5c55 2d3d 24a7 9e3b
00000040: 2ebe 99bd 6a5f cc3d 64b9 923d f53a a0bb
00000050: f19b d4bb 6b52 193d b5f4 173d 9468 f63d
00000060: be3b 8f3d 946a 20bd 1640 89bd 226b 483d
00000070: 4869 753d 5cf3 49bd a203 9f3d f33f 9b3d
00000080: 6259 d7bc 15d0 f23d d6ea 8ebd 6d2e a53d
00000090: c9a5 9cbc b5aa cbbd 4a45 833d 9662 f03b
000000a0: fd65 d2bd 0a70 f43d 2fb7 2e3d 3e08 e8bb
000000b0: ab93 e73c f734 d1bd 4698 1abd 4e79 d33c
000000c0: 1591 d33c 8728 c63d ad86 c7bc 0d79 5abd
000000d0: ba1e ac3c e086 8ebd cf30 2b3d a7fd f43a
000000e0: 5885 f93d 6892 d1bc 5528 a43d 5256 f93d
000000f0: 11e2 e2bd 41f6 2f3d eb06 203c 9ef9 84bd
-0.08275478 -0.05819104 0.08526806 0.043245625 0.011047236 -0.07377769 -0.11580569 0.042617787
0.09084782 0.108200125 0.049474042 0.06412555 0.048853103 0.112583384 0.042317733 0.004841702
-0.07506977 0.09979136 0.07164267 -0.0048898407 -0.006488316 0.037432116 0.037098605 0.120316654
0.06993817 -0.03916414 -0.067016765 0.048930295 0.059914857 -0.04930435 0.07764365 0.07580557
-0.026287738 0.11856095 -0.06978385 0.08065496 -0.019122021 -0.09944669 0.064097 0.007335971
-0.10273359 0.11935432 0.042655166 -0.0070810607 0.028268656 -0.1021518 -0.037742876 0.025814679
0.025826016 0.09675699 -0.02435621 -0.0533381 0.021010745 -0.06959319 0.041794594 0.0018691317
0.121836364 -0.025582507 0.08015505 0.121746674 -0.11078275 0.042959455 0.009767274 -0.06492923

weight f4 [64, 64]
00000000: 7a00 e2ba 7a92 9fbc 964e 933e 3b9e 923b
00000010: 326d 833c dffe 243e 65da 0a3d 14a6 2b3e
00000020: 2d6d 14be 3be0 d13c 1be6 5e3e 9f09 973c
00000030: 5db5 39bd ffef 63be 0f89 b23c 6620 c6bc
00000040: fb00 b0bd eb92 ce3d e620 f53d d962 22bb
00000050: 5375 043e c345 0d3e db33 3cbd 0a1c d53c
00000060: 3c70 37bd f198 8abd 1bae 783d 2b20 5b3d
00000070: a3e1 a6bd b192 273c 464d 973c 96f4 08be
00000080: e757 a9bd 0b99 8fbd bf0a 4a3d 61f0 2abd
00000090: 0888 be3b 356b 13bb 6d1d 3b3e 2e38 773c
000000a0: b442 093e 3e00 d7bd d819 cf3c cbbd 96bb
000000b0: 35a3 fbbd 40c4 17be ab94 793c f9df a23d
000000c0: 29c7 84bd a180 2d3d 77ac a4bd 3f64 103e
000000d0: 1ead c03d 447c 383d 3c3b 41be 1aeb e2bc
000000e0: 3f0f 94bd 0b70 023e f945 2abd 2607 0cbe
000000f0: ebd6 7b3d 5e6e ec3d e967 85bd 3479 3a3c
00000100: 5e16 bebd f70c 05bc 15f2 3c3e 27a1 33be
00000110: 7d0a 573d 889c 31bc 1751 b33d ce7a 293e
00000120: 0fd4 b43c b155 98bd f870 023d 662e e83d
00000130: 1f79 0e3c b3b1 48be 4c38 f7bd 1983 583e
00000140: cbcc ba3c 9cad 093d c513 a1bc 4767 13bd
00000150: 6fac c7bd 2523 bebd db17 d0bc d040 7a3d
00000160: 7440 9bbd ed65 383d e9ea 97bd 97c7 d8bd
00000170: 2a69 833d 398f a13d f8e4 dbbd 5c3e fd3d
00000180: f745 9abd dd4e 00bd b06c db3d 70d7 b6bd
00000190: 25ad 803b 0345 16be a250 56bd 4560 413d
000001a0: 5daf de3d 4105 ffbd b412 5bbd 76cb 843c
000001b0: a073 2cbb a894 0fbe cd2d 853d 0f5c 85bd
000001c0: eb8e be3d da54 5cbd b867 893d 52d5 20bd
000001d0: 5327 2b3d 7d94 a23b 4269 15bd 4482 10bd
000001e0: 4ffb 9b3c 3001 5c3c 2954 82bd 6f67 9dbc
000001f0: 5d18 06be 75d0 273c dcaf 4b3d 1dff 68bd
00000200: 5dc5 8f3d 8b50 f23d db5c f4bd a468 ea3d
00000210: 75d4 cf3d ae3c 8d3d 4934 1dbd 9399 aabd
00000220: bb62 6e3a 9113 e9bd e2c3 b3bc 8da4 c23d
00000230: 1827 373d 1381 90bc 3a66 d4bd bfb6 c7bd
00000240: 298b d73b 1fff dfbd 0504 ba3d fc43 9cbc
00000250: 87be 4bbd fb1a ba3c dd3e b43d 0e56 18bd
00000260: b6b5 753d f393 a63d 712a 053e 7409 003e
00000270: 39e4 f5bd b616 febb 5e84 1c3e 7d26 34bd
00000280: b883 8e3d 1847 62bc f9f2 efbd 1ea3 c0bd
00000290: 022d e6bc 21ce b7bd 0b7e 8cbd b7a5 3c3d
000002a0: 8ce9 e83d dd6e 023e 21e5 4cbd dd76 163e
000002b0: 5c30 3d3d f463 bf3d 806a 8fbd 60c6 ac3c
000002c0: b616 afbd 5716 f63d c6ea b83d 73c0 65bd
000002d0: 80ec 35bd cdd6 fbbc 4f40 adbd d745 14bd
000002e0: 497e 243e 023e 5a3d a46f febd 9fe7 583d
000002f0: bab2 143d d529 543d 6588 593d d2bc 64bd
00000300: 371f 1dbe ed40 e83c 2f13 7bbe 6dac aebc
00000310: 8164 69bc 700b a0bd 5412 5a3d 9836 c7bd
00000320: 2342 0dbe 1aa0 00bd 3693 953c 481e 26bd
00000330: e4d6 993c afc2 433c 2819 1d3d 627f 12be
00000340: 233f a4bd e539 403c a899 123c 1c73 26bd
00000350: 76b2 22bd 8cc8 7f3d 9983 37bc 6437 783d
00000360: c93b a3bc 8a1d ebbd e63e f1bc 1890 803d
00000370: fa20 2ebd d47a aebd e01c bcbb b841 253e
00000380: a870 1b3e dd60 db3d 4f02 803d df07 48bd
00000390: efae c63b 51ec 383e 9182 193c 7ad7 aa3d
000003a0: 3a96 9fbd dfe8 073d bf10 2bbd 9898 9b3c
000003b0: 56b7 e93d 0552 c0bd 25f7 dcbd d43e 9d3c
000003c0: bcd0 d5bd c78e 9f3d 751a dbbd 878e f5bd
000003d0: 49b3 9cbd 80fc c9bb d074 84bd 1369 ad3d
000003e0: c9bc 2f3e b3b4 81bd da3e eb3d 5c2b a33d
000003f0: 23ae 953d 4e18 e13d 0564 98bd 3dc2 ea3d
-0.0017242574 -0.019479025 0.28770894 0.004474429 0.01604328 0.1611285 0.033899684 0.16762573
-0.14494772 0.025619617 0.21767466 0.018437205 -0.045338977 -0.2225952 0.02179387 -0.02418537
-0.08593937 0.10086616 0.119691655 -0.0024778156 0.1293538 0.13796143 -0.04594789 0.026014347
-0.04478477 -0.067674525 0.060712915 0.053497475 -0.081485055 0.010227845 0.018469464 -0.13374552
-0.08268719 -0.070116125 0.049326655 -0.04173315 0.005814556 -0.002249432 0.18272944 0.015089078
0.13404351 -0.10498093 0.025280878 -0.004600262 -0.12286989 -0.14820957 0.015233199 0.07952876
-0.06483299 0.042359 -0.080407076 0.14100741 0.094080195 0.045040384 -0.18870252 -0.027699996
-0.072294705 0.12738054 -0.041570637 -0.13674602 0.06148426 0.11544488 -0.0651396 0.011381436
-0.0928161 -0.008120767 0.18451722 -0.17541943 0.052500237 -0.010840543 0.08755701 0.16550753
0.022073774 -0.07438219 0.031846017 0.11336975 0.00869587 -0.19599037 -0.12071285 0.2114376
0.022802731 0.033612832 -0.019662747 -0.035987165 -0.09749686 -0.09284047 -0.025402 0.061096966
-0.07580653 0.04501908 -0.074178524 -0.10584944 0.06416543 0.07888646 -0.10737032 0.1236541
-0.07532876 -0.03132521 0.1071409 -0.0892781 0.0039268904 -0.14674763 -0.05232299 0.04721095
0.10873292 -0.12452174 -0.053484634 0.016210299 -0.0026314035 -0.14021552 0.065028764 -0.065116994
0.09304603 -0.05379186 0.06709236 -0.039265938 0.04178555 0.004961549 -0.036477335 -0.03528048
0.019040732 0.0134280175 -0.063637085 -0.01921436 -0.13095231 0.010242571 0.04972826 -0.05688392
0.07020066 0.118317686 -0.11931773 0.1144574 0.10147945 0.06896339 -0.03837994 -0.08330073
0.00090936915 -0.11380685 -0.02194399 0.09504042 0.044715017 -0.017639672 -0.10371061 -0.09751653
0.0065778685 -0.10937332 0.09082798 -0.019075386 -0.049742248 0.022717943 0.08801053 -0.037191443
0.059987746 0.08133688 0.13004471 0.12503606 -0.12006421 -0.007754172 0.15284869 -0.043982018
0.06958717 -0.013810895 -0.11716265 -0.09406112 -0.028097633 -0.08974863 -0.06859978 0.046056475
0.113726705 0.12737603 -0.0500232 0.1469378 0.046188697 0.093452364 -0.07002735 0.021090686
-0.08549254 0.1201598 0.090291545 -0.056091737 -0.044414997 -0.030742073 -0.084595315 -0.036199417
0.16063799 0.05328179 -0.124236375 0.052955266 0.03630326 0.051797707 0.05310859 -0.055844136
-0.15343939 0.028351272 -0.24519037 -0.021322453 -0.014245153 -0.078146815 0.053240135 -0.0972721
-0.1379476 -0.031402685 0.018258672 -0.040556222 0.018779226 0.011948272 0.03835407 -0.14306405
-0.08019855 0.011732553 0.008947767 -0.04063712 -0.039720975 0.062447116 -0.011200809 0.0605997
-0.019925969 -0.114802435 -0.029448938 0.06277484 -0.042511918 -0.08519521 -0.005740747 0.16138351
0.15179694 0.107118346 0.0625044 -0.04883563 0.006063334 0.18058898 0.009369508 0.0834188
-0.07792325 0.033181068 -0.041764017 0.01899366 0.11411922 -0.09390644 -0.107893266 0.019194998
-0.104402035 0.077909045 -0.10698406 -0.119900756 -0.076513834 -0.0061641335 -0.06467593 0.08467307
0.1716186 -0.06333294 0.11486597 0.079672545 0.073086046 0.10990964 -0.07440952 0.11462829

bias f4 [64]
00000000: 97bf 923d f03f dfbd 61f5 3ebe 036a 043e
00000010: bf7c cebd ba75 85bd 2970 37bb 7270 3539
00000020: 3636 723d c41f 78bc 9ba5 0f3e ea2c f3bd
00000030: d94d c53d 6909 90bd 1ac2 4bbd 6319 d8bc
00000040: 7fcd 3e3d 7bd8 d33d fb08 64bd fde3 59bd
00000050: fba2 293a 87ff 1ebe b82c 3f3d 512e 0cbe
00000060: 0149 bfbd aa50 a53d 84ab 293e 920e 89bc
00000070: 6d28 8ebc 253f 0c3e 1ce3 683c 4508 ad3d
00000080: 57f7 dd3c 1822 1dbe 50c3 8cbd 0003 07be
00000090: 1532 dd3d f394 1cbe fef2 193e 0380 a1bb
000000a0: 4c4a 58bd 3778 f2bd f3af cd3d 51d9 30bd
000000b0: f4fb 063b b634 19be 9845 43bd b248 8ebd
000000c0: 8bc3 bcbd dbdf 9dbd ff99 1cbd ec6f 763d
000000d0: 243b 8b3d 1e61 14bd 6553 113e 154a 8ebd
000000e0: 981d 99bd 242d 323d 38f4 6dbc d587 13bd
000000f0: d5f6 4b3d eb99 e13d f044 f13d 0bb4 fb3c
0.07165449 -0.10900867 -0.18648292 0.12931065 -0.10082387 -0.06516595 -0.0027990437 0.00017303394
0.05913373 -0.015144292 0.14028017 -0.11873801 0.09633989 -0.07033045 -0.049745657 -0.026379293
0.046582695 0.10344025 -0.055672627 -0.053195942 0.00064711244 -0.15527163 0.046673506 -0.13689543
-0.09340096 0.08072026 0.16569334 -0.01673058 -0.01735326 0.13695963 0.014214303 0.08448843
0.02709548 -0.15345037 -0.068731904 -0.13184738 0.10800568 -0.15291195 0.150341 -0.0049285903
-0.05280523 -0.118393354 0.10043325 -0.043176 0.0020596953 -0.14961514 -0.04767379 -0.06947459
-0.09216984 -0.07708713 -0.0382328 0.06016533 0.067983896 -0.03622543 0.14191969 -0.06947724
-0.07476348 0.04350008 -0.014523558 -0.03601821 0.049795944 0.11015686 0.11780727 0.0307255

weight f4 [64, 64]
00000000: 69ba 1a3e 8671 f2bd 568f a1bd de61 873d
00000010: 5c40 493e 64f3 8c3c 7601 40be 2726 0a3d
00000020: b369 b3bd 3257 9e3d 7ef9 7abe 140f d6bd
00000030: 7a9e 9abc 984f 51bc 0999 543e c459 b43d
00000040: 610b a0bd 79a1 0abe da4c df3d e0b4 8d3d
00000050: e986 183d b62c aa3b 2107 26be 5eeb 7e3c
00000060: d34c c73d 81ac 0fbd a665 10be eb2e eabd
00000070: 5491 16bd 5bfa e33c ea50 533d 09e0 a6bd
00000080: ea49 17bd 0ad9 1c3d eae1 10be 9bbd 2ebe
00000090: 8c81 de3c 3ed4 78be 89a2 5d3d 8b96 223e
000000a0: 0338 9bbd f480 a1bc 4ef1 d83d 8a39 6c3d
000000b0: 0751 ccbc 9325 3c3e 9e89 e7bd 210d 93bb
000000c0: 4897 853d ad9c 983d 1eb4 df3d 84d6 fe3d
000000d0: dde9 8bbd fab5 f0bd cb75 0b3d da1e d7bd
000000e0: 8135 f4bb 3f6d 95bd 5eda acbc 37b6 5b3e
000000f0: 008c e83b ccd8 69be e911 36bc c48f 473c
00000100: 4ebc 243d 2e34 80be 75e7 123e 8f3c c0bd
00000110: 027d 0a3e a4bc a93c 0880 96bd 2e2b 103e
00000120: ddb3 3fbe 29d3 963d ca61 e93b 2053 2a3d
00000130: 5887 91bc 13fa 04bc 0218 8f3e 5f61 1f3e
00000140: ebbe 0ebe 4f7c dfbd 8a01 45bd 5458 513e
00000150: e859 103e 0a7b 113e 7a3d 15be 8ed5 0abe
00000160: d350 463e 862a 1cbe 945f 19bd e02c 713c
00000170: f952 2c3d 1f89 44bd 060d 093d 2ac8 eabd
00000180: 741a 673e 2c69 b1bd d72f dbbb aa60 893d
00000190: c200 6e3d 27bc 343d 3462 ff3a b987 92bd
000001a0: 0aec 16bd add0 92bd 035f 1e3e 7da5 f13d
000001b0: 833a 3fbe d821 403e d229 15bd acf8 cc3d
000001c0: 3149 28bc 2db2 093e fd91 b8bb 1d2a d33d
000001d0: f492 0dbe f9f1 1ebd 8894 463e cf77 d8bd
000001e0: bf29 1e3e 05f2 0cbe c83f d23b 0611 9c3d
000001f0: 2e22 a8bc 6dde 04bd 1ac1 123e e00e c93d
00000200: 48f2 71bd 5737 c13d 19f3 4dbe e2e1 233d
00000210: 6231 68bc 08b0 f8bd 79a2 3a3d 2510 13be
00000220: f3d9 483d 01a6 15bd d188 583e bdd5 143e
00000230: 7340 073e 174f 3b3b 23ce a8be b543 b4bd
00000240: 896e 853d a5af 293e 42a4 2fbe d61a 0ebe
00000250: f19e 14be e976 8a3d 7389 ac3d b475 323e
00000260: 6241 bcbc de27 1ebd ad14 f63d 04d8 393e
00000270: 3bd5 25be 05ea 1dbe 70b6 e8bd 9fa6 133c
00000280: a7a1 2dbe 01b5 ff3c dc03 08bd 8444 343e
00000290: 490e 223e 67cd 343d fefb 5b3c 7f16 bfbd
000002a0: 7a54 02bc 5a31 673e 6cec acbd ddb9 1abe
000002b0: feaa 423e d063 6fbe 33a6 173e 6938 5e3d
000002c0: 6873 86bd 2903 03bc 403d 08be 455d fabc
000002d0: 05b6 c53c ec45 133d 3b56 dabd ed74 ef3c
000002e0: 24ae d3bd 897e 27bd 1c08 13be a196 d8bd
000002f0: de3d 24bc 90d2 9a3c 464c 363d 31c7 c7bd
00000300: a2c3 0a3e 09c2 07be 6a46 173e dbed cbbb
00000310: f3d7 2b3e 9143 7c3d 03ef 04be 7776 de3d
00000320: ab1e e6bd fce6 93bd 3f4e fdbd 97d8 8abd
00000330: e353 bdbd 2cd7 16be 0ac5 6a3e f357 e33c
00000340: 45e2 533a 97e1 c13c 3e35 173e 5046 093e
00000350: 473b 063e ecc7 593d 6780 d33c d8b2 abbc
00000360: 7dfd 2e3d f105 bebd a9ef d1bc 8766 58be
00000370: 7498 67bd 461f b33d 1fa2 433d 4877 9fbc
00000380: 073b 62bb 1974 a83d 19df 94bd 7759 213d
00000390: 33eb 883d 8ac3 84bd 711d d03d 24f5 013e
000003a0: 97e8 3cbd c6cb 1abd 0bc5 7f3d f80e 1b3e
000003b0: cc31 f2bd 714e 403e f90d 05be 2eb7 c33d
000003c0: 691e 36ba baa3 edba f807 b83d 7b95 1dbc
000003d0: e455 2ebe bd0a 0d3d 80d1 a93d 583e 0abe
000003e0: 6c4c 8d3d 3cc9 75bd a370 5c3d 7d68 3c3e
000003f0: ed71 533d ad40 dbbb 3aa9 95bd 5535 2c3e
0.15110172 -0.11838059 -0.07888667 0.066104636 0.19653457 0.017205901 -0.18750557 0.03372779
-0.08760395 0.07731475 -0.24509236 -0.10452095 -0.018874396 -0.012775324 0.20761503 0.08806184
-0.0781467 -0.1353816 0.1090333 0.06919265 0.037238035 0.0051933182 -0.16213657 0.015559046
0.0973145 -0.035076622 -0.14101276 -0.1143473 -0.03675969 0.02782934 0.051590838 -0.081482
-0.036935724 0.038292922 -0.1414868 -0.17064516 0.027161382 -0.24299714 0.054110084 0.1587774
-0.07579043 -0.01971481 0.105929 0.05767206 -0.02494098 0.18373708 -0.11305545 -0.004487649
0.06522995 0.074517585 0.109230265 0.12443259 -0.06831715 -0.11753459 0.034047883 -0.10503931
-0.007452667 -0.07296228 -0.02110022 0.21456228 0.0070967674 -0.22836608 -0.011112669 0.0121802725
0.040218644 -0.2503981 0.14346106 -0.09386551 0.13524249 0.020719834 -0.07348639 0.14078972
-0.18720956 0.07364494 0.007122253 0.04158318 -0.017764732 -0.008116263 0.27948004 0.15564488
-0.13940017 -0.10912382 -0.04809717 0.20443851 0.14096797 0.14207092 -0.14574233 -0.13558027
0.1936677 -0.15250596 -0.037444666 0.014720172 0.042071316 -0.04798233 0.033459686 -0.114639595
0.22568685 -0.08662638 -0.0066890526 0.0670789 0.05810619 0.04412475 0.0019484223 -0.07154793
-0.0368462 -0.07168708 0.15465932 0.117991425 -0.18674664 0.1876291 -0.036416836 0.10008368
-0.010271356 0.13446875 -0.0056326375 0.10310767 -0.1382559 -0.03880498 0.19392598 -0.10569727
0.15445612 -0.13764198 0.0064162947 0.076204345 -0.02052411 -0.032438684 0.14331475 0.0981729
-0.059068948 0.09434383 -0.20112266 0.04001034 -0.01417193 -0.1214295 0.045565102 -0.14361627
0.049035978 -0.036535267 0.21145941 0.1453466 0.13208179 0.0028581077 -0.3296977 -0.088019766
0.065152235 0.1657091 -0.17152503 -0.13877425 -0.14513756 0.067609616 0.08424654 0.17427713
-0.022980396 -0.03861224 0.12015662 0.1814881 -0.16194622 -0.15421303 -0.11362922 0.0090118935
-0.16956197 0.03121424 -0.033206806 0.17604262 0.15825762 0.0441412 0.013426779 -0.09330463
-0.007954711 0.2257742 -0.084435314 -0.15109964 0.19010541 -0.23377919 0.14809494 0.054253016
-0.06564981 -0.007996359 -0.13304615 -0.030562053 0.024134645 0.035955355 -0.106609784 0.02923056
-0.10335949 -0.040892158 -0.14358562 -0.10575605 -0.010024516 0.018899232 0.044506334 -0.097547896
0.1355119 -0.13257612 0.14772955 -0.006223423 0.16781597 0.061587874 -0.129818 0.10862439
-0.11236318 -0.07221791 -0.1236844 -0.067795925 -0.09244516 -0.14730519 0.22926727 0.027751898
0.0008082728 0.02366714 0.14766404 0.13405728 0.1310855 0.053169176 0.025818063 -0.020959303
0.042722214 -0.09278477 -0.025626974 -0.21132861 -0.056541875 0.08746199 0.047762033 -0.019466057
-0.0034520046 0.08225269 -0.07269115 0.03939196 0.06685486 -0.064826086 0.101618655 0.1269117
-0.046120252 -0.03779199 0.062443774 0.15142429 -0.11825904 0.18779923 -0.12993611 0.09556423
-0.00069472805 -0.0018130459 0.08985895 -0.009618158 -0.17024952 0.03443407 0.08291912 -0.13500345
0.06899342 -0.060006365 0.053818356 0.18399234 0.05162232 -0.0066910596 -0.07307668 0.1681722

bias f4 [64]
00000000: 349c 7a3d 2672 73bd efaf 0b3d e649 d93d
00000010: ba6f 773d f158 ce3d c343 c4bd 37c8 ac3d
00000020: 1777 4fbc 98ee c6bd 03b1 e03d 1313 753d
00000030: 25f2 df3d 0247 cfbd 1251 0bbd 570c d4bd
00000040: 4264 173e b6d3 34bb 4672 55ba 8425 17bd
00000050: 7177 39bd cfee ff3d 21d6 9fbd 68cc f93d
00000060: 7609 96bd 0298 22bd 8f8b fb3d ce2c d7bd
00000070: 97d6 94bc 087c 8cbd 9cd3 e13b 86ad 023e
00000080: d424 dc3d e3cc 2bbd 851e e5bd 948c b1bd
00000090: c27d 563d 0225 583d a15e a03d ee03 c93d
000000a0: 1fb9 f63c 26ba c33d f3bb 993d c5d3 9f3d
000000b0: b55b b7bd 1e55 a8bd 90b6 04bc 8081 d33d
000000c0: ba14 8d3d 3a48 ed3d aa7c f0bd 061b a5bc
000000d0: 3bbe c63d 6779 f6bc 959b f9bc b6e5 7ebd
000000e0: 06a4 9bbc f7a3 5dbb 1f02 dfbd 7983 c83d
000000f0: ebc0 42bd 96b9 23bd 7d28 ee3d 8790 243e
0.061184123 -0.059435032 0.03410333 0.10609798 0.060409285 0.10075558 -0.09583237 0.084366255
-0.012662671 -0.09713477 0.10971262 0.059832644 0.10934857 -0.101209655 -0.03401286 -0.10353916
0.14784339 -0.002759201 -0.0008142333 -0.036901012 -0.045279924 0.12496721 -0.07804514 0.121971905
-0.07326023 -0.039695747 0.12282478 -0.10506593 -0.01816873 -0.068595946 0.006891681 0.12761506
0.10749212 -0.041943442 -0.11187462 -0.08669391 0.052366026 0.05276967 0.07830549 0.09815203
0.03011757 0.09556989 0.075065516 0.07804064 -0.089530386 -0.0821936 -0.008100167 0.103274345
0.06888719 0.11586042 -0.11742528 -0.020154487 0.09704252 -0.030087186 -0.030469695 -0.06223079
-0.01899911 -0.0033819654 -0.108890764 0.097907014 -0.047547262 -0.03997191 0.11628816 0.16070758

weight f4 [64, 64]
00000000: 81e6 bfbc c92b 9fbd 9690 ce3d 9446 5ebd
00000010: 6241 3f3c 3d02 90bd 8016 1cbb fae7 4f3c
00000020: 3db6 f3bc 4bfb a53d e179 3a3d 18c1 e1bd
00000030: 0f5b bdbd f771 febd 460a 59bd 6279 a13d
00000040: 59e1 53be e840 e93d 808f 7e3d 9dca 833d
00000050: 1aaf aebd d8d2 793d 9f43 0d3e c5fc bdbc
00000060: 22de f33d d2b1 d2bc 4a53 dfbd 93d0 1c3e
00000070: 81a5 7f3d 8fbb 103e 6fe4 a8bc a567 45bd
00000080: f52b 9f3c 5bf6 893d 578a 20bd 5f73 b0bd
00000090: 0d8a 8bbe d66a 02be 154f 7fbd a1e3 b4bd
000000a0: 3dcb 1f3e 2dac e5bd 4bee c73c 94c2 6c3d
000000b0: d42c 87bc 4c9a a93d bb45 abbc 576c c73d
000000c0: b236 94bd d435 cebd 578f 97ba d65d 04bd
000000d0: 52a5 c6bd 800b 27bc f674 fabc 6f0f 023b
000000e0: 2117 e5bb e70c 273c a1c1 bfbb d5b8 b63c
000000f0: e0b1 3bbd d771 6a3d 24c2 07bd ae62 b3bd
00000100: 9d75 18be f38f 32bd b342 ab3d 67d9 cd3d
00000110: 7873 ae3d f7e7 d23c 3609 03bd 1abf 143e
00000120: 644e f23d a9dd 21bd 4b86 bdbd 961f 43bd
00000130: 490d 4d3e 6ee7 34bc a115 0cbd 2b74 ac3d
00000140: 3ede 98bd 0866 52bd 6411 d7bc aca7 963c
00000150: 904b 17be 9d90 85bd b38d 0abc f787 a6bd
00000160: 4e85 13bd 0c06 0fbe 82a0 7abd fff4 403c
00000170: 06c5 8fbc 4e7a dc3d 6d34 df3d 289c dcbd
00000180: 3701 b3bd 3a08 1b3e b9ab 32bc f344 8fbd
00000190: 2060 57ba bcc4 86bd 1b1f 60bd ff2a 80bd
000001a0: 45d7 903d 9e30 87bd b11a 18be e58e 8e3c
000001b0: 46c2 b53d 0bf6 0dbe c247 6b3d e7e1 393d
000001c0: c4d9 86bd ea3f 373c 6806 003e ec6c f13c
000001d0: 4dcb a5bd 1ac4 043d bf3d 723d ea53 c13c
000001e0: fa67 c83d 1406 98bd 7cc1 0c3d 0bdb b4bd
000001f0: 532c 8fbd aa1e e23c 5085 243d 434e 77bd
00000200: c70e 193c d81a 8cbc f045 ff3d 2451 fcbd
00000210: 173d adbd fe9a 303e 4b05 a6bd f7a5 99bc
00000220: 0078 433c 5efa 213d d621 ebbd 53ed a9bd
00000230: 25f6 a03d bd9e 1bb9 ea6f 7f3c 0c0d babd
00000240: e633 93bd 2a79 de3c 48c0 943d 096c 843d
00000250: 9e95 d0bd b629 b3bd 6093 0bbd 0c79 06be
00000260: 79e5 763b 6ec5 babd 3dc5 cebd 58b6 f9bb
00000270: 143a 0e3e 17dd c63d d027 ff3d f3d2 34be
00000280: ce8e aa3d 5395 433d b530 213e 1915 a6bb
00000290: 8081 5ebe e7cc a7bc bc25 f63c 3a6a 013e
000002a0: f7a0 c23d 9ea9 853d da7a 503c 3d2a 933d
000002b0: 5ec8 233d 0f63 9ebd 7369 5ebc 5b13 003e
000002c0: 06f7 3ebe e7c0 2dbe 7c05 9d3c d69a 0c3d
000002d0: 590f a6b9 402b 793b ad93 24bd 1d85 413d
000002e0: 903b 7cbc 2f30 c6bc 048f 02bc ebbd fb3c
000002f0: eeb1 a5bc b1a2 afbb e961 04bd 447f f93d
00000300: 139d 1dbe 2eca 3b3d 59f8 adbd 0ad2 fbbb
00000310: 9b2a 8a3d 1a15 13be 71c2 3e3d c4a6 e9bd
00000320: 9e46 85bd 1e53 6e3d abd2 8abd a052 93bc
00000330: 1af1 96bc f5c2 8abc b7bf c239 f452 09be
00000340: 50e9 17be bf59 05bc 38b1 0bbe f192 7dbd
00000350: 0909 5c3c 5dab 0fbc e1a4 08bc 5484 e3bd
00000360: 90ef db3d ebb2 8abd 90cc a83d cae8 873d
00000370: 0b52 243d 56b5 04be 2db8 823d a79d debc
00000380: b19b b83c 33a3 12be 5140 63bd 2cde f8bd
00000390: b220 f63d 6ce9 97bc 61a4 b2bc ae6a 9cbd
000003a0: c99b 963d 00e6 7a3d bc69 bb3c ca50 75bb
000003b0: 460f 67bd 60ce 67bc 5edf 373d c3b6 49bd
000003c0: 3650 bbbd 014b d2bd 3b2a d83d bb27 aabd
000003d0: e003 25be 4de6 16bd e6a7 263c 9159 0cbd
000003e0: 839d cd3d e15c e63d 088e 47bd 1338 bd3b
000003f0: 48b3 d63d 0a49 fcbc 84c7 913c ad18 3abd
-0.023425343 -0.07772023 0.10086171 -0.054266527 0.011673303 -0.07031677 -0.0023817122 0.012689585
-0.029749984 0.08104571 0.04552639 -0.11023158 -0.09245884 -0.12424081 -0.052988313 0.0788448
-0.20691432 0.11389333 0.06214857 0.0643513 -0.08529492 0.060992092 0.13795327 -0.023191819
0.11907603 -0.025719557 -0.10904558 0.1531394 0.062413696 0.14134048 -0.020616738 -0.048194546
0.01943014 0.06736442 -0.03919443 -0.08615755 -0.27253762 -0.12736067 -0.062331278 -0.08832479
0.15604873 -0.112144805 0.02440562 0.05780275 -0.016500868 0.08281383 -0.020907274 0.09737461
-0.07236995 -0.10068861 -0.0011563104 -0.03231605 -0.09699501 -0.010195613 -0.03057335 0.0019845625
-0.0069912826 0.010195947 -0.00585194 0.022304932 -0.04582393 0.057237472 -0.03314413 -0.08759056
-0.14888616 -0.043594312 0.08362331 0.10051232 0.08518118 0.025745375 -0.031991206 0.14526024
0.11831358 -0.039518032 -0.0925413 -0.047637545 0.20024599 -0.011041505 -0.034200314 0.08420595
-0.07464264 -0.051366836 -0.02625341 0.018390499 -0.14774919 -0.065217234 -0.008456635 -0.08131402
-0.0360158 -0.1396715 -0.06118823 0.011777162 -0.017550003 0.10765515 0.10898671 -0.10771972
-0.08740466 0.15139857 -0.0109052 -0.06995573 -0.0008215923 -0.06580493 -0.054717164 -0.06258201
0.070723094 -0.0660107 -0.14853932 0.017402122 0.08874945 -0.13863389 0.05744148 0.045381453
-0.06584504 0.011184672 0.12502444 0.029470883 -0.08095417 0.03241358 0.059140917 0.023599584
0.09785457 -0.07423034 0.03436421 -0.08830842 -0.06990876 0.027602512 0.0401662 -0.06037737
0.009341902 -0.017102644 0.124645114 -0.12320164 -0.084589176 0.17246625 -0.08106478 -0.018755896
0.011930466 0.03954541 -0.11481063 -0.08297219 0.07859448 -0.00014841087 0.015590647 -0.0908452
-0.07187633 0.027157385 0.07263237 0.064659186 -0.10184787 -0.0874819 -0.034076095 -0.13132113
0.0037673397 -0.09119688 -0.10096214 -0.007620614 0.13889343 0.09710138 0.124587655 -0.17658596
0.08328019 0.04774983 0.15741237 -0.005068433 -0.21729088 -0.020483447 0.03004729 0.12638178
0.09503358 0.065264925 0.012724603 0.07185791 0.039986007 -0.07733738 -0.013574946 0.12507384
-0.1864892 -0.16968118 0.019167654 0.03432735 -0.00031673422 0.0038020164 -0.040179897 0.047246087
-0.01539506 -0.024192898 -0.007968668 0.030730208 -0.020226445 -0.0053599705 -0.032319937 0.12182477
-0.1539195 0.04584711 -0.08494634 -0.0076849507 0.067464076 -0.14363518 0.046572153 -0.11408761
-0.0650761 0.058184735 -0.06778463 -0.017983735 -0.018425513 -0.016938666 0.00037145402 -0.1341055
-0.14835095 -0.008139073 -0.13641822 -0.061907712 0.0134298885 -0.0087688835 -0.008340091 -0.11109224
0.10739052 -0.06772407 0.08242142 0.06636198 0.040117305 -0.12959799 0.06382785 -0.027174784
0.022535177 -0.14320068 -0.05548126 -0.12151751 0.12017955 -0.018543921 -0.021806898 -0.07637535
0.073539324 0.0612545 0.022877567 -0.0037432187 -0.05641105 -0.014148325 0.044890754 -0.04924656
-0.091461584 -0.10268212 0.1055493 -0.08308359 -0.1611476 -0.036840726 0.010171866 -0.034265105
0.100398086 0.11248184 -0.048719436 0.005774507 0.10483414 -0.030796546 0.017795332 -0.04543369

bias f4 [64]
00000000: 3a0e 233c 5eb5 5fbd 37bb 923d f66a fc3d
00000010: d0ec a63d af28 07be 711f c63d ffc8 2cbb
00000020: 0b28 c6bd a3be 8abd 1b93 143e c4fa a4bd
00000030: c8b5 e2bc 8f92 8bbd 1d05 1c3e 2635 26bd
00000040: f44f bebd cc11 0c3c ddde 863d c3d2 553d
00000050: 4c61 18bc c08b eb3d 841d e0bb e068 c33d
00000060: eda2 8e3d 51fa 1a3d 80dc bdbd eec4 58bc
00000070: 15fc cf3d 363f 40be e2bf f2bb 11d6 19bc
00000080: 7e9b 95bd e7ad 643d 7faf b1bd 473a 79bd
00000090: 3bdf 26bd ec5f 863c 1ace 4fbd 6c7e 0f3e
000000a0: f06c 123e dc7f 06bc 1449 073e 6b68 a9bc
000000b0: 1da2 19be 616d 2cbd 92d4 dc3d 5dc5 cd3d
000000c0: 962e 6dbd aef3 a03d d3f1 a7bd ab26 dabc
000000d0: 9f1e a33d c763 50bc 343a acbd e016 a7bd
000000e0: 0d78 93bd c27d 9bbd b36b 1ebe db80 b2bc
000000f0: 28f4 acbd 1b5d 16bd c250 443d 9a7e a0bb
0.009952122 -0.054616325 0.07164615 0.12325089 0.08150637 -0.13199113 0.09673966 -0.002636492
-0.09675606 -0.06774642 0.14509241 -0.08055642 -0.02767457 -0.06815063 0.15236326 -0.04057803
-0.092925936 0.008549165 0.065854765 0.05220295 -0.009300541 0.115012646 -0.006839456 0.09541488
0.069646694 0.037836377 -0.09270573 -0.013230545 0.10155503 -0.18774113 -0.007408128 -0.009389416
-0.073050484 0.05582991 -0.08676051 -0.060846593 -0.040740233 0.016403161 -0.050733663 0.1401307
0.14299369 -0.008209195 0.13211471 -0.020679673 -0.15003248 -0.0420965 0.10782732 0.1004741
-0.057905756 0.07858978 -0.08200421 -0.026629766 0.07964825 -0.012719101 -0.08409539 -0.0815866
-0.07200632 -0.07592346 -0.15470771 -0.021789959 -0.084450066 -0.036709886 0.04792858 -0.0048979046
